…
      sampler {
        min_scale: 0.3
        max_scale: 1
        min_aspect_ratio: 0.5
        max_aspect_ratio: 2
      }
      sample_constraint {
        min_jaccard_overlap: 0.9
      }
      max_sample: 1
      max_trials: 50
    }
    batch_sampler {
      sampler {
        min_scale: 0.3
        max_scale: 1
        min_aspect_ratio: 0.5
        max_aspect_ratio: 2
      }
      sample_constraint {
        max_jaccard_overlap: 1
      }
      max_sample: 1
      max_trials: 50
    }
    label_map_file: "data/VOC0712/labelmap_voc.prototxt"
  }
}
layer {
  name: "conv1_1"
  type: "Convolution"
  bottom: "data"
  top: "conv1_1"
  param {
    lr_mult: 1
    decay_mult: 1
  }
  param {
    lr_mult: 2
    decay_mult: 0
  }
  convolution_param {
    num_output: 64
    pad: 1
    kernel_size: 3
    weight_filler {
      type: "xavier"
    }
    bias_filler {
      type: "constant"
      value: 0
    }
  }
}
layer {
  name: "relu1_1"
  type: "ReLU"
  bottom: "conv1_1"
  top: "conv1_1"
}
layer {
  name: "conv1_2"
  type: "Convolution"
  bottom: "conv1_1"
  top: "conv1_2"
  param {
    lr_mult: 1
    decay_mult: 1
  }
  param {
    lr_mult: 2
    decay_mult: 0
  }
  convolution_param {
    num_output: 64
    pad: 1
    kernel_size: 3
    weight_filler {
      type: "xavier"
    }
    bias_filler {
      type: "constant"
      value: 0
    }
  }
}
layer {
  name: "relu1_2"
  type: "ReLU"
  bottom: "conv1_2"
  top: "conv1_2"
}
layer {
  name: "pool1"
  type: "Pooling"
  bottom: "conv1_2"
  top: "pool1"
  pooling_param {
    pool: MAX
    kernel_size: 2
    stride: 2
  }
}
layer {
  name: "conv2_1"
  type: "Convolution"
  bottom: "pool1"
  top: "conv2_1"
  param {
    lr_mult: 1
    decay_mult: 1
  }
  param {
    lr_mult: 2
    decay_mult: 0
  }
  convolution_param {
    num_output: 128
    pad: 1
    kernel_size: 3
    weight_filler {
      type: "xavier"
    }
    bias_filler {
      type: "constant"
      value: 0
    }
  }
}
layer {
  name: "relu2_1"
  type: "ReLU"
  bottom: "conv2_1"
  top: "conv2_1"
}
layer {
  name: "conv2_2"
  type: "Convolution"
  bottom: "conv2_1"
  top: "conv2_2"
  param {
    lr_mult: 1
    decay_mult: 1
  }
  param {
    lr_mult: 2
    decay_mult: 0
  }
  convolution_param {
    num_output: 128
    pad: 1
    kernel_size: 3
    weight_filler {
      type: "xavier"
    }
    bias_filler {
      type: "constant"
      value: 0
    }
  }
}
layer {
  name: "relu2_2"
  type: "ReLU"
  bottom: "conv2_2"
  top: "conv2_2"
}
layer {
  name: "pool2"
  type: "Pooling"
  bottom: "conv2_2"
  top: "pool2"
  pooling_param {
    pool: MAX
    kernel_size: 2
    stride: 2
  }
}
layer {
  name: "conv3_1"
  type: "Convolution"
  bottom: "pool2"
  top: "conv3_1"
  param {
    lr_mult: 1
    decay_mult: 1
  }
  param {
    lr_mult: 2
    decay_mult: 0
  }
  convolution_param {
    num_output: 256
    pad: 1
    kernel_size: 3
    weight_filler {
      type: "xavier"
    }
    bias_filler {
      type: "constant"
      value: 0
    }
  }
}
layer {
  name: "relu3_1"
  type: "ReLU"
  bottom: "conv3_1"
  top: "conv3_1"
}
layer {
  name: "conv3_2"
  type: "Convolution"
  bottom: "conv3_1"
  top: "conv3_2"
  param {
    lr_mult: 1
    decay_mult: 1
  }
  param {
    lr_mult: 2
    decay_mult: 0
  }
  convolution_param {
    num_output: 256
    pad: 1
    kernel_size: 3
    weight_filler {
      type: "xavier"
    }
    bias_filler {
      type: "constant"
      value: 0
    }
  }
}
layer {
  name: "relu3_2"
  type: "ReLU"
  bottom: "conv3_2"
  top: "conv3_2"
}
layer {
  name: "conv3_3"
  type: "Convolution"
  bottom: "conv3_2"
  top: "conv3_3"
  param {
    lr_mult: 1
    decay_mult: 1
  }
  param {
    lr_mult: 2
    decay_mult: 0
  }
  convolution_param {
    num_output: 256
    pad: 1
    kernel_size: 3
    weight_filler {
      type: "xavier"
    }
    bias_filler {
      type: "constant"
      value: 0
    }
  }
}
layer {
  name: "relu3_3"
  type: "ReLU"
  bottom: "conv3_3"
  top: "conv3_3"
}
layer {
  name: "pool3"
  type: "Pooling"
  bottom: "conv3_3"
  top: "pool3"
  pooling_param {
    pool: MAX
    kernel_size: 2
    stride: 2
  }
}
layer {
  name: "conv4_1"
  type: "Convolution"
  bottom: "pool3"
  top: "conv4_1"
  param {
    lr_mult: 1
    decay_mult: 1
  }
  param {
    lr_mult: 2
    decay_mult: 0
  }
  convolution_param {
    num_output: 512
    pad: 1
    kernel_size: 3
    weight_filler {
      type: "xavier"
    }
    bias_filler {
      type: "constant"
      value: 0
    }
  }
}
layer {
  name: "relu4_1"
  type: "ReLU"
  bottom: "conv4_1"
  top: "conv4_1"
}
layer {
  name: "conv4_2"
  type: "Convolution"
  bottom: "conv4_1"
  top: "conv4_2"
  param {
    lr_mult: 1
    decay_mult: 1
  }
  param {
    lr_mult: 2
    decay_mult: 0
  }
  convolution_param {
    num_output: 512
    pad: 1
    kernel_size: 3
    weight_filler {
      type: "xavier"
    }
    bias_filler {
      type: "constant"
      value: 0
    }
  }
}
layer {
  name: "relu4_2"
  type: "ReLU"
  bottom: "conv4_2"
  top: "conv4_2"
}
layer {
  name: "conv4_3"
  type: "Convolution"
  bottom: "conv4_2"
  top: "conv4_3"
  param {
    lr_mult: 1
    decay_mult: 1
  }
  param {
    lr_mult: 2
    decay_mult: 0
  }
  convolution_param {
    num_output: 512
    pad: 1
    kernel_size: 3
    weight_filler {
      type: "xavier"
    }
    bias_filler {
      type: "constant"
      value: 0
    }
  }
}
layer {
  name: "relu4_3"
  type: "ReLU"
  bottom: "conv4_3"
  top: "conv4_3"
}
layer {
  name: "pool4"
  type: "Pooling"
  bottom: "conv4_3"
  top: "pool4"
  pooling_param {
    pool: MAX
    kernel_size: 2
    stride: 2
  }
}
layer {
  name: "conv5_1"
  type: "Convolution"
  bottom: "pool4"
  top: "conv5_1"
  param {
    lr_mult: 1
    decay_mult: 1
  }
  param {
    lr_mult: 2
    decay_mult: 0
  }
  convolution_param {
    num_output: 512
    pad: 1
    kernel_size: 3
    weight_filler {
      type: "xavier"
    }
    bias_filler {
      type: "constant"
      value: 0
    }
    dilation: 1
  }
}
layer {
  name: "relu5_1"
  type: "ReLU"
  bottom: "conv5_1"
  top: "conv5_1"
}
layer {
  name: "conv5_2"
  type: "Convolution"
  bottom: "conv5_1"
  top: "conv5_2"
  param {
    lr_mult: 1
    decay_mult: 1
  }
  param {
    lr_mult: 2
    decay_mult: 0
  }
  convolution_param {
    num_output: 512
    pad: 1
    kernel_size: 3
    weight_filler {
      type: "xavier"
    }
    bias_filler {
      type: "constant"
      value: 0
    }
    dilation: 1
  }
}
layer {
  name: "relu5_2"
  type: "ReLU"
  bottom: "conv5_2"
  top: "conv5_2"
}
layer {
  name: "conv5_3"
  type: "Convolution"
  bottom: "conv5_2"
  top: "conv5_3"
  param {
    lr_mult: 1
    decay_mult: 1
  }
  param {
    lr_mult: 2
    decay_mult: 0
  }
  convolution_param {
    num_output: 512
    pad: 1
    kernel_size: 3
    weight_filler {
      type: "xavier"
    }
    bias_filler {
      type: "constant"
      value: 0
    }
    dilation: 1
  }
}
layer {
  name: "relu5_3"
  type: "ReLU"
  bottom: "conv5_3"
  top: "conv5_3"
}
layer {
  name: "pool5"
  type: "Pooling"
  bottom: "conv5_3"
  top: "pool5"
  pooling_param {
    pool: MAX
    kernel_size: 3
    stride: 1
    pad: 1
  }
}
layer {
  name: "fc6"
  type: "Convolution"
  bottom: "pool5"
  top: "fc6"
  param {
    lr_mult: 1
    decay_mult: 1
  }
  param {
    lr_mult: 2
    decay_mult: 0
  }
  convolution_param {
    num_output: 1024
    pad: 6
    kernel_size: 3
    weight_filler {
      type: "xavier"
    }
    bias_filler {
      type: "constant"
      value: 0
    }
    dilation: 6
  }
}
layer {
  name: "relu6"
  type: "ReLU"
  bottom: "fc6"
  top: "fc6"
}
layer {
  name: "fc7"
  type: "Convolution"
  bottom: "fc6"
  top: "fc7"
  param {
    lr_mult: 1
    decay_mult: 1
  }
  param {
    lr_mult: 2
    decay_mult: 0
  }
  convolution_param {
    num_output: 1024
    kernel_size: 1
    weight_filler {
      type: "xavier"
    }
    bias_filler {
      type: "constant"
      value: 0
    }
  }
}
layer {
  name: "relu7"
  type: "ReLU"
  bottom: "fc7"
  top: "fc7"
}
layer {
  name: "conv6_1"
  type: "Convolution"
  bottom: "fc7"
  top: "conv6_1"
  param {
    lr_mult: 1
    decay_mult: 1
  }
  param {
    lr_mult: 2
    decay_mult: 0
  }
  convolution_param {
    num_output: 256
    pad: 0
    kernel_size: 1
    stride: 1
    weight_filler {
      type: "xavier"
    }
    bias_filler {
      type: "constant"
      value: 0
    }
  }
}
layer {
  name: "conv6_1_relu"
  type: "ReLU"
  bottom: "conv6_1"
  top: "conv6_1"
}
layer {
  name: "conv6_2"
  type: "Convolution"
  bottom: "conv6_1"
  top: "conv6_2"
  param {
    lr_mult: 1
    decay_mult: 1
  }
  param {
    lr_mult: 2
    decay_mult: 0
  }
  convolution_param {
    num_output: 512
    pad: 1
    kernel_size: 3
    stride: 2
    weight_filler {
      type: "xavier"
    }
    bias_filler {
      type: "constant"
      value: 0
    }
  }
}
layer {
  name: "conv6_2_relu"
  type: "ReLU"
  bottom: "conv6_2"
  top: "conv6_2"
}
layer {
  name: "conv7_1"
  type: "Convolution"
  bottom: "conv6_2"
  top: "conv7_1"
  param {
    lr_mult: 1
    decay_mult: 1
  }
  param {
    lr_mult: 2
    decay_mult: 0
  }
  convolution_param {
    num_output: 128
    pad: 0
    kernel_size: 1
    stride: 1
    weight_filler {
      type: "xavier"
    }
    bias_filler {
      type: "constant"
      value: 0
    }
  }
}
layer {
  name: "conv7_1_relu"
  type: "ReLU"
  bottom: "conv7_1"
  top: "conv7_1"
}
layer {
  name: "conv7_2"
  type: "Convolution"
  bottom: "conv7_1"
  top: "conv7_2"
  param {
    lr_mult: 1
    decay_mult: 1
  }
  param {
    lr_mult: 2
    decay_mult: 0
  }
  convolution_param {
    num_output: 256
    pad: 1
    kernel_size: 3
    stride: 2
    weight_filler {
      type: "xavier"
    }
    bias_filler {
      type: "constant"
      value: 0
    }
  }
}
layer {
  name: "conv7_2_relu"
  type: "ReLU"
  bottom: "conv7_2"
  top: "conv7_2"
}
layer {
  name: "conv8_1"
  type: "Convolution"
  bottom: "conv7_2"
  top: "conv8_1"
  param {
    lr_mult: 1
    decay_mult: 1
  }
  param {
    lr_mult: 2
    decay_mult: 0
  }
  convolution_param {
    num_output: 128
    pad: 0
    kernel_size: 1
    stride: 1
    weight_filler {
      type: "xavier"
    }
    bias_filler {
      type: "constant"
      value: 0
    }
  }
}
layer {
  name: "conv8_1_relu"
  type: "ReLU"
  bottom: "conv8_1"
  top: "conv8_1"
}
layer {
  name: "conv8_2"
  type: "Convolution"
  bottom: "conv8_1"
  top: "conv8_2"
  param {
    lr_mult: 1
    decay_mult: 1
  }
  param {
    lr_mult: 2
    decay_mult: 0
  }
  convolution_param {
    num_output: 256
    pad: 0
    kernel_size: 3
    stride: 1
    weight_filler {
      type: "xavier"
    }
    bias_filler {
      type: "constant"
      value: 0
    }
  }
}
layer {
  name: "conv8_2_relu"
  type: "ReLU"
  bottom: "conv8_2"
  top: "conv8_2"
}
layer {
  name: "conv9_1"
  type: "Convolution"
  bottom: "conv8_2"
  top: "conv9_1"
  param {
    lr_mult: 1
    decay_mult: 1
  }
  param {
    lr_mult: 2
    decay_mult: 0
  }
  convolution_param {
    num_output: 128
    pad: 0
    kernel_size: 1
    stride: 1
    weight_filler {
      type: "xavier"
    }
    bias_filler {
      type: "constant"
      value: 0
    }
  }
}
layer {
  name: "conv9_1_relu"
  type: "ReLU"
  bottom: "conv9_1"
  top: "conv9_1"
}
layer {
  name: "conv9_2"
  type: "Convolution"
  bottom: "conv9_1"
  top: "conv9_2"
  param {
    lr_mult: 1
    decay_mult: 1
  }
  param {
    lr_mult: 2
    decay_mult: 0
  }
  convolution_param {
    num_output: 256
    pad: 0
    kernel_size: 3
    stride: 1
    weight_filler {
      type: "xavier"
    }
    bias_filler {
      type: "constant"
      value: 0
    }
  }
}
layer {
  name: "conv9_2_relu"
  type: "ReLU"
  bottom: "conv9_2"
  top: "conv9_2"
}
layer {
  name: "conv4_3_norm"
  type: "Normalize"
  bottom: "conv4_3"
  top: "conv4_3_norm"
  norm_param {
    across_spatial: false
    scale_filler {
      type: "constant"
      value: 20
    }
    channel_shared: false
  }
}
layer {
  name: "conv4_3_norm_mbox_loc"
  type: "Convolution"
  bottom: "conv4_3_norm"
  top: "conv4_3_norm_mbox_loc"
  param {
    lr_mult: 1
    decay_mult: 1
  }
  param {
    lr_mult: 2
    decay_mult: 0
  }
  convolution_param {
    num_output: 16
    pad: 1
    kernel_size: 3
    stride: 1
    weight_filler {
      type: "xavier"
    }
    bias_filler {
      type: "constant"
      value: 0
    }
  }
}
layer {
  name: "conv4_3_norm_mbox_loc_perm"
  type: "Permute"
  bottom: "conv4_3_norm_mbox_loc"
  top: "conv4_3_norm_mbox_loc_perm"
  permute_param {
    order: 0
    order: 2
    order: 3
    order: 1
  }
}
layer {
  name: "conv4_3_norm_mbox_loc_flat"
  type: "Flatten"
  bottom: "conv4_3_norm_mbox_loc_perm"
  top: "conv4_3_norm_mbox_loc_flat"
  flatten_param {
    axis: 1
  }
}
layer {
  name: "conv4_3_norm_mbox_conf"
  type: "Convolution"
  bottom: "conv4_3_norm"
  top: "conv4_3_norm_mbox_conf"
  param {
    lr_mult: 1
    decay_mult: 1
  }
  param {
    lr_mult: 2
    decay_mult: 0
  }
  convolution_param {
    num_output: 84
    pad: 1
    kernel_size: 3
    stride: 1
    weight_filler {
      type: "xavier"
    }
    bias_filler {
      type: "constant"
      value: 0
    }
  }
}
layer {
  name: "conv4_3_norm_mbox_conf_perm"
  type: "Permute"
  bottom: "conv4_3_norm_mbox_conf"
  top: "conv4_3_norm_mbox_conf_perm"
  permute_param {
    order: 0
    order: 2
    order: 3
    order: 1
  }
}
layer {
  name: "conv4_3_norm_mbox_conf_flat"
  type: "Flatten"
  bottom: "conv4_3_norm_mbox_conf_perm"
  top: "conv4_3_norm_mbox_conf_flat"
  flatten_param {
    axis: 1
  }
}
layer {
  name: "conv4_3_norm_mbox_priorbox"
  type: "PriorBox"
  bottom: "conv4_3_norm"
  bottom: "data"
  top: "conv4_3_norm_mbox_priorbox"
  prior_box_param {
    min_size: 30
    max_size: 60
    aspect_ratio: 2
    flip: true
    clip: false
    variance: 0.1
    variance: 0.1
    variance: 0.2
    variance: 0.2
    step: 8
    offset: 0.5
  }
}
layer {
  name: "fc7_mbox_loc"
  type: "Convolution"
  bottom: "fc7"
  top: "fc7_mbox_loc"
  param {
    lr_mult: 1
    decay_mult: 1
  }
  param {
    lr_mult: 2
    decay_mult: 0
  }
  convolution_param {
    num_output: 24
    pad: 1
    kernel_size: 3
    stride: 1
    weight_filler {
      type: "xavier"
    }
    bias_filler {
      type: "constant"
      value: 0
    }
  }
}
layer {
  name: "fc7_mbox_loc_perm"
  type: "Permute"
  bottom: "fc7_mbox_loc"
  top: "fc7_mbox_loc_perm"
  permute_param {
    order: 0
    order: 2
    order: 3
    order: 1
  }
}
layer {
  name: "fc7_mbox_loc_flat"
  type: "Flatten"
  bottom: "fc7_mbox_loc_perm"
  top: "fc7_mbox_loc_flat"
  flatten_param {
    axis: 1
  }
}
layer {
  name: "fc7_mbox_conf"
  type: "Convolution"
  bottom: "fc7"
  top: "fc7_mbox_conf"
  param {
    lr_mult: 1
    decay_mult: 1
  }
  param {
    lr_mult: 2
    decay_mult: 0
  }
  convolution_param {
    num_output: 126
    pad: 1
    kernel_size: 3
    stride: 1
    weight_filler {
      type: "xavier"
    }
    bias_filler {
      type: "constant"
      value: 0
    }
  }
}
layer {
  name: "fc7_mbox_conf_perm"
  type: "Permute"
  bottom: "fc7_mbox_conf"
  top: "fc7_mbox_conf_perm"
  permute_param {
    order: 0
    order: 2
    order: 3
    order: 1
  }
}
layer {
  name: "fc7_mbox_conf_flat"
  type: "Flatten"
  bottom: "fc7_mbox_conf_perm"
  top: "fc7_mbox_conf_flat"
  flatten_param {
    axis: 1
  }
}
layer {
  name: "fc7_mbox_priorbox"
  type: "PriorBox"
  bottom: "fc7"
  bottom: "data"
  top: "fc7_mbox_priorbox"
  prior_box_param {
    min_size: 60
    max_size: 111
    aspect_ratio: 2
    aspect_ratio: 3
    flip: true
    clip: false
    variance: 0.1
    variance: 0.1
    variance: 0.2
    variance: 0.2
    step: 16
    offset: 0.5
  }
}
layer {
  name: "conv6_2_mbox_loc"
  type: "Convolution"
  bottom: "conv6_2"
  top: "conv6_2_mbox_loc"
  param {
    lr_mult: 1
    decay_mult: 1
  }
  param {
    lr_mult: 2
    decay_mult: 0
  }
  convolution_param {
    num_output: 24
    pad: 1
    kernel_size: 3
    stride: 1
    weight_filler {
      type: "xavier"
    }
    bias_filler {
      type: "constant"
      value: 0
    }
  }
}
layer {
  name: "conv6_2_mbox_loc_perm"
  type: "Permute"
  bottom: "conv6_2_mbox_loc"
  top: "conv6_2_mbox_loc_perm"
  permute_param {
    order: 0
    order: 2
    order: 3
    order: 1
  }
}
layer {
  name: "conv6_2_mbox_loc_flat"
  type: "Flatten"
  bottom: "conv6_2_mbox_loc_perm"
  top: "conv6_2_mbox_loc_flat"
  flatten_param {
    axis: 1
  }
}
layer {
  name: "conv6_2_mbox_conf"
  type: "Convolution"
  bottom: "conv6_2"
  top: "conv6_2_mbox_conf"
  param {
    lr_mult: 1
    decay_mult: 1
  }
  param {
    lr_mult: 2
    decay_mult: 0
  }
  convolution_param {
    num_output: 126
    pad: 1
    kernel_size: 3
    stride: 1
    weight_filler {
      type: "xavier"
    }
    bias_filler {
      type: "constant"
      value: 0
    }
  }
}
layer {
  name: "conv6_2_mbox_conf_perm"
  type: "Permute"
  bottom: "conv6_2_mbox_conf"
  top: "conv6_2_mbox_conf_perm"
  permute_param {
    order: 0
    order: 2
    order: 3
    order: 1
  }
}
layer {
  name: "conv6_2_mbox_conf_flat"
  type: "Flatten"
  bottom: "conv6_2_mbox_conf_perm"
  top: "conv6_2_mbox_conf_flat"
  flatten_param {
    axis: 1
  }
}
layer {
  name: "conv6_2_mbox_priorbox"
  type: "PriorBox"
  bottom: "conv6_2"
  bottom: "data"
  top: "conv6_2_mbox_priorbox"
  prior_box_param {
    min_size: 111
    max_size: 162
    aspect_ratio: 2
    aspect_ratio: 3
    flip: true
    clip: false
    variance: 0.1
    variance: 0.1
    variance: 0.2
    variance: 0.2
    step: 32
    offset: 0.5
  }
}
layer {
  name: "conv7_2_mbox_loc"
  type: "Convolution"
  bottom: "conv7_2"
  top: "conv7_2_mbox_loc"
  param {
    lr_mult: 1
    decay_mult: 1
  }
  param {
    lr_mult: 2
    decay_mult: 0
  }
  convolution_param {
    num_output: 24
    pad: 1
    kernel_size: 3
    stride: 1
    weight_filler {
      type: "xavier"
    }
    bias_filler {
      type: "constant"
      value: 0
    }
  }
}
layer {
  name: "conv7_2_mbox_loc_perm"
  type: "Permute"
  bottom: "conv7_2_mbox_loc"
  top: "conv7_2_mbox_loc_perm"
  permute_param {
    order: 0
    order: 2
    order: 3
    order: 1
  }
}
layer {
  name: "conv7_2_mbox_loc_flat"
  type: "Flatten"
  bottom: "conv7_2_mbox_loc_perm"
  top: "conv7_2_mbox_loc_flat"
  flatten_param {
    axis: 1
  }
}
layer {
  name: "conv7_2_mbox_conf"
  type: "Convolution"
  bottom: "conv7_2"
  top: "conv7_2_mbox_conf"
  param {
    lr_mult: 1
    decay_mult: 1
  }
  param {
    lr_mult: 2
    decay_mult: 0
  }
  convolution_param {
    num_output: 126
    pad: 1
    kernel_size: 3
    stride: 1
    weight_filler {
      type: "xavier"
    }
    bias_filler {
      type: "constant"
      value: 0
    }
  }
}
layer {
  name: "conv7_2_mbox_conf_perm"
  type: "Permute"
  bottom: "conv7_2_mbox_conf"
  top: "conv7_2_mbox_conf_perm"
  permute_param {
    order: 0
    order: 2
    order: 3
    order: 1
  }
}
layer {
  name: "conv7_2_mbox_conf_flat"
  type: "Flatten"
  bottom: "conv7_2_mbox_conf_perm"
  top: "conv7_2_mbox_conf_flat"
  flatten_param {
    axis: 1
  }
}
layer {
  name: "conv7_2_mbox_priorbox"
  type: "PriorBox"
  bottom: "conv7_2"
  bottom: "data"
  top: "conv7_2_mbox_priorbox"
  prior_box_param {
    min_size: 162
    max_size: 213
    aspect_ratio: 2
    aspect_ratio: 3
    flip: true
    clip: false
    variance: 0.1
    variance: 0.1
    variance: 0.2
    variance: 0.2
    step: 64
    offset: 0.5
  }
}
layer {
  name: "conv8_2_mbox_loc"
  type: "Convolution"
  bottom: "conv8_2"
  top: "conv8_2_mbox_loc"
  param {
    lr_mult: 1
    decay_mult: 1
  }
  param {
    lr_mult: 2
    decay_mult: 0
  }
  convolution_param {
    num_output: 16
    pad: 1
    kernel_size: 3
    stride: 1
    weight_filler {
      type: "xavier"
    }
    bias_filler {
      type: "constant"
      value: 0
    }
  }
}
layer {
  name: "conv8_2_mbox_loc_perm"
  type: "Permute"
  bottom: "conv8_2_mbox_loc"
  top: "conv8_2_mbox_loc_perm"
  permute_param {
    order: 0
    order: 2
    order: 3
    order: 1
  }
}
layer {
  name: "conv8_2_mbox_loc_flat"
  type: "Flatten"
  bottom: "conv8_2_mbox_loc_perm"
  top: "conv8_2_mbox_loc_flat"
  flatten_param {
    axis: 1
  }
}
layer {
  name: "conv8_2_mbox_conf"
  type: "Convolution"
  bottom: "conv8_2"
  top: "conv8_2_mbox_conf"
  param {
    lr_mult: 1
    decay_mult: 1
  }
  param {
    lr_mult: 2
    decay_mult: 0
  }
  convolution_param {
    num_output: 84
    pad: 1
    kernel_size: 3
    stride: 1
    weight_filler {
      type: "xavier"
    }
    bias_filler {
      type: "constant"
      value: 0
    }
  }
}
layer {
  name: "conv8_2_mbox_conf_perm"
  type: "Permute"
  bottom: "conv8_2_mbox_conf"
  top: "conv8_2_mbox_conf_perm"
  permute_param {
    order: 0
    order: 2
    order: 3
    order: 1
  }
}
layer {
  name: "conv8_2_mbox_conf_flat"
  type: "Flatten"
  bottom: "conv8_2_mbox_conf_perm"
  top: "conv8_2_mbox_conf_flat"
  flatten_param {
    axis: 1
  }
}
layer {
  name: "conv8_2_mbox_priorbox"
  type: "PriorBox"
  bottom: "conv8_2"
  bottom: "data"
  top: "conv8_2_mbox_priorbox"
  prior_box_param {
    min_size: 213
    max_size: 264
    aspect_ratio: 2
    flip: true
    clip: false
    variance: 0.1
    variance: 0.1
    variance: 0.2
    variance: 0.2
    step: 100
    offset: 0.5
  }
}
layer {
  name: "conv9_2_mbox_loc"
  type: "Convolution"
  bottom: "conv9_2"
  top: "conv9_2_mbox_loc"
  param {
    lr_mult: 1
    decay_mult: 1
  }
  param {
    lr_mult: 2
    decay_mult: 0
  }
  convolution_param {
    num_output: 16
    pad: 1
    kernel_size: 3
    stride: 1
    weight_filler {
      type: "xavier"
    }
    bias_filler {
      type: "constant"
      value: 0
    }
  }
}
layer {
  name: "conv9_2_mbox_loc_perm"
  type: "Permute"
  bottom: "conv9_2_mbox_loc"
  top: "conv9_2_mbox_loc_perm"
  permute_param {
    order: 0
    order: 2
    order: 3
    order: 1
  }
}
layer {
  name: "conv9_2_mbox_loc_flat"
  type: "Flatten"
  bottom: "conv9_2_mbox_loc_perm"
  top: "conv9_2_mbox_loc_flat"
  flatten_param {
    axis: 1
  }
}
layer {
  name: "conv9_2_mbox_conf"
  type: "Convolution"
  bottom: "conv9_2"
  top: "conv9_2_mbox_conf"
  param {
    lr_mult: 1
    decay_mult: 1
  }
  param {
    lr_mult: 2
    decay_mult: 0
  }
  convolution_param {
    num_output: 84
    pad: 1
    kernel_size: 3
    stride: 1
    weight_filler {
      type: "xavier"
    }
    bias_filler {
      type: "constant"
      value: 0
    }
  }
}
layer {
  name: "conv9_2_mbox_conf_perm"
  type: "Permute"
  bottom: "conv9_2_mbox_conf"
  top: "conv9_2_mbox_conf_perm"
  permute_param {
    order: 0
    order: 2
    order: 3
    order: 1
  }
}
layer {
  name: "conv9_2_mbox_conf_flat"
  type: "Flatten"
  bottom: "conv9_2_mbox_conf_perm"
  top: "conv9_2_mbox_conf_flat"
  flatten_param {
    axis: 1
  }
}
layer {
  name: "conv9_2_mbox_priorbox"
  type: "PriorBox"
  bottom: "conv9_2"
  bottom: "data"
  top: "conv9_2_mbox_priorbox"
  prior_box_param {
    min_size: 264
    max_size: 315
    aspect_ratio: 2
    flip: true
    clip: false
    variance: 0.1
    variance: 0.1
    variance: 0.2
    variance: 0.2
    step: 300
    offset: 0.5
  }
}
layer {
  name: "mbox_loc"
  type: "Concat"
  bottom: "conv4_3_norm_mbox_loc_flat"
  bottom: "fc7_mbox_loc_flat"
  bottom: "conv6_2_mbox_loc_flat"
  bottom: "conv7_2_mbox_loc_flat"
  bottom: "conv8_2_mbox_loc_flat"
  bottom: "conv9_2_mbox_loc_flat"
  top: "mbox_loc"
  concat_param {
    axis: 1
  }
}
layer {
  name: "mbox_conf"
  type: "Concat"
  bottom: "conv4_3_norm_mbox_conf_flat"
  bottom: "fc7_mbox_conf_flat"
  bottom: "conv6_2_mbox_conf_flat"
  bottom: "conv7_2_mbox_conf_flat"
  bottom: "conv8_2_mbox_conf_flat"
  bottom: "conv9_2_mbox_conf_flat"
  top: "mbox_conf"
  concat_param {
    axis: 1
  }
}
layer {
  name: "mbox_priorbox"
  type: "Concat"
  bottom: "conv4_3_norm_mbox_priorbox"
  bottom: "fc7_mbox_priorbox"
  bottom: "conv6_2_mbox_priorbox"
  bottom: "conv7_2_mbox_priorbox"
  bottom: "conv8_2_mbox_priorbox"
  bottom: "conv9_2_mbox_priorbox"
  top: "mbox_priorbox"
  concat_param {
    axis: 2
  }
}
layer {
  name: "mbox_loss"
  type: "MultiBoxLoss"
  bottom: "mbox_loc"
  bottom: "mbox_conf"
  bottom: "mbox_priorbox"
  bottom: "label"
  top: "mbox_loss"
  include {
    phase: TRAIN
  }
  propagate_down: true
  propagate_down: true
  propagate_down: false
  propagate_down: false
  loss_param {
    normalization: VALID
  }
  multibox_loss_param {
    loc_loss_type: SMOOTH_L1
    conf_loss_type: SOFTMAX
    loc_weight: 1
    num_classes: 21
    share_location: true
    match_type: PER_PREDICTION
    overlap_threshold: 0.5
    use_prior_for_matching: true
    background_label_id: 0
    use_difficult_gt: true
    neg_pos_ratio: 3
    neg_overlap: 0.5
    code_type: CENTER_SIZE
    ignore_cross_boundary_bbox: false
    mining_type: MAX_NEGATIVE
  }
}
I0623 09:28:06.710033 25934 layer_factory.hpp:77] Creating layer data
I0623 09:28:06.710392 25934 net.cpp:100] Creating Layer data
I0623 09:28:06.710410 25934 net.cpp:408] data -> data
I0623 09:28:06.710446 25934 net.cpp:408] data -> label
I0623 09:28:06.711453 25941 db_lmdb.cpp:35] Opened lmdb examples/VOC0712/VOC0712_trainval_lmdb
I0623 09:28:06.725927 25934 annotated_data_layer.cpp:62] output data size: 32,3,300,300
I0623 09:28:06.781740 25934 net.cpp:150] Setting up data
I0623 09:28:06.781780 25934 net.cpp:157] Top shape: 32 3 300 300 (8640000)
I0623 09:28:06.781786 25934 net.cpp:157] Top shape: 1 1 1 8 (8)
I0623 09:28:06.781788 25934 net.cpp:165] Memory required for data: 34560032
I0623 09:28:06.781829 25934 layer_factory.hpp:77] Creating layer data_data_0_split
I0623 09:28:06.781848 25934 net.cpp:100] Creating Layer data_data_0_split
I0623 09:28:06.781855 25934 net.cpp:434] data_data_0_split <- data
I0623 09:28:06.781872 25934 net.cpp:408] data_data_0_split -> data_data_0_split_0
I0623 09:28:06.781885 25934 net.cpp:408] data_data_0_split -> data_data_0_split_1
I0623 09:28:06.781893 25934 net.cpp:408] data_data_0_split -> data_data_0_split_2
I0623 09:28:06.781899 25934 net.cpp:408] data_data_0_split -> data_data_0_split_3
I0623 09:28:06.781908 25934 net.cpp:408] data_data_0_split -> data_data_0_split_4
I0623 09:28:06.781915 25934 net.cpp:408] data_data_0_split -> data_data_0_split_5
I0623 09:28:06.781922 25934 net.cpp:408] data_data_0_split -> data_data_0_split_6
I0623 09:28:06.782009 25934 net.cpp:150] Setting up data_data_0_split
I0623 09:28:06.782018 25934 net.cpp:157] Top shape: 32 3 300 300 (8640000)
I0623 09:28:06.782022 25934 net.cpp:157] Top shape: 32 3 300 300 (8640000)
I0623 09:28:06.782027 25934 net.cpp:157] Top shape: 32 3 300 300 (8640000)
I0623 09:28:06.782030 25934 net.cpp:157] Top shape: 32 3 300 300 (8640000)
I0623 09:28:06.782034 25934 net.cpp:157] Top shape: 32 3 300 300 (8640000)
I0623 09:28:06.782038 25934 net.cpp:157] Top shape: 32 3 300 300 (8640000)
I0623 09:28:06.782047 25934 net.cpp:157] Top shape: 32 3 300 300 (8640000)
I0623 09:28:06.782049 25934 net.cpp:165] Memory required for data: 276480032
I0623 09:28:06.782053 25934 layer_factory.hpp:77] Creating layer conv1_1
I0623 09:28:06.782075 25934 net.cpp:100] Creating Layer conv1_1
I0623 09:28:06.782079 25934 net.cpp:434] conv1_1 <- data_data_0_split_0
I0623 09:28:06.782088 25934 net.cpp:408] conv1_1 -> conv1_1
I0623 09:28:07.034799 25934 net.cpp:150] Setting up conv1_1
I0623 09:28:07.034844 25934 net.cpp:157] Top shape: 32 64 300 300 (184320000)
I0623 09:28:07.034850 25934 net.cpp:165] Memory required for data: 1013760032
I0623 09:28:07.034881 25934 layer_factory.hpp:77] Creating layer relu1_1
I0623 09:28:07.034898 25934 net.cpp:100] Creating Layer relu1_1
I0623 09:28:07.034907 25934 net.cpp:434] relu1_1 <- conv1_1
I0623 09:28:07.034919 25934 net.cpp:395] relu1_1 -> conv1_1 (in-place)
I0623 09:28:07.035158 25934 net.cpp:150] Setting up relu1_1
I0623 09:28:07.035173 25934 net.cpp:157] Top shape: 32 64 300 300 (184320000)
I0623 09:28:07.035178 25934 net.cpp:165] Memory required for data: 1751040032
I0623 09:28:07.035184 25934 layer_factory.hpp:77] Creating layer conv1_2
I0623 09:28:07.035204 25934 net.cpp:100] Creating Layer conv1_2
I0623 09:28:07.035213 25934 net.cpp:434] conv1_2 <- conv1_1
I0623 09:28:07.035223 25934 net.cpp:408] conv1_2 -> conv1_2
I0623 09:28:07.037889 25934 net.cpp:150] Setting up conv1_2
I0623 09:28:07.037925 25934 net.cpp:157] Top shape: 32 64 300 300 (184320000)
I0623 09:28:07.037930 25934 net.cpp:165] Memory required for data: 2488320032
I0623 09:28:07.037950 25934 layer_factory.hpp:77] Creating layer relu1_2
I0623 09:28:07.037964 25934 net.cpp:100] Creating Layer relu1_2
I0623 09:28:07.037971 25934 net.cpp:434] relu1_2 <- conv1_2
I0623 09:28:07.037983 25934 net.cpp:395] relu1_2 -> conv1_2 (in-place)
I0623 09:28:07.038429 25934 net.cpp:150] Setting up relu1_2
I0623 09:28:07.038445 25934 net.cpp:157] Top shape: 32 64 300 300 (184320000)
I0623 09:28:07.038450 25934 net.cpp:165] Memory required for data: 3225600032
I0623 09:28:07.038455 25934 layer_factory.hpp:77] Creating layer pool1
I0623 09:28:07.038466 25934 net.cpp:100] Creating Layer pool1
I0623 09:28:07.038472 25934 net.cpp:434] pool1 <- conv1_2
I0623 09:28:07.038480 25934 net.cpp:408] pool1 -> pool1
I0623 09:28:07.038563 25934 net.cpp:150] Setting up pool1
I0623 09:28:07.038575 25934 net.cpp:157] Top shape: 32 64 150 150 (46080000)
I0623 09:28:07.038580 25934 net.cpp:165] Memory required for data: 3409920032
I0623 09:28:07.038586 25934 layer_factory.hpp:77] Creating layer conv2_1
I0623 09:28:07.038615 25934 net.cpp:100] Creating Layer conv2_1
I0623 09:28:07.038624 25934 net.cpp:434] conv2_1 <- pool1
I0623 09:28:07.038633 25934 net.cpp:408] conv2_1 -> conv2_1
I0623 09:28:07.040971 25934 net.cpp:150] Setting up conv2_1
I0623 09:28:07.040997 25934 net.cpp:157] Top shape: 32 128 150 150 (92160000)
I0623 09:28:07.041003 25934 net.cpp:165] Memory required for data: 3778560032
I0623 09:28:07.041023 25934 layer_factory.hpp:77] Creating layer relu2_1
I0623 09:28:07.041038 25934 net.cpp:100] Creating Layer relu2_1
I0623 09:28:07.041045 25934 net.cpp:434] relu2_1 <- conv2_1
I0623 09:28:07.041059 25934 net.cpp:395] relu2_1 -> conv2_1 (in-place)
I0623 09:28:07.041497 25934 net.cpp:150] Setting up relu2_1
I0623 09:28:07.041514 25934 net.cpp:157] Top shape: 32 128 150 150 (92160000)
I0623 09:28:07.041519 25934 net.cpp:165] Memory required for data: 4147200032
I0623 09:28:07.041524 25934 layer_factory.hpp:77] Creating layer conv2_2
I0623 09:28:07.041543 25934 net.cpp:100] Creating Layer conv2_2
I0623 09:28:07.041551 25934 net.cpp:434] conv2_2 <- conv2_1
I0623 09:28:07.041565 25934 net.cpp:408] conv2_2 -> conv2_2
I0623 09:28:07.045682 25934 net.cpp:150] Setting up conv2_2
I0623 09:28:07.045727 25934 net.cpp:157] Top shape: 32 128 150 150 (92160000)
I0623 09:28:07.045732 25934 net.cpp:165] Memory required for data: 4515840032
I0623 09:28:07.045748 25934 layer_factory.hpp:77] Creating layer relu2_2
I0623 09:28:07.045763 25934 net.cpp:100] Creating Layer relu2_2
I0623 09:28:07.045769 25934 net.cpp:434] relu2_2 <- conv2_2
I0623 09:28:07.045783 25934 net.cpp:395] relu2_2 -> conv2_2 (in-place)
I0623 09:28:07.046026 25934 net.cpp:150] Setting up relu2_2
I0623 09:28:07.046041 25934 net.cpp:157] Top shape: 32 128 150 150 (92160000)
I0623 09:28:07.046046 25934 net.cpp:165] Memory required for data: 4884480032
I0623 09:28:07.046051 25934 layer_factory.hpp:77] Creating layer pool2
I0623 09:28:07.046061 25934 net.cpp:100] Creating Layer pool2
I0623 09:28:07.046067 25934 net.cpp:434] pool2 <- conv2_2
I0623 09:28:07.046077 25934 net.cpp:408] pool2 -> pool2
I0623 09:28:07.046140 25934 net.cpp:150] Setting up pool2
I0623 09:28:07.046152 25934 net.cpp:157] Top shape: 32 128 75 75 (23040000)
I0623 09:28:07.046157 25934 net.cpp:165] Memory required for data: 4976640032
I0623 09:28:07.046162 25934 layer_factory.hpp:77] Creating layer conv3_1
I0623 09:28:07.046180 25934 net.cpp:100] Creating Layer conv3_1
I0623 09:28:07.046185 25934 net.cpp:434] conv3_1 <- pool2
I0623 09:28:07.046200 25934 net.cpp:408] conv3_1 -> conv3_1
I0623 09:28:07.052709 25934 net.cpp:150] Setting up conv3_1
I0623 09:28:07.052750 25934 net.cpp:157] Top shape: 32 256 75 75 (46080000)
I0623 09:28:07.052757 25934 net.cpp:165] Memory required for data: 5160960032
I0623 09:28:07.052778 25934 layer_factory.hpp:77] Creating layer relu3_1
I0623 09:28:07.052793 25934 net.cpp:100] Creating Layer relu3_1
I0623 09:28:07.052812 25934 net.cpp:434] relu3_1 <- conv3_1
I0623 09:28:07.052827 25934 net.cpp:395] relu3_1 -> conv3_1 (in-place)
I0623 09:28:07.053303 25934 net.cpp:150] Setting up relu3_1
I0623 09:28:07.053316 25934 net.cpp:157] Top shape: 32 256 75 75 (46080000)
I0623 09:28:07.053321 25934 net.cpp:165] Memory required for data: 5345280032
I0623 09:28:07.053328 25934 layer_factory.hpp:77] Creating layer conv3_2
I0623 09:28:07.053345 25934 net.cpp:100] Creating Layer conv3_2
I0623 09:28:07.053354 25934 net.cpp:434] conv3_2 <- conv3_1
I0623 09:28:07.053367 25934 net.cpp:408] conv3_2 -> conv3_2
I0623 09:28:07.063027 25934 net.cpp:150] Setting up conv3_2
I0623 09:28:07.063071 25934 net.cpp:157] Top shape: 32 256 75 75 (46080000)
I0623 09:28:07.063077 25934 net.cpp:165] Memory required for data: 5529600032
I0623 09:28:07.063092 25934 layer_factory.hpp:77] Creating layer relu3_2
I0623 09:28:07.063107 25934 net.cpp:100] Creating Layer relu3_2
I0623 09:28:07.063113 25934 net.cpp:434] relu3_2 <- conv3_2
I0623 09:28:07.063127 25934 net.cpp:395] relu3_2 -> conv3_2 (in-place)
I0623 09:28:07.063575 25934 net.cpp:150] Setting up relu3_2
I0623 09:28:07.063591 25934 net.cpp:157] Top shape: 32 256 75 75 (46080000)
I0623 09:28:07.063596 25934 net.cpp:165] Memory required for data: 5713920032
I0623 09:28:07.063601 25934 layer_factory.hpp:77] Creating layer conv3_3
I0623 09:28:07.063649 25934 net.cpp:100] Creating Layer conv3_3
I0623 09:28:07.063657 25934 net.cpp:434] conv3_3 <- conv3_2
I0623 09:28:07.063668 25934 net.cpp:408] conv3_3 -> conv3_3
I0623 09:28:07.072969 25934 net.cpp:150] Setting up conv3_3
I0623 09:28:07.073015 25934 net.cpp:157] Top shape: 32 256 75 75 (46080000)
I0623 09:28:07.073020 25934 net.cpp:165] Memory required for data: 5898240032
I0623 09:28:07.073036 25934 layer_factory.hpp:77] Creating layer relu3_3
I0623 09:28:07.073053 25934 net.cpp:100] Creating Layer relu3_3
I0623 09:28:07.073060 25934 net.cpp:434] relu3_3 <- conv3_3
I0623 09:28:07.073071 25934 net.cpp:395] relu3_3 -> conv3_3 (in-place)
I0623 09:28:07.073319 25934 net.cpp:150] Setting up relu3_3
I0623 09:28:07.073333 25934 net.cpp:157] Top shape: 32 256 75 75 (46080000)
I0623 09:28:07.073338 25934 net.cpp:165] Memory required for data: 6082560032
I0623 09:28:07.073343 25934 layer_factory.hpp:77] Creating layer pool3
I0623 09:28:07.073355 25934 net.cpp:100] Creating Layer pool3
I0623 09:28:07.073361 25934 net.cpp:434] pool3 <- conv3_3
I0623 09:28:07.073371 25934 net.cpp:408] pool3 -> pool3
I0623 09:28:07.073436 25934 net.cpp:150] Setting up pool3
I0623 09:28:07.073448 25934 net.cpp:157] Top shape: 32 256 38 38 (11829248)
I0623 09:28:07.073452 25934 net.cpp:165] Memory required for data: 6129877024
I0623 09:28:07.073458 25934 layer_factory.hpp:77] Creating layer conv4_1
I0623 09:28:07.073479 25934 net.cpp:100] Creating Layer conv4_1
I0623 09:28:07.073487 25934 net.cpp:434] conv4_1 <- pool3
I0623 09:28:07.073496 25934 net.cpp:408] conv4_1 -> conv4_1
I0623 09:28:07.088913 25934 net.cpp:150] Setting up conv4_1
I0623 09:28:07.088963 25934 net.cpp:157] Top shape: 32 512 38 38 (23658496)
I0623 09:28:07.088968 25934 net.cpp:165] Memory required for data: 6224511008
I0623 09:28:07.088989 25934 layer_factory.hpp:77] Creating layer relu4_1
I0623 09:28:07.089005 25934 net.cpp:100] Creating Layer relu4_1
I0623 09:28:07.089022 25934 net.cpp:434] relu4_1 <- conv4_1
I0623 09:28:07.089042 25934 net.cpp:395] relu4_1 -> conv4_1 (in-place)
I0623 09:28:07.089433 25934 net.cpp:150] Setting up relu4_1
I0623 09:28:07.089447 25934 net.cpp:157] Top shape: 32 512 38 38 (23658496)
I0623 09:28:07.089453 25934 net.cpp:165] Memory required for data: 6319144992
I0623 09:28:07.089462 25934 layer_factory.hpp:77] Creating layer conv4_2
I0623 09:28:07.089488 25934 net.cpp:100] Creating Layer conv4_2
I0623 09:28:07.089495 25934 net.cpp:434] conv4_2 <- conv4_1
I0623 09:28:07.089511 25934 net.cpp:408] conv4_2 -> conv4_2
I0623 09:28:07.109040 25934 net.cpp:150] Setting up conv4_2
I0623 09:28:07.109081 25934 net.cpp:157] Top shape: 32 512 38 38 (23658496)
I0623 09:28:07.109087 25934 net.cpp:165] Memory required for data: 6413778976
I0623 09:28:07.109114 25934 layer_factory.hpp:77] Creating layer relu4_2
I0623 09:28:07.109134 25934 net.cpp:100] Creating Layer relu4_2
I0623 09:28:07.109144 25934 net.cpp:434] relu4_2 <- conv4_2
I0623 09:28:07.109159 25934 net.cpp:395] relu4_2 -> conv4_2 (in-place)
I0623 09:28:07.109514 25934 net.cpp:150] Setting up relu4_2
I0623 09:28:07.109529 25934 net.cpp:157] Top shape: 32 512 38 38 (23658496)
I0623 09:28:07.109534 25934 net.cpp:165] Memory required for data: 6508412960
I0623 09:28:07.109541 25934 layer_factory.hpp:77] Creating layer conv4_3
I0623 09:28:07.109563 25934 net.cpp:100] Creating Layer conv4_3
I0623 09:28:07.109570 25934 net.cpp:434] conv4_3 <- conv4_2
I0623 09:28:07.109583 25934 net.cpp:408] conv4_3 -> conv4_3
I0623 09:28:07.128984 25934 net.cpp:150] Setting up conv4_3
I0623 09:28:07.129025 25934 net.cpp:157] Top shape: 32 512 38 38 (23658496)
I0623 09:28:07.129031 25934 net.cpp:165] Memory required for data: 6603046944
I0623 09:28:07.129047 25934 layer_factory.hpp:77] Creating layer relu4_3
I0623 09:28:07.129061 25934 net.cpp:100] Creating Layer relu4_3
I0623 09:28:07.129071 25934 net.cpp:434] relu4_3 <- conv4_3
I0623 09:28:07.129084 25934 net.cpp:395] relu4_3 -> conv4_3 (in-place)
I0623 09:28:07.129276 25934 net.cpp:150] Setting up relu4_3
I0623 09:28:07.129289 25934 net.cpp:157] Top shape: 32 512 38 38 (23658496)
I0623 09:28:07.129310 25934 net.cpp:165] Memory required for data: 6697680928
I0623 09:28:07.129317 25934 layer_factory.hpp:77] Creating layer conv4_3_relu4_3_0_split
I0623 09:28:07.129331 25934 net.cpp:100] Creating Layer conv4_3_relu4_3_0_split
I0623 09:28:07.129339 25934 net.cpp:434] conv4_3_relu4_3_0_split <- conv4_3
I0623 09:28:07.129354 25934 net.cpp:408] conv4_3_relu4_3_0_split -> conv4_3_relu4_3_0_split_0
I0623 09:28:07.129370 25934 net.cpp:408] conv4_3_relu4_3_0_split -> conv4_3_relu4_3_0_split_1
I0623 09:28:07.129427 25934 net.cpp:150] Setting up conv4_3_relu4_3_0_split
I0623 09:28:07.129439 25934 net.cpp:157] Top shape: 32 512 38 38 (23658496)
I0623 09:28:07.129451 25934 net.cpp:157] Top shape: 32 512 38 38 (23658496)
I0623 09:28:07.129458 25934 net.cpp:165] Memory required for data: 6886948896
I0623 09:28:07.129465 25934 layer_factory.hpp:77] Creating layer pool4
I0623 09:28:07.129482 25934 net.cpp:100] Creating Layer pool4
I0623 09:28:07.129488 25934 net.cpp:434] pool4 <- conv4_3_relu4_3_0_split_0
I0623 09:28:07.129499 25934 net.cpp:408] pool4 -> pool4
I0623 09:28:07.129554 25934 net.cpp:150] Setting up pool4
I0623 09:28:07.129566 25934 net.cpp:157] Top shape: 32 512 19 19 (5914624)
I0623 09:28:07.129572 25934 net.cpp:165] Memory required for data: 6910607392
I0623 09:28:07.129580 25934 layer_factory.hpp:77] Creating layer conv5_1
I0623 09:28:07.129603 25934 net.cpp:100] Creating Layer conv5_1
I0623 09:28:07.129611 25934 net.cpp:434] conv5_1 <- pool4
I0623 09:28:07.129624 25934 net.cpp:408] conv5_1 -> conv5_1
I0623 09:28:07.148955 25934 net.cpp:150] Setting up conv5_1
I0623 09:28:07.148993 25934 net.cpp:157] Top shape: 32 512 19 19 (5914624)
I0623 09:28:07.148998 25934 net.cpp:165] Memory required for data: 6934265888
I0623 09:28:07.149014 25934 layer_factory.hpp:77] Creating layer relu5_1
I0623 09:28:07.149031 25934 net.cpp:100] Creating Layer relu5_1
I0623 09:28:07.149040 25934 net.cpp:434] relu5_1 <- conv5_1
I0623 09:28:07.149058 25934 net.cpp:395] relu5_1 -> conv5_1 (in-place)
I0623 09:28:07.149415 25934 net.cpp:150] Setting up relu5_1
I0623 09:28:07.149428 25934 net.cpp:157] Top shape: 32 512 19 19 (5914624)
I0623 09:28:07.149435 25934 net.cpp:165] Memory required for data: 6957924384
I0623 09:28:07.149442 25934 layer_factory.hpp:77] Creating layer conv5_2
I0623 09:28:07.149463 25934 net.cpp:100] Creating Layer conv5_2
I0623 09:28:07.149471 25934 net.cpp:434] conv5_2 <- conv5_1
I0623 09:28:07.149485 25934 net.cpp:408] conv5_2 -> conv5_2
I0623 09:28:07.168401 25934 net.cpp:150] Setting up conv5_2
I0623 09:28:07.168432 25934 net.cpp:157] Top shape: 32 512 19 19 (5914624)
I0623 09:28:07.168438 25934 net.cpp:165] Memory required for data: 6981582880
I0623 09:28:07.168454 25934 layer_factory.hpp:77] Creating layer relu5_2
I0623 09:28:07.168471 25934 net.cpp:100] Creating Layer relu5_2
I0623 09:28:07.168480 25934 net.cpp:434] relu5_2 <- conv5_2
I0623 09:28:07.168493 25934 net.cpp:395] relu5_2 -> conv5_2 (in-place)
I0623 09:28:07.168848 25934 net.cpp:150] Setting up relu5_2
I0623 09:28:07.168861 25934 net.cpp:157] Top shape: 32 512 19 19 (5914624)
I0623 09:28:07.168867 25934 net.cpp:165] Memory required for data: 7005241376
I0623 09:28:07.168874 25934 layer_factory.hpp:77] Creating layer conv5_3
I0623 09:28:07.168897 25934 net.cpp:100] Creating Layer conv5_3
I0623 09:28:07.168905 25934 net.cpp:434] conv5_3 <- conv5_2
I0623 09:28:07.168918 25934 net.cpp:408] conv5_3 -> conv5_3
I0623 09:28:07.188078 25934 net.cpp:150] Setting up conv5_3
I0623 09:28:07.188113 25934 net.cpp:157] Top shape: 32 512 19 19 (5914624)
I0623 09:28:07.188119 25934 net.cpp:165] Memory required for data: 7028899872
I0623 09:28:07.188135 25934 layer_factory.hpp:77] Creating layer relu5_3
I0623 09:28:07.188160 25934 net.cpp:100] Creating Layer relu5_3
I0623 09:28:07.188169 25934 net.cpp:434] relu5_3 <- conv5_3
I0623 09:28:07.188184 25934 net.cpp:395] relu5_3 -> conv5_3 (in-place)
I0623 09:28:07.188364 25934 net.cpp:150] Setting up relu5_3
I0623 09:28:07.188377 25934 net.cpp:157] Top shape: 32 512 19 19 (5914624)
I0623 09:28:07.188396 25934 net.cpp:165] Memory required for data: 7052558368
I0623 09:28:07.188403 25934 layer_factory.hpp:77] Creating layer pool5
I0623 09:28:07.188421 25934 net.cpp:100] Creating Layer pool5
I0623 09:28:07.188428 25934 net.cpp:434] pool5 <- conv5_3
I0623 09:28:07.188438 25934 net.cpp:408] pool5 -> pool5
I0623 09:28:07.188498 25934 net.cpp:150] Setting up pool5
I0623 09:28:07.188510 25934 net.cpp:157] Top shape: 32 512 19 19 (5914624)
I0623 09:28:07.188516 25934 net.cpp:165] Memory required for data: 7076216864
I0623 09:28:07.188524 25934 layer_factory.hpp:77] Creating layer fc6
I0623 09:28:07.188545 25934 net.cpp:100] Creating Layer fc6
I0623 09:28:07.188552 25934 net.cpp:434] fc6 <- pool5
I0623 09:28:07.188566 25934 net.cpp:408] fc6 -> fc6
I0623 09:28:07.224717 25934 net.cpp:150] Setting up fc6
I0623 09:28:07.224756 25934 net.cpp:157] Top shape: 32 1024 19 19 (11829248)
I0623 09:28:07.224761 25934 net.cpp:165] Memory required for data: 7123533856
I0623 09:28:07.224776 25934 layer_factory.hpp:77] Creating layer relu6
I0623 09:28:07.224792 25934 net.cpp:100] Creating Layer relu6
I0623 09:28:07.224800 25934 net.cpp:434] relu6 <- fc6
I0623 09:28:07.224817 25934 net.cpp:395] relu6 -> fc6 (in-place)
I0623 09:28:07.225343 25934 net.cpp:150] Setting up relu6
I0623 09:28:07.225358 25934 net.cpp:157] Top shape: 32 1024 19 19 (11829248)
I0623 09:28:07.225363 25934 net.cpp:165] Memory required for data: 7170850848
I0623 09:28:07.225373 25934 layer_factory.hpp:77] Creating layer fc7
I0623 09:28:07.225396 25934 net.cpp:100] Creating Layer fc7
I0623 09:28:07.225404 25934 net.cpp:434] fc7 <- fc6
I0623 09:28:07.225417 25934 net.cpp:408] fc7 -> fc7
I0623 09:28:07.234390 25934 net.cpp:150] Setting up fc7
I0623 09:28:07.234412 25934 net.cpp:157] Top shape: 32 1024 19 19 (11829248)
I0623 09:28:07.234418 25934 net.cpp:165] Memory required for data: 7218167840
I0623 09:28:07.234432 25934 layer_factory.hpp:77] Creating layer relu7
I0623 09:28:07.234446 25934 net.cpp:100] Creating Layer relu7
I0623 09:28:07.234457 25934 net.cpp:434] relu7 <- fc7
I0623 09:28:07.234469 25934 net.cpp:395] relu7 -> fc7 (in-place)
I0623 09:28:07.234654 25934 net.cpp:150] Setting up relu7
I0623 09:28:07.234668 25934 net.cpp:157] Top shape: 32 1024 19 19 (11829248)
I0623 09:28:07.234673 25934 net.cpp:165] Memory required for data: 7265484832
I0623 09:28:07.234683 25934 layer_factory.hpp:77] Creating layer fc7_relu7_0_split
I0623 09:28:07.234699 25934 net.cpp:100] Creating Layer fc7_relu7_0_split
I0623 09:28:07.234705 25934 net.cpp:434] fc7_relu7_0_split <- fc7
I0623 09:28:07.234716 25934 net.cpp:408] fc7_relu7_0_split -> fc7_relu7_0_split_0
I0623 09:28:07.234733 25934 net.cpp:408] fc7_relu7_0_split -> fc7_relu7_0_split_1
I0623 09:28:07.234753 25934 net.cpp:408] fc7_relu7_0_split -> fc7_relu7_0_split_2
I0623 09:28:07.234767 25934 net.cpp:408] fc7_relu7_0_split -> fc7_relu7_0_split_3
I0623 09:28:07.234848 25934 net.cpp:150] Setting up fc7_relu7_0_split
I0623 09:28:07.234859 25934 net.cpp:157] Top shape: 32 1024 19 19 (11829248)
I0623 09:28:07.234874 25934 net.cpp:157] Top shape: 32 1024 19 19 (11829248)
I0623 09:28:07.234884 25934 net.cpp:157] Top shape: 32 1024 19 19 (11829248)
I0623 09:28:07.234894 25934 net.cpp:157] Top shape: 32 1024 19 19 (11829248)
I0623 09:28:07.234900 25934 net.cpp:165] Memory required for data: 7454752800
I0623 09:28:07.234906 25934 layer_factory.hpp:77] Creating layer conv6_1
I0623 09:28:07.234925 25934 net.cpp:100] Creating Layer conv6_1
I0623 09:28:07.234931 25934 net.cpp:434] conv6_1 <- fc7_relu7_0_split_0
I0623 09:28:07.234947 25934 net.cpp:408] conv6_1 -> conv6_1
I0623 09:28:07.238318 25934 net.cpp:150] Setting up conv6_1
I0623 09:28:07.238337 25934 net.cpp:157] Top shape: 32 256 19 19 (2957312)
I0623 09:28:07.238343 25934 net.cpp:165] Memory required for data: 7466582048
I0623 09:28:07.238359 25934 layer_factory.hpp:77] Creating layer conv6_1_relu
I0623 09:28:07.238370 25934 net.cpp:100] Creating Layer conv6_1_relu
I0623 09:28:07.238379 25934 net.cpp:434] conv6_1_relu <- conv6_1
I0623 09:28:07.238406 25934 net.cpp:395] conv6_1_relu -> conv6_1 (in-place)
I0623 09:28:07.238595 25934 net.cpp:150] Setting up conv6_1_relu
I0623 09:28:07.238607 25934 net.cpp:157] Top shape: 32 256 19 19 (2957312)
I0623 09:28:07.238613 25934 net.cpp:165] Memory required for data: 7478411296
I0623 09:28:07.238622 25934 layer_factory.hpp:77] Creating layer conv6_2
I0623 09:28:07.238641 25934 net.cpp:100] Creating Layer conv6_2
I0623 09:28:07.238648 25934 net.cpp:434] conv6_2 <- conv6_1
I0623 09:28:07.238662 25934 net.cpp:408] conv6_2 -> conv6_2
I0623 09:28:07.248585 25934 net.cpp:150] Setting up conv6_2
I0623 09:28:07.248611 25934 net.cpp:157] Top shape: 32 512 10 10 (1638400)
I0623 09:28:07.248616 25934 net.cpp:165] Memory required for data: 7484964896
I0623 09:28:07.248641 25934 layer_factory.hpp:77] Creating layer conv6_2_relu
I0623 09:28:07.248653 25934 net.cpp:100] Creating Layer conv6_2_relu
I0623 09:28:07.248663 25934 net.cpp:434] conv6_2_relu <- conv6_2
I0623 09:28:07.248678 25934 net.cpp:395] conv6_2_relu -> conv6_2 (in-place)
I0623 09:28:07.249035 25934 net.cpp:150] Setting up conv6_2_relu
I0623 09:28:07.249049 25934 net.cpp:157] Top shape: 32 512 10 10 (1638400)
I0623 09:28:07.249055 25934 net.cpp:165] Memory required for data: 7491518496
I0623 09:28:07.249065 25934 layer_factory.hpp:77] Creating layer conv6_2_conv6_2_relu_0_split
I0623 09:28:07.249080 25934 net.cpp:100] Creating Layer conv6_2_conv6_2_relu_0_split
I0623 09:28:07.249089 25934 net.cpp:434] conv6_2_conv6_2_relu_0_split <- conv6_2
I0623 09:28:07.249099 25934 net.cpp:408] conv6_2_conv6_2_relu_0_split -> conv6_2_conv6_2_relu_0_split_0
I0623 09:28:07.249116 25934 net.cpp:408] conv6_2_conv6_2_relu_0_split -> conv6_2_conv6_2_relu_0_split_1
I0623 09:28:07.249128 25934 net.cpp:408] conv6_2_conv6_2_relu_0_split -> conv6_2_conv6_2_relu_0_split_2
I0623 09:28:07.249142 25934 net.cpp:408] conv6_2_conv6_2_relu_0_split -> conv6_2_conv6_2_relu_0_split_3
I0623 09:28:07.249227 25934 net.cpp:150] Setting up conv6_2_conv6_2_relu_0_split
I0623 09:28:07.249238 25934 net.cpp:157] Top shape: 32 512 10 10 (1638400)
I0623 09:28:07.249249 25934 net.cpp:157] Top shape: 32 512 10 10 (1638400)
I0623 09:28:07.249258 25934 net.cpp:157] Top shape: 32 512 10 10 (1638400)
I0623 09:28:07.249266 25934 net.cpp:157] Top shape: 32 512 10 10 (1638400)
I0623 09:28:07.249274 25934 net.cpp:165] Memory required for data: 7517732896
I0623 09:28:07.249280 25934 layer_factory.hpp:77] Creating layer conv7_1
I0623 09:28:07.249300 25934 net.cpp:100] Creating Layer conv7_1
I0623 09:28:07.249307 25934 net.cpp:434] conv7_1 <- conv6_2_conv6_2_relu_0_split_0
I0623 09:28:07.249320 25934 net.cpp:408] conv7_1 -> conv7_1
I0623 09:28:07.250919 25934 net.cpp:150] Setting up conv7_1
I0623 09:28:07.250934 25934 net.cpp:157] Top shape: 32 128 10 10 (409600)
I0623 09:28:07.250941 25934 net.cpp:165] Memory required for data: 7519371296
I0623 09:28:07.250953 25934 layer_factory.hpp:77] Creating layer conv7_1_relu
I0623 09:28:07.250965 25934 net.cpp:100] Creating Layer conv7_1_relu
I0623 09:28:07.250974 25934 net.cpp:434] conv7_1_relu <- conv7_1
I0623 09:28:07.250988 25934 net.cpp:395] conv7_1_relu -> conv7_1 (in-place)
I0623 09:28:07.251164 25934 net.cpp:150] Setting up conv7_1_relu
I0623 09:28:07.251178 25934 net.cpp:157] Top shape: 32 128 10 10 (409600)
I0623 09:28:07.251183 25934 net.cpp:165] Memory required for data: 7521009696
I0623 09:28:07.251191 25934 layer_factory.hpp:77] Creating layer conv7_2
I0623 09:28:07.251211 25934 net.cpp:100] Creating Layer conv7_2
I0623 09:28:07.251219 25934 net.cpp:434] conv7_2 <- conv7_1
I0623 09:28:07.251230 25934 net.cpp:408] conv7_2 -> conv7_2
I0623 09:28:07.254699 25934 net.cpp:150] Setting up conv7_2
I0623 09:28:07.254716 25934 net.cpp:157] Top shape: 32 256 5 5 (204800)
I0623 09:28:07.254722 25934 net.cpp:165] Memory required for data: 7521828896
I0623 09:28:07.254734 25934 layer_factory.hpp:77] Creating layer conv7_2_relu
I0623 09:28:07.254748 25934 net.cpp:100] Creating Layer conv7_2_relu
I0623 09:28:07.254757 25934 net.cpp:434] conv7_2_relu <- conv7_2
I0623 09:28:07.254773 25934 net.cpp:395] conv7_2_relu -> conv7_2 (in-place)
I0623 09:28:07.254966 25934 net.cpp:150] Setting up conv7_2_relu
I0623 09:28:07.254979 25934 net.cpp:157] Top shape: 32 256 5 5 (204800)
I0623 09:28:07.254986 25934 net.cpp:165] Memory required for data: 7522648096
I0623 09:28:07.254992 25934 layer_factory.hpp:77] Creating layer conv7_2_conv7_2_relu_0_split
I0623 09:28:07.255008 25934 net.cpp:100] Creating Layer conv7_2_conv7_2_relu_0_split
I0623 09:28:07.255017 25934 net.cpp:434] conv7_2_conv7_2_relu_0_split <- conv7_2
I0623 09:28:07.255029 25934 net.cpp:408] conv7_2_conv7_2_relu_0_split -> conv7_2_conv7_2_relu_0_split_0
I0623 09:28:07.255044 25934 net.cpp:408] conv7_2_conv7_2_relu_0_split -> conv7_2_conv7_2_relu_0_split_1
I0623 09:28:07.255059 25934 net.cpp:408] conv7_2_conv7_2_relu_0_split -> conv7_2_conv7_2_relu_0_split_2
I0623 09:28:07.255071 25934 net.cpp:408] conv7_2_conv7_2_relu_0_split -> conv7_2_conv7_2_relu_0_split_3
I0623 09:28:07.255156 25934 net.cpp:150] Setting up conv7_2_conv7_2_relu_0_split
I0623 09:28:07.255168 25934 net.cpp:157] Top shape: 32 256 5 5 (204800)
I0623 09:28:07.255179 25934 net.cpp:157] Top shape: 32 256 5 5 (204800)
I0623 09:28:07.255188 25934 net.cpp:157] Top shape: 32 256 5 5 (204800)
I0623 09:28:07.255198 25934 net.cpp:157] Top shape: 32 256 5 5 (204800)
I0623 09:28:07.255204 25934 net.cpp:165] Memory required for data: 7525924896
I0623 09:28:07.255213 25934 layer_factory.hpp:77] Creating layer conv8_1
I0623 09:28:07.255231 25934 net.cpp:100] Creating Layer conv8_1
I0623 09:28:07.255239 25934 net.cpp:434] conv8_1 <- conv7_2_conv7_2_relu_0_split_0
I0623 09:28:07.255250 25934 net.cpp:408] conv8_1 -> conv8_1
I0623 09:28:07.256623 25934 net.cpp:150] Setting up conv8_1
I0623 09:28:07.256639 25934 net.cpp:157] Top shape: 32 128 5 5 (102400)
I0623 09:28:07.256644 25934 net.cpp:165] Memory required for data: 7526334496
I0623 09:28:07.256657 25934 layer_factory.hpp:77] Creating layer conv8_1_relu
I0623 09:28:07.256671 25934 net.cpp:100] Creating Layer conv8_1_relu
I0623 09:28:07.256680 25934 net.cpp:434] conv8_1_relu <- conv8_1
I0623 09:28:07.256691 25934 net.cpp:395] conv8_1_relu -> conv8_1 (in-place)
I0623 09:28:07.257045 25934 net.cpp:150] Setting up conv8_1_relu
I0623 09:28:07.257061 25934 net.cpp:157] Top shape: 32 128 5 5 (102400)
I0623 09:28:07.257069 25934 net.cpp:165] Memory required for data: 7526744096
I0623 09:28:07.257076 25934 layer_factory.hpp:77] Creating layer conv8_2
I0623 09:28:07.257095 25934 net.cpp:100] Creating Layer conv8_2
I0623 09:28:07.257102 25934 net.cpp:434] conv8_2 <- conv8_1
I0623 09:28:07.257114 25934 net.cpp:408] conv8_2 -> conv8_2
I0623 09:28:07.260552 25934 net.cpp:150] Setting up conv8_2
I0623 09:28:07.260571 25934 net.cpp:157] Top shape: 32 256 3 3 (73728)
I0623 09:28:07.260576 25934 net.cpp:165] Memory required for data: 7527039008
I0623 09:28:07.260589 25934 layer_factory.hpp:77] Creating layer conv8_2_relu
I0623 09:28:07.260601 25934 net.cpp:100] Creating Layer conv8_2_relu
I0623 09:28:07.260610 25934 net.cpp:434] conv8_2_relu <- conv8_2
I0623 09:28:07.260625 25934 net.cpp:395] conv8_2_relu -> conv8_2 (in-place)
I0623 09:28:07.260805 25934 net.cpp:150] Setting up conv8_2_relu
I0623 09:28:07.260818 25934 net.cpp:157] Top shape: 32 256 3 3 (73728)
I0623 09:28:07.260824 25934 net.cpp:165] Memory required for data: 7527333920
I0623 09:28:07.260833 25934 layer_factory.hpp:77] Creating layer conv8_2_conv8_2_relu_0_split
I0623 09:28:07.260848 25934 net.cpp:100] Creating Layer conv8_2_conv8_2_relu_0_split
I0623 09:28:07.260855 25934 net.cpp:434] conv8_2_conv8_2_relu_0_split <- conv8_2
I0623 09:28:07.260866 25934 net.cpp:408] conv8_2_conv8_2_relu_0_split -> conv8_2_conv8_2_relu_0_split_0
I0623 09:28:07.260880 25934 net.cpp:408] conv8_2_conv8_2_relu_0_split -> conv8_2_conv8_2_relu_0_split_1
I0623 09:28:07.260895 25934 net.cpp:408] conv8_2_conv8_2_relu_0_split -> conv8_2_conv8_2_relu_0_split_2
I0623 09:28:07.260908 25934 net.cpp:408] conv8_2_conv8_2_relu_0_split -> conv8_2_conv8_2_relu_0_split_3
I0623 09:28:07.260993 25934 net.cpp:150] Setting up conv8_2_conv8_2_relu_0_split
I0623 09:28:07.261015 25934 net.cpp:157] Top shape: 32 256 3 3 (73728)
I0623 09:28:07.261024 25934 net.cpp:157] Top shape: 32 256 3 3 (73728)
I0623 09:28:07.261032 25934 net.cpp:157] Top shape: 32 256 3 3 (73728)
I0623 09:28:07.261042 25934 net.cpp:157] Top shape: 32 256 3 3 (73728)
I0623 09:28:07.261050 25934 net.cpp:165] Memory required for data: 7528513568
I0623 09:28:07.261057 25934 layer_factory.hpp:77] Creating layer conv9_1
I0623 09:28:07.261080 25934 net.cpp:100] Creating Layer conv9_1
I0623 09:28:07.261086 25934 net.cpp:434] conv9_1 <- conv8_2_conv8_2_relu_0_split_0
I0623 09:28:07.261099 25934 net.cpp:408] conv9_1 -> conv9_1
I0623 09:28:07.262478 25934 net.cpp:150] Setting up conv9_1
I0623 09:28:07.262495 25934 net.cpp:157] Top shape: 32 128 3 3 (36864)
I0623 09:28:07.262501 25934 net.cpp:165] Memory required for data: 7528661024
I0623 09:28:07.262513 25934 layer_factory.hpp:77] Creating layer conv9_1_relu
I0623 09:28:07.262526 25934 net.cpp:100] Creating Layer conv9_1_relu
I0623 09:28:07.262537 25934 net.cpp:434] conv9_1_relu <- conv9_1
I0623 09:28:07.262548 25934 net.cpp:395] conv9_1_relu -> conv9_1 (in-place)
I0623 09:28:07.262730 25934 net.cpp:150] Setting up conv9_1_relu
I0623 09:28:07.262743 25934 net.cpp:157] Top shape: 32 128 3 3 (36864)
I0623 09:28:07.262749 25934 net.cpp:165] Memory required for data: 7528808480
I0623 09:28:07.262758 25934 layer_factory.hpp:77] Creating layer conv9_2
I0623 09:28:07.262778 25934 net.cpp:100] Creating Layer conv9_2
I0623 09:28:07.262784 25934 net.cpp:434] conv9_2 <- conv9_1
I0623 09:28:07.262796 25934 net.cpp:408] conv9_2 -> conv9_2
I0623 09:28:07.266239 25934 net.cpp:150] Setting up conv9_2
I0623 09:28:07.266258 25934 net.cpp:157] Top shape: 32 256 1 1 (8192)
I0623 09:28:07.266265 25934 net.cpp:165] Memory required for data: 7528841248
I0623 09:28:07.266278 25934 layer_factory.hpp:77] Creating layer conv9_2_relu
I0623 09:28:07.266289 25934 net.cpp:100] Creating Layer conv9_2_relu
I0623 09:28:07.266299 25934 net.cpp:434] conv9_2_relu <- conv9_2
I0623 09:28:07.266319 25934 net.cpp:395] conv9_2_relu -> conv9_2 (in-place)
I0623 09:28:07.266681 25934 net.cpp:150] Setting up conv9_2_relu
I0623 09:28:07.266695 25934 net.cpp:157] Top shape: 32 256 1 1 (8192)
I0623 09:28:07.266701 25934 net.cpp:165] Memory required for data: 7528874016
I0623 09:28:07.266711 25934 layer_factory.hpp:77] Creating layer conv9_2_conv9_2_relu_0_split
I0623 09:28:07.266723 25934 net.cpp:100] Creating Layer conv9_2_conv9_2_relu_0_split
I0623 09:28:07.266732 25934 net.cpp:434] conv9_2_conv9_2_relu_0_split <- conv9_2
I0623 09:28:07.266746 25934 net.cpp:408] conv9_2_conv9_2_relu_0_split -> conv9_2_conv9_2_relu_0_split_0
I0623 09:28:07.266759 25934 net.cpp:408] conv9_2_conv9_2_relu_0_split -> conv9_2_conv9_2_relu_0_split_1
I0623 09:28:07.266774 25934 net.cpp:408] conv9_2_conv9_2_relu_0_split -> conv9_2_conv9_2_relu_0_split_2
I0623 09:28:07.266847 25934 net.cpp:150] Setting up conv9_2_conv9_2_relu_0_split
I0623 09:28:07.266860 25934 net.cpp:157] Top shape: 32 256 1 1 (8192)
I0623 09:28:07.266870 25934 net.cpp:157] Top shape: 32 256 1 1 (8192)
I0623 09:28:07.266880 25934 net.cpp:157] Top shape: 32 256 1 1 (8192)
I0623 09:28:07.266886 25934 net.cpp:165] Memory required for data: 7528972320
I0623 09:28:07.266893 25934 layer_factory.hpp:77] Creating layer conv4_3_norm
I0623 09:28:07.266906 25934 net.cpp:100] Creating Layer conv4_3_norm
I0623 09:28:07.266914 25934 net.cpp:434] conv4_3_norm <- conv4_3_relu4_3_0_split_1
I0623 09:28:07.266929 25934 net.cpp:408] conv4_3_norm -> conv4_3_norm
I0623 09:28:07.267118 25934 net.cpp:150] Setting up conv4_3_norm
I0623 09:28:07.267130 25934 net.cpp:157] Top shape: 32 512 38 38 (23658496)
I0623 09:28:07.267137 25934 net.cpp:165] Memory required for data: 7623606304
I0623 09:28:07.267148 25934 layer_factory.hpp:77] Creating layer conv4_3_norm_conv4_3_norm_0_split
I0623 09:28:07.267159 25934 net.cpp:100] Creating Layer conv4_3_norm_conv4_3_norm_0_split
I0623 09:28:07.267168 25934 net.cpp:434] conv4_3_norm_conv4_3_norm_0_split <- conv4_3_norm
I0623 09:28:07.267181 25934 net.cpp:408] conv4_3_norm_conv4_3_norm_0_split -> conv4_3_norm_conv4_3_norm_0_split_0
I0623 09:28:07.267208 25934 net.cpp:408] conv4_3_norm_conv4_3_norm_0_split -> conv4_3_norm_conv4_3_norm_0_split_1
I0623 09:28:07.267221 25934 net.cpp:408] conv4_3_norm_conv4_3_norm_0_split -> conv4_3_norm_conv4_3_norm_0_split_2
I0623 09:28:07.267290 25934 net.cpp:150] Setting up conv4_3_norm_conv4_3_norm_0_split
I0623 09:28:07.267302 25934 net.cpp:157] Top shape: 32 512 38 38 (23658496)
I0623 09:28:07.267313 25934 net.cpp:157] Top shape: 32 512 38 38 (23658496)
I0623 09:28:07.267323 25934 net.cpp:157] Top shape: 32 512 38 38 (23658496)
I0623 09:28:07.267329 25934 net.cpp:165] Memory required for data: 7907508256
I0623 09:28:07.267336 25934 layer_factory.hpp:77] Creating layer conv4_3_norm_mbox_loc
I0623 09:28:07.267355 25934 net.cpp:100] Creating Layer conv4_3_norm_mbox_loc
I0623 09:28:07.267362 25934 net.cpp:434] conv4_3_norm_mbox_loc <- conv4_3_norm_conv4_3_norm_0_split_0
I0623 09:28:07.267375 25934 net.cpp:408] conv4_3_norm_mbox_loc -> conv4_3_norm_mbox_loc
I0623 09:28:07.269392 25934 net.cpp:150] Setting up conv4_3_norm_mbox_loc
I0623 09:28:07.269409 25934 net.cpp:157] Top shape: 32 16 38 38 (739328)
I0623 09:28:07.269419 25934 net.cpp:165] Memory required for data: 7910465568
I0623 09:28:07.269433 25934 layer_factory.hpp:77] Creating layer conv4_3_norm_mbox_loc_perm
I0623 09:28:07.269445 25934 net.cpp:100] Creating Layer conv4_3_norm_mbox_loc_perm
I0623 09:28:07.269454 25934 net.cpp:434] conv4_3_norm_mbox_loc_perm <- conv4_3_norm_mbox_loc
I0623 09:28:07.269469 25934 net.cpp:408] conv4_3_norm_mbox_loc_perm -> conv4_3_norm_mbox_loc_perm
I0623 09:28:07.269603 25934 net.cpp:150] Setting up conv4_3_norm_mbox_loc_perm
I0623 09:28:07.269615 25934 net.cpp:157] Top shape: 32 38 38 16 (739328)
I0623 09:28:07.269621 25934 net.cpp:165] Memory required for data: 7913422880
I0623 09:28:07.269629 25934 layer_factory.hpp:77] Creating layer conv4_3_norm_mbox_loc_flat
I0623 09:28:07.269644 25934 net.cpp:100] Creating Layer conv4_3_norm_mbox_loc_flat
I0623 09:28:07.269650 25934 net.cpp:434] conv4_3_norm_mbox_loc_flat <- conv4_3_norm_mbox_loc_perm
I0623 09:28:07.269665 25934 net.cpp:408] conv4_3_norm_mbox_loc_flat -> conv4_3_norm_mbox_loc_flat
I0623 09:28:07.269719 25934 net.cpp:150] Setting up conv4_3_norm_mbox_loc_flat
I0623 09:28:07.269733 25934 net.cpp:157] Top shape: 32 23104 (739328)
I0623 09:28:07.269740 25934 net.cpp:165] Memory required for data: 7916380192
I0623 09:28:07.269747 25934 layer_factory.hpp:77] Creating layer conv4_3_norm_mbox_conf
I0623 09:28:07.269773 25934 net.cpp:100] Creating Layer conv4_3_norm_mbox_conf
I0623 09:28:07.269780 25934 net.cpp:434] conv4_3_norm_mbox_conf <- conv4_3_norm_conv4_3_norm_0_split_1
I0623 09:28:07.269793 25934 net.cpp:408] conv4_3_norm_mbox_conf -> conv4_3_norm_mbox_conf
I0623 09:28:07.273929 25934 net.cpp:150] Setting up conv4_3_norm_mbox_conf
I0623 09:28:07.273946 25934 net.cpp:157] Top shape: 32 84 38 38 (3881472)
I0623 09:28:07.273952 25934 net.cpp:165] Memory required for data: 7931906080
I0623 09:28:07.273965 25934 layer_factory.hpp:77] Creating layer conv4_3_norm_mbox_conf_perm
I0623 09:28:07.273980 25934 net.cpp:100] Creating Layer conv4_3_norm_mbox_conf_perm
I0623 09:28:07.273989 25934 net.cpp:434] conv4_3_norm_mbox_conf_perm <- conv4_3_norm_mbox_conf
I0623 09:28:07.274005 25934 net.cpp:408] conv4_3_norm_mbox_conf_perm -> conv4_3_norm_mbox_conf_perm
I0623 09:28:07.274134 25934 net.cpp:150] Setting up conv4_3_norm_mbox_conf_perm
I0623 09:28:07.274147 25934 net.cpp:157] Top shape: 32 38 38 84 (3881472)
I0623 09:28:07.274152 25934 net.cpp:165] Memory required for data: 7947431968
I0623 09:28:07.274160 25934 layer_factory.hpp:77] Creating layer conv4_3_norm_mbox_conf_flat
I0623 09:28:07.274174 25934 net.cpp:100] Creating Layer conv4_3_norm_mbox_conf_flat
I0623 09:28:07.274183 25934 net.cpp:434] conv4_3_norm_mbox_conf_flat <- conv4_3_norm_mbox_conf_perm
I0623 09:28:07.274195 25934 net.cpp:408] conv4_3_norm_mbox_conf_flat -> conv4_3_norm_mbox_conf_flat
I0623 09:28:07.274241 25934 net.cpp:150] Setting up conv4_3_norm_mbox_conf_flat
I0623 09:28:07.274261 25934 net.cpp:157] Top shape: 32 121296 (3881472)
I0623 09:28:07.274269 25934 net.cpp:165] Memory required for data: 7962957856
I0623 09:28:07.274276 25934 layer_factory.hpp:77] Creating layer conv4_3_norm_mbox_priorbox
I0623 09:28:07.274293 25934 net.cpp:100] Creating Layer conv4_3_norm_mbox_priorbox
I0623 09:28:07.274300 25934 net.cpp:434] conv4_3_norm_mbox_priorbox <- conv4_3_norm_conv4_3_norm_0_split_2
I0623 09:28:07.274314 25934 net.cpp:434] conv4_3_norm_mbox_priorbox <- data_data_0_split_1
I0623 09:28:07.274328 25934 net.cpp:408] conv4_3_norm_mbox_priorbox -> conv4_3_norm_mbox_priorbox
I0623 09:28:07.274376 25934 net.cpp:150] Setting up conv4_3_norm_mbox_priorbox
I0623 09:28:07.274390 25934 net.cpp:157] Top shape: 1 2 23104 (46208)
I0623 09:28:07.274397 25934 net.cpp:165] Memory required for data: 7963142688
I0623 09:28:07.274405 25934 layer_factory.hpp:77] Creating layer fc7_mbox_loc
I0623 09:28:07.274421 25934 net.cpp:100] Creating Layer fc7_mbox_loc
I0623 09:28:07.274428 25934 net.cpp:434] fc7_mbox_loc <- fc7_relu7_0_split_1
I0623 09:28:07.274443 25934 net.cpp:408] fc7_mbox_loc -> fc7_mbox_loc
I0623 09:28:07.277576 25934 net.cpp:150] Setting up fc7_mbox_loc
I0623 09:28:07.277595 25934 net.cpp:157] Top shape: 32 24 19 19 (277248)
I0623 09:28:07.277602 25934 net.cpp:165] Memory required for data: 7964251680
I0623 09:28:07.277617 25934 layer_factory.hpp:77] Creating layer fc7_mbox_loc_perm
I0623 09:28:07.277629 25934 net.cpp:100] Creating Layer fc7_mbox_loc_perm
I0623 09:28:07.277637 25934 net.cpp:434] fc7_mbox_loc_perm <- fc7_mbox_loc
I0623 09:28:07.277653 25934 net.cpp:408] fc7_mbox_loc_perm -> fc7_mbox_loc_perm
I0623 09:28:07.277787 25934 net.cpp:150] Setting up fc7_mbox_loc_perm
I0623 09:28:07.277802 25934 net.cpp:157] Top shape: 32 19 19 24 (277248)
I0623 09:28:07.277811 25934 net.cpp:165] Memory required for data: 7965360672
I0623 09:28:07.277817 25934 layer_factory.hpp:77] Creating layer fc7_mbox_loc_flat
I0623 09:28:07.277829 25934 net.cpp:100] Creating Layer fc7_mbox_loc_flat
I0623 09:28:07.277837 25934 net.cpp:434] fc7_mbox_loc_flat <- fc7_mbox_loc_perm
I0623 09:28:07.277850 25934 net.cpp:408] fc7_mbox_loc_flat -> fc7_mbox_loc_flat
I0623 09:28:07.277890 25934 net.cpp:150] Setting up fc7_mbox_loc_flat
I0623 09:28:07.277901 25934 net.cpp:157] Top shape: 32 8664 (277248)
I0623 09:28:07.277907 25934 net.cpp:165] Memory required for data: 7966469664
I0623 09:28:07.277915 25934 layer_factory.hpp:77] Creating layer fc7_mbox_conf
I0623 09:28:07.277935 25934 net.cpp:100] Creating Layer fc7_mbox_conf
I0623 09:28:07.277943 25934 net.cpp:434] fc7_mbox_conf <- fc7_relu7_0_split_2
I0623 09:28:07.277956 25934 net.cpp:408] fc7_mbox_conf -> fc7_mbox_conf
I0623 09:28:07.288275 25934 net.cpp:150] Setting up fc7_mbox_conf
I0623 09:28:07.288316 25934 net.cpp:157] Top shape: 32 126 19 19 (1455552)
I0623 09:28:07.288322 25934 net.cpp:165] Memory required for data: 7972291872
I0623 09:28:07.288339 25934 layer_factory.hpp:77] Creating layer fc7_mbox_conf_perm
I0623 09:28:07.288362 25934 net.cpp:100] Creating Layer fc7_mbox_conf_perm
I0623 09:28:07.288372 25934 net.cpp:434] fc7_mbox_conf_perm <- fc7_mbox_conf
I0623 09:28:07.288388 25934 net.cpp:408] fc7_mbox_conf_perm -> fc7_mbox_conf_perm
I0623 09:28:07.288530 25934 net.cpp:150] Setting up fc7_mbox_conf_perm
I0623 09:28:07.288543 25934 net.cpp:157] Top shape: 32 19 19 126 (1455552)
I0623 09:28:07.288549 25934 net.cpp:165] Memory required for data: 7978114080
I0623 09:28:07.288558 25934 layer_factory.hpp:77] Creating layer fc7_mbox_conf_flat
I0623 09:28:07.288570 25934 net.cpp:100] Creating Layer fc7_mbox_conf_flat
I0623 09:28:07.288578 25934 net.cpp:434] fc7_mbox_conf_flat <- fc7_mbox_conf_perm
I0623 09:28:07.288591 25934 net.cpp:408] fc7_mbox_conf_flat -> fc7_mbox_conf_flat
I0623 09:28:07.288635 25934 net.cpp:150] Setting up fc7_mbox_conf_flat
I0623 09:28:07.288647 25934 net.cpp:157] Top shape: 32 45486 (1455552)
I0623 09:28:07.288653 25934 net.cpp:165] Memory required for data: 7983936288
I0623 09:28:07.288661 25934 layer_factory.hpp:77] Creating layer fc7_mbox_priorbox
I0623 09:28:07.288688 25934 net.cpp:100] Creating Layer fc7_mbox_priorbox
I0623 09:28:07.288697 25934 net.cpp:434] fc7_mbox_priorbox <- fc7_relu7_0_split_3
I0623 09:28:07.288707 25934 net.cpp:434] fc7_mbox_priorbox <- data_data_0_split_2
I0623 09:28:07.288722 25934 net.cpp:408] fc7_mbox_priorbox -> fc7_mbox_priorbox
I0623 09:28:07.288767 25934 net.cpp:150] Setting up fc7_mbox_priorbox
I0623 09:28:07.288779 25934 net.cpp:157] Top shape: 1 2 8664 (17328)
I0623 09:28:07.288789 25934 net.cpp:165] Memory required for data: 7984005600
I0623 09:28:07.288795 25934 layer_factory.hpp:77] Creating layer conv6_2_mbox_loc
I0623 09:28:07.288818 25934 net.cpp:100] Creating Layer conv6_2_mbox_loc
I0623 09:28:07.288826 25934 net.cpp:434] conv6_2_mbox_loc <- conv6_2_conv6_2_relu_0_split_1
I0623 09:28:07.288841 25934 net.cpp:408] conv6_2_mbox_loc -> conv6_2_mbox_loc
I0623 09:28:07.291399 25934 net.cpp:150] Setting up conv6_2_mbox_loc
I0623 09:28:07.291417 25934 net.cpp:157] Top shape: 32 24 10 10 (76800)
I0623 09:28:07.291424 25934 net.cpp:165] Memory required for data: 7984312800
I0623 09:28:07.291436 25934 layer_factory.hpp:77] Creating layer conv6_2_mbox_loc_perm
I0623 09:28:07.291450 25934 net.cpp:100] Creating Layer conv6_2_mbox_loc_perm
I0623 09:28:07.291457 25934 net.cpp:434] conv6_2_mbox_loc_perm <- conv6_2_mbox_loc
I0623 09:28:07.291471 25934 net.cpp:408] conv6_2_mbox_loc_perm -> conv6_2_mbox_loc_perm
I0623 09:28:07.291607 25934 net.cpp:150] Setting up conv6_2_mbox_loc_perm
I0623 09:28:07.291620 25934 net.cpp:157] Top shape: 32 10 10 24 (76800)
I0623 09:28:07.291625 25934 net.cpp:165] Memory required for data: 7984620000
I0623 09:28:07.291635 25934 layer_factory.hpp:77] Creating layer conv6_2_mbox_loc_flat
I0623 09:28:07.291646 25934 net.cpp:100] Creating Layer conv6_2_mbox_loc_flat
I0623 09:28:07.291653 25934 net.cpp:434] conv6_2_mbox_loc_flat <- conv6_2_mbox_loc_perm
I0623 09:28:07.291668 25934 net.cpp:408] conv6_2_mbox_loc_flat -> conv6_2_mbox_loc_flat
I0623 09:28:07.291712 25934 net.cpp:150] Setting up conv6_2_mbox_loc_flat
I0623 09:28:07.291723 25934 net.cpp:157] Top shape: 32 2400 (76800)
I0623 09:28:07.291729 25934 net.cpp:165] Memory required for data: 7984927200
I0623 09:28:07.291735 25934 layer_factory.hpp:77] Creating layer conv6_2_mbox_conf
I0623 09:28:07.291754 25934 net.cpp:100] Creating Layer conv6_2_mbox_conf
I0623 09:28:07.291761 25934 net.cpp:434] conv6_2_mbox_conf <- conv6_2_conv6_2_relu_0_split_2
I0623 09:28:07.291775 25934 net.cpp:408] conv6_2_mbox_conf -> conv6_2_mbox_conf
I0623 09:28:07.297840 25934 net.cpp:150] Setting up conv6_2_mbox_conf
I0623 09:28:07.297880 25934 net.cpp:157] Top shape: 32 126 10 10 (403200)
I0623 09:28:07.297886 25934 net.cpp:165] Memory required for data: 7986540000
I0623 09:28:07.297901 25934 layer_factory.hpp:77] Creating layer conv6_2_mbox_conf_perm
I0623 09:28:07.297920 25934 net.cpp:100] Creating Layer conv6_2_mbox_conf_perm
I0623 09:28:07.297930 25934 net.cpp:434] conv6_2_mbox_conf_perm <- conv6_2_mbox_conf
I0623 09:28:07.297947 25934 net.cpp:408] conv6_2_mbox_conf_perm -> conv6_2_mbox_conf_perm
I0623 09:28:07.298090 25934 net.cpp:150] Setting up conv6_2_mbox_conf_perm
I0623 09:28:07.298104 25934 net.cpp:157] Top shape: 32 10 10 126 (403200)
I0623 09:28:07.298110 25934 net.cpp:165] Memory required for data: 7988152800
I0623 09:28:07.298116 25934 layer_factory.hpp:77] Creating layer conv6_2_mbox_conf_flat
I0623 09:28:07.298130 25934 net.cpp:100] Creating Layer conv6_2_mbox_conf_flat
I0623 09:28:07.298140 25934 net.cpp:434] conv6_2_mbox_conf_flat <- conv6_2_mbox_conf_perm
I0623 09:28:07.298151 25934 net.cpp:408] conv6_2_mbox_conf_flat -> conv6_2_mbox_conf_flat
I0623 09:28:07.298193 25934 net.cpp:150] Setting up conv6_2_mbox_conf_flat
I0623 09:28:07.298204 25934 net.cpp:157] Top shape: 32 12600 (403200)
I0623 09:28:07.298210 25934 net.cpp:165] Memory required for data: 7989765600
I0623 09:28:07.298219 25934 layer_factory.hpp:77] Creating layer conv6_2_mbox_priorbox
I0623 09:28:07.298233 25934 net.cpp:100] Creating Layer conv6_2_mbox_priorbox
I0623 09:28:07.298257 25934 net.cpp:434] conv6_2_mbox_priorbox <- conv6_2_conv6_2_relu_0_split_3
I0623 09:28:07.298269 25934 net.cpp:434] conv6_2_mbox_priorbox <- data_data_0_split_3
I0623 09:28:07.298282 25934 net.cpp:408] conv6_2_mbox_priorbox -> conv6_2_mbox_priorbox
I0623 09:28:07.298336 25934 net.cpp:150] Setting up conv6_2_mbox_priorbox
I0623 09:28:07.298348 25934 net.cpp:157] Top shape: 1 2 2400 (4800)
I0623 09:28:07.298353 25934 net.cpp:165] Memory required for data: 7989784800
I0623 09:28:07.298360 25934 layer_factory.hpp:77] Creating layer conv7_2_mbox_loc
I0623 09:28:07.298382 25934 net.cpp:100] Creating Layer conv7_2_mbox_loc
I0623 09:28:07.298388 25934 net.cpp:434] conv7_2_mbox_loc <- conv7_2_conv7_2_relu_0_split_1
I0623 09:28:07.298403 25934 net.cpp:408] conv7_2_mbox_loc -> conv7_2_mbox_loc
I0623 09:28:07.300395 25934 net.cpp:150] Setting up conv7_2_mbox_loc
I0623 09:28:07.300410 25934 net.cpp:157] Top shape: 32 24 5 5 (19200)
I0623 09:28:07.300416 25934 net.cpp:165] Memory required for data: 7989861600
I0623 09:28:07.300429 25934 layer_factory.hpp:77] Creating layer conv7_2_mbox_loc_perm
I0623 09:28:07.300443 25934 net.cpp:100] Creating Layer conv7_2_mbox_loc_perm
I0623 09:28:07.300451 25934 net.cpp:434] conv7_2_mbox_loc_perm <- conv7_2_mbox_loc
I0623 09:28:07.300462 25934 net.cpp:408] conv7_2_mbox_loc_perm -> conv7_2_mbox_loc_perm
I0623 09:28:07.300602 25934 net.cpp:150] Setting up conv7_2_mbox_loc_perm
I0623 09:28:07.300614 25934 net.cpp:157] Top shape: 32 5 5 24 (19200)
I0623 09:28:07.300621 25934 net.cpp:165] Memory required for data: 7989938400
I0623 09:28:07.300628 25934 layer_factory.hpp:77] Creating layer conv7_2_mbox_loc_flat
I0623 09:28:07.300640 25934 net.cpp:100] Creating Layer conv7_2_mbox_loc_flat
I0623 09:28:07.300648 25934 net.cpp:434] conv7_2_mbox_loc_flat <- conv7_2_mbox_loc_perm
I0623 09:28:07.300663 25934 net.cpp:408] conv7_2_mbox_loc_flat -> conv7_2_mbox_loc_flat
I0623 09:28:07.300707 25934 net.cpp:150] Setting up conv7_2_mbox_loc_flat
I0623 09:28:07.300719 25934 net.cpp:157] Top shape: 32 600 (19200)
I0623 09:28:07.300724 25934 net.cpp:165] Memory required for data: 7990015200
I0623 09:28:07.300732 25934 layer_factory.hpp:77] Creating layer conv7_2_mbox_conf
I0623 09:28:07.300753 25934 net.cpp:100] Creating Layer conv7_2_mbox_conf
I0623 09:28:07.300760 25934 net.cpp:434] conv7_2_mbox_conf <- conv7_2_conv7_2_relu_0_split_2
I0623 09:28:07.300776 25934 net.cpp:408] conv7_2_mbox_conf -> conv7_2_mbox_conf
I0623 09:28:07.304409 25934 net.cpp:150] Setting up conv7_2_mbox_conf
I0623 09:28:07.304425 25934 net.cpp:157] Top shape: 32 126 5 5 (100800)
I0623 09:28:07.304431 25934 net.cpp:165] Memory required for data: 7990418400
I0623 09:28:07.304445 25934 layer_factory.hpp:77] Creating layer conv7_2_mbox_conf_perm
I0623 09:28:07.304461 25934 net.cpp:100] Creating Layer conv7_2_mbox_conf_perm
I0623 09:28:07.304469 25934 net.cpp:434] conv7_2_mbox_conf_perm <- conv7_2_mbox_conf
I0623 09:28:07.304486 25934 net.cpp:408] conv7_2_mbox_conf_perm -> conv7_2_mbox_conf_perm
I0623 09:28:07.304625 25934 net.cpp:150] Setting up conv7_2_mbox_conf_perm
I0623 09:28:07.304637 25934 net.cpp:157] Top shape: 32 5 5 126 (100800)
I0623 09:28:07.304643 25934 net.cpp:165] Memory required for data: 7990821600
I0623 09:28:07.304651 25934 layer_factory.hpp:77] Creating layer conv7_2_mbox_conf_flat
I0623 09:28:07.304666 25934 net.cpp:100] Creating Layer conv7_2_mbox_conf_flat
I0623 09:28:07.304672 25934 net.cpp:434] conv7_2_mbox_conf_flat <- conv7_2_mbox_conf_perm
I0623 09:28:07.304682 25934 net.cpp:408] conv7_2_mbox_conf_flat -> conv7_2_mbox_conf_flat
I0623 09:28:07.304726 25934 net.cpp:150] Setting up conv7_2_mbox_conf_flat
I0623 09:28:07.304738 25934 net.cpp:157] Top shape: 32 3150 (100800)
I0623 09:28:07.304744 25934 net.cpp:165] Memory required for data: 7991224800
I0623 09:28:07.304752 25934 layer_factory.hpp:77] Creating layer conv7_2_mbox_priorbox
I0623 09:28:07.304767 25934 net.cpp:100] Creating Layer conv7_2_mbox_priorbox
I0623 09:28:07.304774 25934 net.cpp:434] conv7_2_mbox_priorbox <- conv7_2_conv7_2_relu_0_split_3
I0623 09:28:07.304796 25934 net.cpp:434] conv7_2_mbox_priorbox <- data_data_0_split_4
I0623 09:28:07.304808 25934 net.cpp:408] conv7_2_mbox_priorbox -> conv7_2_mbox_priorbox
I0623 09:28:07.304855 25934 net.cpp:150] Setting up conv7_2_mbox_priorbox
I0623 09:28:07.304867 25934 net.cpp:157] Top shape: 1 2 600 (1200)
I0623 09:28:07.304872 25934 net.cpp:165] Memory required for data: 7991229600
I0623 09:28:07.304882 25934 layer_factory.hpp:77] Creating layer conv8_2_mbox_loc
I0623 09:28:07.304900 25934 net.cpp:100] Creating Layer conv8_2_mbox_loc
I0623 09:28:07.304908 25934 net.cpp:434] conv8_2_mbox_loc <- conv8_2_conv8_2_relu_0_split_1
I0623 09:28:07.304924 25934 net.cpp:408] conv8_2_mbox_loc -> conv8_2_mbox_loc
I0623 09:28:07.306587 25934 net.cpp:150] Setting up conv8_2_mbox_loc
I0623 09:28:07.306604 25934 net.cpp:157] Top shape: 32 16 3 3 (4608)
I0623 09:28:07.306610 25934 net.cpp:165] Memory required for data: 7991248032
I0623 09:28:07.306639 25934 layer_factory.hpp:77] Creating layer conv8_2_mbox_loc_perm
I0623 09:28:07.306653 25934 net.cpp:100] Creating Layer conv8_2_mbox_loc_perm
I0623 09:28:07.306661 25934 net.cpp:434] conv8_2_mbox_loc_perm <- conv8_2_mbox_loc
I0623 09:28:07.306676 25934 net.cpp:408] conv8_2_mbox_loc_perm -> conv8_2_mbox_loc_perm
I0623 09:28:07.306818 25934 net.cpp:150] Setting up conv8_2_mbox_loc_perm
I0623 09:28:07.306829 25934 net.cpp:157] Top shape: 32 3 3 16 (4608)
I0623 09:28:07.306835 25934 net.cpp:165] Memory required for data: 7991266464
I0623 09:28:07.306843 25934 layer_factory.hpp:77] Creating layer conv8_2_mbox_loc_flat
I0623 09:28:07.306857 25934 net.cpp:100] Creating Layer conv8_2_mbox_loc_flat
I0623 09:28:07.306865 25934 net.cpp:434] conv8_2_mbox_loc_flat <- conv8_2_mbox_loc_perm
I0623 09:28:07.306876 25934 net.cpp:408] conv8_2_mbox_loc_flat -> conv8_2_mbox_loc_flat
I0623 09:28:07.306919 25934 net.cpp:150] Setting up conv8_2_mbox_loc_flat
I0623 09:28:07.306931 25934 net.cpp:157] Top shape: 32 144 (4608)
I0623 09:28:07.306936 25934 net.cpp:165] Memory required for data: 7991284896
I0623 09:28:07.306942 25934 layer_factory.hpp:77] Creating layer conv8_2_mbox_conf
I0623 09:28:07.306962 25934 net.cpp:100] Creating Layer conv8_2_mbox_conf
I0623 09:28:07.306968 25934 net.cpp:434] conv8_2_mbox_conf <- conv8_2_conv8_2_relu_0_split_2
I0623 09:28:07.306982 25934 net.cpp:408] conv8_2_mbox_conf -> conv8_2_mbox_conf
I0623 09:28:07.310005 25934 net.cpp:150] Setting up conv8_2_mbox_conf
I0623 09:28:07.310024 25934 net.cpp:157] Top shape: 32 84 3 3 (24192)
I0623 09:28:07.310029 25934 net.cpp:165] Memory required for data: 7991381664
I0623 09:28:07.310042 25934 layer_factory.hpp:77] Creating layer conv8_2_mbox_conf_perm
I0623 09:28:07.310057 25934 net.cpp:100] Creating Layer conv8_2_mbox_conf_perm
I0623 09:28:07.310065 25934 net.cpp:434] conv8_2_mbox_conf_perm <- conv8_2_mbox_conf
I0623 09:28:07.310079 25934 net.cpp:408] conv8_2_mbox_conf_perm -> conv8_2_mbox_conf_perm
I0623 09:28:07.310221 25934 net.cpp:150] Setting up conv8_2_mbox_conf_perm
I0623 09:28:07.310233 25934 net.cpp:157] Top shape: 32 3 3 84 (24192)
I0623 09:28:07.310240 25934 net.cpp:165] Memory required for data: 7991478432
I0623 09:28:07.310247 25934 layer_factory.hpp:77] Creating layer conv8_2_mbox_conf_flat
I0623 09:28:07.310259 25934 net.cpp:100] Creating Layer conv8_2_mbox_conf_flat
I0623 09:28:07.310267 25934 net.cpp:434] conv8_2_mbox_conf_flat <- conv8_2_mbox_conf_perm
I0623 09:28:07.310281 25934 net.cpp:408] conv8_2_mbox_conf_flat -> conv8_2_mbox_conf_flat
I0623 09:28:07.310333 25934 net.cpp:150] Setting up conv8_2_mbox_conf_flat
I0623 09:28:07.310343 25934 net.cpp:157] Top shape: 32 756 (24192)
I0623 09:28:07.310349 25934 net.cpp:165] Memory required for data: 7991575200
I0623 09:28:07.310356 25934 layer_factory.hpp:77] Creating layer conv8_2_mbox_priorbox
I0623 09:28:07.310369 25934 net.cpp:100] Creating Layer conv8_2_mbox_priorbox
I0623 09:28:07.310377 25934 net.cpp:434] conv8_2_mbox_priorbox <- conv8_2_conv8_2_relu_0_split_3
I0623 09:28:07.310389 25934 net.cpp:434] conv8_2_mbox_priorbox <- data_data_0_split_5
I0623 09:28:07.310412 25934 net.cpp:408] conv8_2_mbox_priorbox -> conv8_2_mbox_priorbox
I0623 09:28:07.310461 25934 net.cpp:150] Setting up conv8_2_mbox_priorbox
I0623 09:28:07.310472 25934 net.cpp:157] Top shape: 1 2 144 (288)
I0623 09:28:07.310477 25934 net.cpp:165] Memory required for data: 7991576352
I0623 09:28:07.310485 25934 layer_factory.hpp:77] Creating layer conv9_2_mbox_loc
I0623 09:28:07.310505 25934 net.cpp:100] Creating Layer conv9_2_mbox_loc
I0623 09:28:07.310513 25934 net.cpp:434] conv9_2_mbox_loc <- conv9_2_conv9_2_relu_0_split_0
I0623 09:28:07.310528 25934 net.cpp:408] conv9_2_mbox_loc -> conv9_2_mbox_loc
I0623 09:28:07.312180 25934 net.cpp:150] Setting up conv9_2_mbox_loc
I0623 09:28:07.312194 25934 net.cpp:157] Top shape: 32 16 1 1 (512)
I0623 09:28:07.312201 25934 net.cpp:165] Memory required for data: 7991578400
I0623 09:28:07.312213 25934 layer_factory.hpp:77] Creating layer conv9_2_mbox_loc_perm
I0623 09:28:07.312228 25934 net.cpp:100] Creating Layer conv9_2_mbox_loc_perm
I0623 09:28:07.312237 25934 net.cpp:434] conv9_2_mbox_loc_perm <- conv9_2_mbox_loc
I0623 09:28:07.312252 25934 net.cpp:408] conv9_2_mbox_loc_perm -> conv9_2_mbox_loc_perm
I0623 09:28:07.312397 25934 net.cpp:150] Setting up conv9_2_mbox_loc_perm
I0623 09:28:07.312408 25934 net.cpp:157] Top shape: 32 1 1 16 (512)
I0623 09:28:07.312413 25934 net.cpp:165] Memory required for data: 7991580448
I0623 09:28:07.312422 25934 layer_factory.hpp:77] Creating layer conv9_2_mbox_loc_flat
I0623 09:28:07.312436 25934 net.cpp:100] Creating Layer conv9_2_mbox_loc_flat
I0623 09:28:07.312443 25934 net.cpp:434] conv9_2_mbox_loc_flat <- conv9_2_mbox_loc_perm
I0623 09:28:07.312454 25934 net.cpp:408] conv9_2_mbox_loc_flat -> conv9_2_mbox_loc_flat
I0623 09:28:07.312497 25934 net.cpp:150] Setting up conv9_2_mbox_loc_flat
I0623 09:28:07.312508 25934 net.cpp:157] Top shape: 32 16 (512)
I0623 09:28:07.312515 25934 net.cpp:165] Memory required for data: 7991582496
I0623 09:28:07.312523 25934 layer_factory.hpp:77] Creating layer conv9_2_mbox_conf
I0623 09:28:07.312543 25934 net.cpp:100] Creating Layer conv9_2_mbox_conf
I0623 09:28:07.312551 25934 net.cpp:434] conv9_2_mbox_conf <- conv9_2_conv9_2_relu_0_split_1
I0623 09:28:07.312563 25934 net.cpp:408] conv9_2_mbox_conf -> conv9_2_mbox_conf
I0623 09:28:07.315613 25934 net.cpp:150] Setting up conv9_2_mbox_conf
I0623 09:28:07.315629 25934 net.cpp:157] Top shape: 32 84 1 1 (2688)
I0623 09:28:07.315635 25934 net.cpp:165] Memory required for data: 7991593248
I0623 09:28:07.315649 25934 layer_factory.hpp:77] Creating layer conv9_2_mbox_conf_perm
I0623 09:28:07.315666 25934 net.cpp:100] Creating Layer conv9_2_mbox_conf_perm
I0623 09:28:07.315673 25934 net.cpp:434] conv9_2_mbox_conf_perm <- conv9_2_mbox_conf
I0623 09:28:07.315687 25934 net.cpp:408] conv9_2_mbox_conf_perm -> conv9_2_mbox_conf_perm
I0623 09:28:07.315831 25934 net.cpp:150] Setting up conv9_2_mbox_conf_perm
I0623 09:28:07.315843 25934 net.cpp:157] Top shape: 32 1 1 84 (2688)
I0623 09:28:07.315850 25934 net.cpp:165] Memory required for data: 7991604000
I0623 09:28:07.315857 25934 layer_factory.hpp:77] Creating layer conv9_2_mbox_conf_flat
I0623 09:28:07.315870 25934 net.cpp:100] Creating Layer conv9_2_mbox_conf_flat
I0623 09:28:07.315877 25934 net.cpp:434] conv9_2_mbox_conf_flat <- conv9_2_mbox_conf_perm
I0623 09:28:07.315892 25934 net.cpp:408] conv9_2_mbox_conf_flat -> conv9_2_mbox_conf_flat
I0623 09:28:07.315939 25934 net.cpp:150] Setting up conv9_2_mbox_conf_flat
I0623 09:28:07.315950 25934 net.cpp:157] Top shape: 32 84 (2688)
I0623 09:28:07.315955 25934 net.cpp:165] Memory required for data: 7991614752
I0623 09:28:07.315963 25934 layer_factory.hpp:77] Creating layer conv9_2_mbox_priorbox
I0623 09:28:07.315976 25934 net.cpp:100] Creating Layer conv9_2_mbox_priorbox
I0623 09:28:07.315984 25934 net.cpp:434] conv9_2_mbox_priorbox <- conv9_2_conv9_2_relu_0_split_2
I0623 09:28:07.315994 25934 net.cpp:434] conv9_2_mbox_priorbox <- data_data_0_split_6
I0623 09:28:07.316009 25934 net.cpp:408] conv9_2_mbox_priorbox -> conv9_2_mbox_priorbox
I0623 09:28:07.316058 25934 net.cpp:150] Setting up conv9_2_mbox_priorbox
I0623 09:28:07.316079 25934 net.cpp:157] Top shape: 1 2 16 (32)
I0623 09:28:07.316087 25934 net.cpp:165] Memory required for data: 7991614880
I0623 09:28:07.316094 25934 layer_factory.hpp:77] Creating layer mbox_loc
I0623 09:28:07.316107 25934 net.cpp:100] Creating Layer mbox_loc
I0623 09:28:07.316117 25934 net.cpp:434] mbox_loc <- conv4_3_norm_mbox_loc_flat
I0623 09:28:07.316128 25934 net.cpp:434] mbox_loc <- fc7_mbox_loc_flat
I0623 09:28:07.316138 25934 net.cpp:434] mbox_loc <- conv6_2_mbox_loc_flat
I0623 09:28:07.316149 25934 net.cpp:434] mbox_loc <- conv7_2_mbox_loc_flat
I0623 09:28:07.316159 25934 net.cpp:434] mbox_loc <- conv8_2_mbox_loc_flat
I0623 09:28:07.316169 25934 net.cpp:434] mbox_loc <- conv9_2_mbox_loc_flat
I0623 09:28:07.316184 25934 net.cpp:408] mbox_loc -> mbox_loc
I0623 09:28:07.316232 25934 net.cpp:150] Setting up mbox_loc
I0623 09:28:07.316244 25934 net.cpp:157] Top shape: 32 34928 (1117696)
I0623 09:28:07.316251 25934 net.cpp:165] Memory required for data: 7996085664
I0623 09:28:07.316258 25934 layer_factory.hpp:77] Creating layer mbox_conf
I0623 09:28:07.316270 25934 net.cpp:100] Creating Layer mbox_conf
I0623 09:28:07.316278 25934 net.cpp:434] mbox_conf <- conv4_3_norm_mbox_conf_flat
I0623 09:28:07.316289 25934 net.cpp:434] mbox_conf <- fc7_mbox_conf_flat
I0623 09:28:07.316298 25934 net.cpp:434] mbox_conf <- conv6_2_mbox_conf_flat
I0623 09:28:07.316309 25934 net.cpp:434] mbox_conf <- conv7_2_mbox_conf_flat
I0623 09:28:07.316318 25934 net.cpp:434] mbox_conf <- conv8_2_mbox_conf_flat
I0623 09:28:07.316329 25934 net.cpp:434] mbox_conf <- conv9_2_mbox_conf_flat
I0623 09:28:07.316342 25934 net.cpp:408] mbox_conf -> mbox_conf
I0623 09:28:07.316385 25934 net.cpp:150] Setting up mbox_conf
I0623 09:28:07.316396 25934 net.cpp:157] Top shape: 32 183372 (5867904)
I0623 09:28:07.316402 25934 net.cpp:165] Memory required for data: 8019557280
I0623 09:28:07.316411 25934 layer_factory.hpp:77] Creating layer mbox_priorbox
I0623 09:28:07.316423 25934 net.cpp:100] Creating Layer mbox_priorbox
I0623 09:28:07.316431 25934 net.cpp:434] mbox_priorbox <- conv4_3_norm_mbox_priorbox
I0623 09:28:07.316440 25934 net.cpp:434] mbox_priorbox <- fc7_mbox_priorbox
I0623 09:28:07.316449 25934 net.cpp:434] mbox_priorbox <- conv6_2_mbox_priorbox
I0623 09:28:07.316458 25934 net.cpp:434] mbox_priorbox <- conv7_2_mbox_priorbox
I0623 09:28:07.316468 25934 net.cpp:434] mbox_priorbox <- conv8_2_mbox_priorbox
I0623 09:28:07.316475 25934 net.cpp:434] mbox_priorbox <- conv9_2_mbox_priorbox
I0623 09:28:07.316488 25934 net.cpp:408] mbox_priorbox -> mbox_priorbox
I0623 09:28:07.316530 25934 net.cpp:150] Setting up mbox_priorbox
I0623 09:28:07.316542 25934 net.cpp:157] Top shape: 1 2 34928 (69856)
I0623 09:28:07.316547 25934 net.cpp:165] Memory required for data: 8019836704
I0623 09:28:07.316555 25934 layer_factory.hpp:77] Creating layer mbox_loss
I0623 09:28:07.316576 25934 net.cpp:100] Creating Layer mbox_loss
I0623 09:28:07.316583 25934 net.cpp:434] mbox_loss <- mbox_loc
I0623 09:28:07.316592 25934 net.cpp:434] mbox_loss <- mbox_conf
I0623 09:28:07.316601 25934 net.cpp:434] mbox_loss <- mbox_priorbox
…
state {
  phase: TEST
}
layer {
  name: "data"
  type: "AnnotatedData"
  top: "data"
  top: "label"
  include {
    phase: TEST
  }
  transform_param {
    mean_value: 104
    mean_value: 117
    mean_value: 123
    resize_param {
      prob: 1
      resize_mode: WARP
      height: 300
      width: 300
      interp_mode: LINEAR
    }
  }
  data_param {
    source: "examples/VOC0712/VOC0712_test_lmdb"
    batch_size: 8
    backend: LMDB
  }
  annotated_data_param {
    batch_sampler {
    }
    label_map_file: "data/VOC0712/labelmap_voc.prototxt"
  }
}
layer {
  name: "conv1_1"
  type: "Convolution"
  bottom: "data"
  top: "conv1_1"
  param {
    lr_mult: 1
    decay_mult: 1
  }
  param {
    lr_mult: 2
    decay_mult: 0
  }
  convolution_param {
    num_output: 64
    pad: 1
    kernel_size: 3
    weight_filler {
      type: "xavier"
    }
    bias_filler {
      type: "constant"
      value: 0
    }
  }
}
layer {
  name: "relu1_1"
  type: "ReLU"
  bottom: "conv1_1"
  top: "conv1_1"
}
layer {
  name: "conv1_2"
  type: "Convolution"
  bottom: "conv1_1"
  top: "conv1_2"
  param {
    lr_mult: 1
    decay_mult: 1
  }
  param {
    lr_mult: 2
    decay_mult: 0
  }
  convolution_param {
    num_output: 64
    pad: 1
    kernel_size: 3
    weight_filler {
      type: "xavier"
    }
    bias_filler {
      type: "constant"
      value: 0
    }
  }
}
layer {
  name: "relu1_2"
  type: "ReLU"
  bottom: "conv1_2"
  top: "conv1_2"
}
layer {
  name: "pool1"
  type: "Pooling"
  bottom: "conv1_2"
  top: "pool1"
  pooling_param {
    pool: MAX
    kernel_size: 2
    stride: 2
  }
}
layer {
  name: "conv2_1"
  type: "Convolution"
  bottom: "pool1"
  top: "conv2_1"
  param {
    lr_mult: 1
    decay_mult: 1
  }
  param {
    lr_mult: 2
    decay_mult: 0
  }
  convolution_param {
    num_output: 128
    pad: 1
    kernel_size: 3
    weight_filler {
      type: "xavier"
    }
    bias_filler {
      type: "constant"
      value: 0
    }
  }
}
layer {
  name: "relu2_1"
  type: "ReLU"
  bottom: "conv2_1"
  top: "conv2_1"
}
layer {
  name: "conv2_2"
  type: "Convolution"
  bottom: "conv2_1"
  top: "conv2_2"
  param {
    lr_mult: 1
    decay_mult: 1
  }
  param {
    lr_mult: 2
    decay_mult: 0
  }
  convolution_param {
    num_output: 128
    pad: 1
    kernel_size: 3
    weight_filler {
      type: "xavier"
    }
    bias_filler {
      type: "constant"
      value: 0
    }
  }
}
layer {
  name: "relu2_2"
  type: "ReLU"
  bottom: "conv2_2"
  top: "conv2_2"
}
layer {
  name: "pool2"
  type: "Pooling"
  bottom: "conv2_2"
  top: "pool2"
  pooling_param {
    pool: MAX
    kernel_size: 2
    stride: 2
  }
}
layer {
  name: "conv3_1"
  type: "Convolution"
  bottom: "pool2"
  top: "conv3_1"
  param {
    lr_mult: 1
    decay_mult: 1
  }
  param {
    lr_mult: 2
    decay_mult: 0
  }
  convolution_param {
    num_output: 256
    pad: 1
    kernel_size: 3
    weight_filler {
      type: "xavier"
    }
    bias_filler {
      type: "constant"
      value: 0
    }
  }
}
layer {
  name: "relu3_1"
  type: "ReLU"
  bottom: "conv3_1"
  top: "conv3_1"
}
layer {
  name: "conv3_2"
  type: "Convolution"
  bottom: "conv3_1"
  top: "conv3_2"
  param {
    lr_mult: 1
    decay_mult: 1
  }
  param {
    lr_mult: 2
    decay_mult: 0
  }
  convolution_param {
    num_output: 256
    pad: 1
    kernel_size: 3
    weight_filler {
      type: "xavier"
    }
    bias_filler {
      type: "constant"
      value: 0
    }
  }
}
layer {
  name: "relu3_2"
  type: "ReLU"
  bottom: "conv3_2"
  top: "conv3_2"
}
layer {
  name: "conv3_3"
  type: "Convolution"
  bottom: "conv3_2"
  top: "conv3_3"
  param {
    lr_mult: 1
    decay_mult: 1
  }
  param {
    lr_mult: 2
    decay_mult: 0
  }
  convolution_param {
    num_output: 256
    pad: 1
    kernel_size: 3
    weight_filler {
      type: "xavier"
    }
    bias_filler {
      type: "constant"
      value: 0
    }
  }
}
layer {
  name: "relu3_3"
  type: "ReLU"
  bottom: "conv3_3"
  top: "conv3_3"
}
layer {
  name: "pool3"
  type: "Pooling"
  bottom: "conv3_3"
  top: "pool3"
  pooling_param {
    pool: MAX
    kernel_size: 2
    stride: 2
  }
}
layer {
  name: "conv4_1"
  type: "Convolution"
  bottom: "pool3"
  top: "conv4_1"
  param {
    lr_mult: 1
    decay_mult: 1
  }
  param {
    lr_mult: 2
    decay_mult: 0
  }
  convolution_param {
    num_output: 512
    pad: 1
    kernel_size: 3
    weight_filler {
      type: "xavier"
    }
    bias_filler {
      type: "constant"
      value: 0
    }
  }
}
layer {
  name: "relu4_1"
  type: "ReLU"
  bottom: "conv4_1"
  top: "conv4_1"
}
layer {
  name: "conv4_2"
  type: "Convolution"
  bottom: "conv4_1"
  top: "conv4_2"
  param {
    lr_mult: 1
    decay_mult: 1
  }
  param {
    lr_mult: 2
    decay_mult: 0
  }
  convolution_param {
    num_output: 512
    pad: 1
    kernel_size: 3
    weight_filler {
      type: "xavier"
    }
    bias_filler {
      type: "constant"
      value: 0
    }
  }
}
layer {
  name: "relu4_2"
  type: "ReLU"
  bottom: "conv4_2"
  top: "conv4_2"
}
layer {
  name: "conv4_3"
  type: "Convolution"
  bottom: "conv4_2"
  top: "conv4_3"
  param {
    lr_mult: 1
    decay_mult: 1
  }
  param {
    lr_mult: 2
    decay_mult: 0
  }
  convolution_param {
    num_output: 512
    pad: 1
    kernel_size: 3
    weight_filler {
      type: "xavier"
    }
    bias_filler {
      type: "constant"
      value: 0
    }
  }
}
layer {
  name: "relu4_3"
  type: "ReLU"
  bottom: "conv4_3"
  top: "conv4_3"
}
layer {
  name: "pool4"
  type: "Pooling"
  bottom: "conv4_3"
  top: "pool4"
  pooling_param {
    pool: MAX
    kernel_size: 2
    stride: 2
  }
}
layer {
  name: "conv5_1"
  type: "Convolution"
  bottom: "pool4"
  top: "conv5_1"
  param {
    lr_mult: 1
    decay_mult: 1
  }
  param {
    lr_mult: 2
    decay_mult: 0
  }
  convolution_param {
    num_output: 512
    pad: 1
    kernel_size: 3
    weight_filler {
      type: "xavier"
    }
    bias_filler {
      type: "constant"
      value: 0
    }
    dilation: 1
  }
}
layer {
  name: "relu5_1"
  type: "ReLU"
  bottom: "conv5_1"
  top: "conv5_1"
}
layer {
  name: "conv5_2"
  type: "Convolution"
  bottom: "conv5_1"
  top: "conv5_2"
  param {
    lr_mult: 1
    decay_mult: 1
  }
  param {
    lr_mult: 2
    decay_mult: 0
  }
  convolution_param {
    num_output: 512
    pad: 1
    kernel_size: 3
    weight_filler {
      type: "xavier"
    }
    bias_filler {
      type: "constant"
      value: 0
    }
    dilation: 1
  }
}
layer {
  name: "relu5_2"
  type: "ReLU"
  bottom: "conv5_2"
  top: "conv5_2"
}
layer {
  name: "conv5_3"
  type: "Convolution"
  bottom: "conv5_2"
  top: "conv5_3"
  param {
    lr_mult: 1
    decay_mult: 1
  }
  param {
    lr_mult: 2
    decay_mult: 0
  }
  convolution_param {
    num_output: 512
    pad: 1
    kernel_size: 3
    weight_filler {
      type: "xavier"
    }
    bias_filler {
      type: "constant"
      value: 0
    }
    dilation: 1
  }
}
layer {
  name: "relu5_3"
  type: "ReLU"
  bottom: "conv5_3"
  top: "conv5_3"
}
layer {
  name: "pool5"
  type: "Pooling"
  bottom: "conv5_3"
  top: "pool5"
  pooling_param {
    pool: MAX
    kernel_size: 3
    stride: 1
    pad: 1
  }
}
layer {
  name: "fc6"
  type: "Convolution"
  bottom: "pool5"
  top: "fc6"
  param {
    lr_mult: 1
    decay_mult: 1
  }
  param {
    lr_mult: 2
    decay_mult: 0
  }
  convolution_param {
    num_output: 1024
    pad: 6
    kernel_size: 3
    weight_filler {
      type: "xavier"
    }
    bias_filler {
      type: "constant"
      value: 0
    }
    dilation: 6
  }
}
layer {
  name: "relu6"
  type: "ReLU"
  bottom: "fc6"
  top: "fc6"
}
layer {
  name: "fc7"
  type: "Convolution"
  bottom: "fc6"
  top: "fc7"
  param {
    lr_mult: 1
    decay_mult: 1
  }
  param {
    lr_mult: 2
    decay_mult: 0
  }
  convolution_param {
    num_output: 1024
    kernel_size: 1
    weight_filler {
      type: "xavier"
    }
    bias_filler {
      type: "constant"
      value: 0
    }
  }
}
layer {
  name: "relu7"
  type: "ReLU"
  bottom: "fc7"
  top: "fc7"
}
layer {
  name: "conv6_1"
  type: "Convolution"
  bottom: "fc7"
  top: "conv6_1"
  param {
    lr_mult: 1
    decay_mult: 1
  }
  param {
    lr_mult: 2
    decay_mult: 0
  }
  convolution_param {
    num_output: 256
    pad: 0
    kernel_size: 1
    stride: 1
    weight_filler {
      type: "xavier"
    }
    bias_filler {
      type: "constant"
      value: 0
    }
  }
}
layer {
  name: "conv6_1_relu"
  type: "ReLU"
  bottom: "conv6_1"
  top: "conv6_1"
}
layer {
  name: "conv6_2"
  type: "Convolution"
  bottom: "conv6_1"
  top: "conv6_2"
  param {
    lr_mult: 1
    decay_mult: 1
  }
  param {
    lr_mult: 2
    decay_mult: 0
  }
  convolution_param {
    num_output: 512
    pad: 1
    kernel_size: 3
    stride: 2
    weight_filler {
      type: "xavier"
    }
    bias_filler {
      type: "constant"
      value: 0
    }
  }
}
layer {
  name: "conv6_2_relu"
  type: "ReLU"
  bottom: "conv6_2"
  top: "conv6_2"
}
layer {
  name: "conv7_1"
  type: "Convolution"
  bottom: "conv6_2"
  top: "conv7_1"
  param {
    lr_mult: 1
    decay_mult: 1
  }
  param {
    lr_mult: 2
    decay_mult: 0
  }
  convolution_param {
    num_output: 128
    pad: 0
    kernel_size: 1
    stride: 1
    weight_filler {
      type: "xavier"
    }
    bias_filler {
      type: "constant"
      value: 0
    }
  }
}
layer {
  name: "conv7_1_relu"
  type: "ReLU"
  bottom: "conv7_1"
  top: "conv7_1"
}
layer {
  name: "conv7_2"
  type: "Convolution"
  bottom: "conv7_1"
  top: "conv7_2"
  param {
    lr_mult: 1
    decay_mult: 1
  }
  param {
    lr_mult: 2
    decay_mult: 0
  }
  convolution_param {
    num_output: 256
    pad: 1
    kernel_size: 3
    stride: 2
    weight_filler {
      type: "xavier"
    }
    bias_filler {
      type: "constant"
      value: 0
    }
  }
}
layer {
  name: "conv7_2_relu"
  type: "ReLU"
  bottom: "conv7_2"
  top: "conv7_2"
}
layer {
  name: "conv8_1"
  type: "Convolution"
  bottom: "conv7_2"
  top: "conv8_1"
  param {
    lr_mult: 1
    decay_mult: 1
  }
  param {
    lr_mult: 2
    decay_mult: 0
  }
  convolution_param {
    num_output: 128
    pad: 0
    kernel_size: 1
    stride: 1
    weight_filler {
      type: "xavier"
    }
    bias_filler {
      type: "constant"
      value: 0
    }
  }
}
layer {
  name: "conv8_1_relu"
  type: "ReLU"
  bottom: "conv8_1"
  top: "conv8_1"
}
layer {
  name: "conv8_2"
  type: "Convolution"
  bottom: "conv8_1"
  top: "conv8_2"
  param {
    lr_mult: 1
    decay_mult: 1
  }
  param {
    lr_mult: 2
    decay_mult: 0
  }
  convolution_param {
    num_output: 256
    pad: 0
    kernel_size: 3
    stride: 1
    weight_filler {
      type: "xavier"
    }
    bias_filler {
      type: "constant"
      value: 0
    }
  }
}
layer {
  name: "conv8_2_relu"
  type: "ReLU"
  bottom: "conv8_2"
  top: "conv8_2"
}
layer {
  name: "conv9_1"
  type: "Convolution"
  bottom: "conv8_2"
  top: "conv9_1"
  param {
    lr_mult: 1
    decay_mult: 1
  }
  param {
    lr_mult: 2
    decay_mult: 0
  }
  convolution_param {
    num_output: 128
    pad: 0
    kernel_size: 1
    stride: 1
    weight_filler {
      type: "xavier"
    }
    bias_filler {
      type: "constant"
      value: 0
    }
  }
}
layer {
  name: "conv9_1_relu"
  type: "ReLU"
  bottom: "conv9_1"
  top: "conv9_1"
}
layer {
  name: "conv9_2"
  type: "Convolution"
  bottom: "conv9_1"
  top: "conv9_2"
  param {
    lr_mult: 1
    decay_mult: 1
  }
  param {
    lr_mult: 2
    decay_mult: 0
  }
  convolution_param {
    num_output: 256
    pad: 0
    kernel_size: 3
    stride: 1
    weight_filler {
      type: "xavier"
    }
    bias_filler {
      type: "constant"
      value: 0
    }
  }
}
layer {
  name: "conv9_2_relu"
  type: "ReLU"
  bottom: "conv9_2"
  top: "conv9_2"
}
layer {
  name: "conv4_3_norm"
  type: "Normalize"
  bottom: "conv4_3"
  top: "conv4_3_norm"
  norm_param {
    across_spatial: false
    scale_filler {
      type: "constant"
      value: 20
    }
    channel_shared: false
  }
}
layer {
  name: "conv4_3_norm_mbox_loc"
  type: "Convolution"
  bottom: "conv4_3_norm"
  top: "conv4_3_norm_mbox_loc"
  param {
    lr_mult: 1
    decay_mult: 1
  }
  param {
    lr_mult: 2
    decay_mult: 0
  }
  convolution_param {
    num_output: 16
    pad: 1
    kernel_size: 3
    stride: 1
    weight_filler {
      type: "xavier"
    }
    bias_filler {
      type: "constant"
      value: 0
    }
  }
}
layer {
  name: "conv4_3_norm_mbox_loc_perm"
  type: "Permute"
  bottom: "conv4_3_norm_mbox_loc"
  top: "conv4_3_norm_mbox_loc_perm"
  permute_param {
    order: 0
    order: 2
    order: 3
    order: 1
  }
}
layer {
  name: "conv4_3_norm_mbox_loc_flat"
  type: "Flatten"
  bottom: "conv4_3_norm_mbox_loc_perm"
  top: "conv4_3_norm_mbox_loc_flat"
  flatten_param {
    axis: 1
  }
}
layer {
  name: "conv4_3_norm_mbox_conf"
  type: "Convolution"
  bottom: "conv4_3_norm"
  top: "conv4_3_norm_mbox_conf"
  param {
    lr_mult: 1
    decay_mult: 1
  }
  param {
    lr_mult: 2
    decay_mult: 0
  }
  convolution_param {
    num_output: 84
    pad: 1
    kernel_size: 3
    stride: 1
    weight_filler {
      type: "xavier"
    }
    bias_filler {
      type: "constant"
      value: 0
    }
  }
}
layer {
  name: "conv4_3_norm_mbox_conf_perm"
  type: "Permute"
  bottom: "conv4_3_norm_mbox_conf"
  top: "conv4_3_norm_mbox_conf_perm"
  permute_param {
    order: 0
    order: 2
    order: 3
    order: 1
  }
}
layer {
  name: "conv4_3_norm_mbox_conf_flat"
  type: "Flatten"
  bottom: "conv4_3_norm_mbox_conf_perm"
  top: "conv4_3_norm_mbox_conf_flat"
  flatten_param {
    axis: 1
  }
}
layer {
  name: "conv4_3_norm_mbox_priorbox"
  type: "PriorBox"
  bottom: "conv4_3_norm"
  bottom: "data"
  top: "conv4_3_norm_mbox_priorbox"
  prior_box_param {
    min_size: 30
    max_size: 60
    aspect_ratio: 2
    flip: true
    clip: false
    variance: 0.1
    variance: 0.1
    variance: 0.2
    variance: 0.2
    step: 8
    offset: 0.5
  }
}
layer {
  name: "fc7_mbox_loc"
  type: "Convolution"
  bottom: "fc7"
  top: "fc7_mbox_loc"
  param {
    lr_mult: 1
    decay_mult: 1
  }
  param {
    lr_mult: 2
    decay_mult: 0
  }
  convolution_param {
    num_output: 24
    pad: 1
    kernel_size: 3
    stride: 1
    weight_filler {
      type: "xavier"
    }
    bias_filler {
      type: "constant"
      value: 0
    }
  }
}
layer {
  name: "fc7_mbox_loc_perm"
  type: "Permute"
  bottom: "fc7_mbox_loc"
  top: "fc7_mbox_loc_perm"
  permute_param {
    order: 0
    order: 2
    order: 3
    order: 1
  }
}
layer {
  name: "fc7_mbox_loc_flat"
  type: "Flatten"
  bottom: "fc7_mbox_loc_perm"
  top: "fc7_mbox_loc_flat"
  flatten_param {
    axis: 1
  }
}
layer {
  name: "fc7_mbox_conf"
  type: "Convolution"
  bottom: "fc7"
  top: "fc7_mbox_conf"
  param {
    lr_mult: 1
    decay_mult: 1
  }
  param {
    lr_mult: 2
    decay_mult: 0
  }
  convolution_param {
    num_output: 126
    pad: 1
    kernel_size: 3
    stride: 1
    weight_filler {
      type: "xavier"
    }
    bias_filler {
      type: "constant"
      value: 0
    }
  }
}
layer {
  name: "fc7_mbox_conf_perm"
  type: "Permute"
  bottom: "fc7_mbox_conf"
  top: "fc7_mbox_conf_perm"
  permute_param {
    order: 0
    order: 2
    order: 3
    order: 1
  }
}
layer {
  name: "fc7_mbox_conf_flat"
  type: "Flatten"
  bottom: "fc7_mbox_conf_perm"
  top: "fc7_mbox_conf_flat"
  flatten_param {
    axis: 1
  }
}
layer {
  name: "fc7_mbox_priorbox"
  type: "PriorBox"
  bottom: "fc7"
  bottom: "data"
  top: "fc7_mbox_priorbox"
  prior_box_param {
    min_size: 60
    max_size: 111
    aspect_ratio: 2
    aspect_ratio: 3
    flip: true
    clip: false
    variance: 0.1
    variance: 0.1
    variance: 0.2
    variance: 0.2
    step: 16
    offset: 0.5
  }
}
layer {
  name: "conv6_2_mbox_loc"
  type: "Convolution"
  bottom: "conv6_2"
  top: "conv6_2_mbox_loc"
  param {
    lr_mult: 1
    decay_mult: 1
  }
  param {
    lr_mult: 2
    decay_mult: 0
  }
  convolution_param {
    num_output: 24
    pad: 1
    kernel_size: 3
    stride: 1
    weight_filler {
      type: "xavier"
    }
    bias_filler {
      type: "constant"
      value: 0
    }
  }
}
layer {
  name: "conv6_2_mbox_loc_perm"
  type: "Permute"
  bottom: "conv6_2_mbox_loc"
  top: "conv6_2_mbox_loc_perm"
  permute_param {
    order: 0
    order: 2
    order: 3
    order: 1
  }
}
layer {
  name: "conv6_2_mbox_loc_flat"
  type: "Flatten"
  bottom: "conv6_2_mbox_loc_perm"
  top: "conv6_2_mbox_loc_flat"
  flatten_param {
    axis: 1
  }
}
layer {
  name: "conv6_2_mbox_conf"
  type: "Convolution"
  bottom: "conv6_2"
  top: "conv6_2_mbox_conf"
  param {
    lr_mult: 1
    decay_mult: 1
  }
  param {
    lr_mult: 2
    decay_mult: 0
  }
  convolution_param {
    num_output: 126
    pad: 1
    kernel_size: 3
    stride: 1
    weight_filler {
      type: "xavier"
    }
    bias_filler {
      type: "constant"
      value: 0
    }
  }
}
layer {
  name: "conv6_2_mbox_conf_perm"
  type: "Permute"
  bottom: "conv6_2_mbox_conf"
  top: "conv6_2_mbox_conf_perm"
  permute_param {
    order: 0
    order: 2
    order: 3
    order: 1
  }
}
layer {
  name: "conv6_2_mbox_conf_flat"
  type: "Flatten"
  bottom: "conv6_2_mbox_conf_perm"
  top: "conv6_2_mbox_conf_flat"
  flatten_param {
    axis: 1
  }
}
layer {
  name: "conv6_2_mbox_priorbox"
  type: "PriorBox"
  bottom: "conv6_2"
  bottom: "data"
  top: "conv6_2_mbox_priorbox"
  prior_box_param {
    min_size: 111
    max_size: 162
    aspect_ratio: 2
    aspect_ratio: 3
    flip: true
    clip: false
    variance: 0.1
    variance: 0.1
    variance: 0.2
    variance: 0.2
    step: 32
    offset: 0.5
  }
}
layer {
  name: "conv7_2_mbox_loc"
  type: "Convolution"
  bottom: "conv7_2"
  top: "conv7_2_mbox_loc"
  param {
    lr_mult: 1
    decay_mult: 1
  }
  param {
    lr_mult: 2
    decay_mult: 0
  }
  convolution_param {
    num_output: 24
    pad: 1
    kernel_size: 3
    stride: 1
    weight_filler {
      type: "xavier"
    }
    bias_filler {
      type: "constant"
      value: 0
    }
  }
}
layer {
  name: "conv7_2_mbox_loc_perm"
  type: "Permute"
  bottom: "conv7_2_mbox_loc"
  top: "conv7_2_mbox_loc_perm"
  permute_param {
    order: 0
    order: 2
    order: 3
    order: 1
  }
}
layer {
  name: "conv7_2_mbox_loc_flat"
  type: "Flatten"
  bottom: "conv7_2_mbox_loc_perm"
  top: "conv7_2_mbox_loc_flat"
  flatten_param {
    axis: 1
  }
}
layer {
  name: "conv7_2_mbox_conf"
  type: "Convolution"
  bottom: "conv7_2"
  top: "conv7_2_mbox_conf"
  param {
    lr_mult: 1
    decay_mult: 1
  }
  param {
    lr_mult: 2
    decay_mult: 0
  }
  convolution_param {
    num_output: 126
    pad: 1
    kernel_size: 3
    stride: 1
    weight_filler {
      type: "xavier"
    }
    bias_filler {
      type: "constant"
      value: 0
    }
  }
}
layer {
  name: "conv7_2_mbox_conf_perm"
  type: "Permute"
  bottom: "conv7_2_mbox_conf"
  top: "conv7_2_mbox_conf_perm"
  permute_param {
    order: 0
    order: 2
    order: 3
    order: 1
  }
}
layer {
  name: "conv7_2_mbox_conf_flat"
  type: "Flatten"
  bottom: "conv7_2_mbox_conf_perm"
  top: "conv7_2_mbox_conf_flat"
  flatten_param {
    axis: 1
  }
}
layer {
  name: "conv7_2_mbox_priorbox"
  type: "PriorBox"
  bottom: "conv7_2"
  bottom: "data"
  top: "conv7_2_mbox_priorbox"
  prior_box_param {
    min_size: 162
    max_size: 213
    aspect_ratio: 2
    aspect_ratio: 3
    flip: true
    clip: false
    variance: 0.1
    variance: 0.1
    variance: 0.2
    variance: 0.2
    step: 64
    offset: 0.5
  }
}
layer {
  name: "conv8_2_mbox_loc"
  type: "Convolution"
  bottom: "conv8_2"
  top: "conv8_2_mbox_loc"
  param {
    lr_mult: 1
    decay_mult: 1
  }
  param {
    lr_mult: 2
    decay_mult: 0
  }
  convolution_param {
    num_output: 16
    pad: 1
    kernel_size: 3
    stride: 1
    weight_filler {
      type: "xavier"
    }
    bias_filler {
      type: "constant"
      value: 0
    }
  }
}
layer {
  name: "conv8_2_mbox_loc_perm"
  type: "Permute"
  bottom: "conv8_2_mbox_loc"
  top: "conv8_2_mbox_loc_perm"
  permute_param {
    order: 0
    order: 2
    order: 3
    order: 1
  }
}
layer {
  name: "conv8_2_mbox_loc_flat"
  type: "Flatten"
  bottom: "conv8_2_mbox_loc_perm"
  top: "conv8_2_mbox_loc_flat"
  flatten_param {
    axis: 1
  }
}
layer {
  name: "conv8_2_mbox_conf"
  type: "Convolution"
  bottom: "conv8_2"
  top: "conv8_2_mbox_conf"
  param {
    lr_mult: 1
    decay_mult: 1
  }
  param {
    lr_mult: 2
    decay_mult: 0
  }
  convolution_param {
    num_output: 84
    pad: 1
    kernel_size: 3
    stride: 1
    weight_filler {
      type: "xavier"
    }
    bias_filler {
      type: "constant"
      value: 0
    }
  }
}
layer {
  name: "conv8_2_mbox_conf_perm"
  type: "Permute"
  bottom: "conv8_2_mbox_conf"
  top: "conv8_2_mbox_conf_perm"
  permute_param {
    order: 0
    order: 2
    order: 3
    order: 1
  }
}
layer {
  name: "conv8_2_mbox_conf_flat"
  type: "Flatten"
  bottom: "conv8_2_mbox_conf_perm"
  top: "conv8_2_mbox_conf_flat"
  flatten_param {
    axis: 1
  }
}
layer {
  name: "conv8_2_mbox_priorbox"
  type: "PriorBox"
  bottom: "conv8_2"
  bottom: "data"
  top: "conv8_2_mbox_priorbox"
  prior_box_param {
    min_size: 213
    max_size: 264
    aspect_ratio: 2
    flip: true
    clip: false
    variance: 0.1
    variance: 0.1
    variance: 0.2
    variance: 0.2
    step: 100
    offset: 0.5
  }
}
layer {
  name: "conv9_2_mbox_loc"
  type: "Convolution"
  bottom: "conv9_2"
  top: "conv9_2_mbox_loc"
  param {
    lr_mult: 1
    decay_mult: 1
  }
  param {
    lr_mult: 2
    decay_mult: 0
  }
  convolution_param {
    num_output: 16
    pad: 1
    kernel_size: 3
    stride: 1
    weight_filler {
      type: "xavier"
    }
    bias_filler {
      type: "constant"
      value: 0
    }
  }
}
layer {
  name: "conv9_2_mbox_loc_perm"
  type: "Permute"
  bottom: "conv9_2_mbox_loc"
  top: "conv9_2_mbox_loc_perm"
  permute_param {
    order: 0
    order: 2
    order: 3
    order: 1
  }
}
layer {
  name: "conv9_2_mbox_loc_flat"
  type: "Flatten"
  bottom: "conv9_2_mbox_loc_perm"
  top: "conv9_2_mbox_loc_flat"
  flatten_param {
    axis: 1
  }
}
layer {
  name: "conv9_2_mbox_conf"
  type: "Convolution"
  bottom: "conv9_2"
  top: "conv9_2_mbox_conf"
  param {
    lr_mult: 1
    decay_mult: 1
  }
  param {
    lr_mult: 2
    decay_mult: 0
  }
  convolution_param {
    num_output: 84
    pad: 1
    kernel_size: 3
    stride: 1
    weight_filler {
      type: "xavier"
    }
    bias_filler {
      type: "constant"
      value: 0
    }
  }
}
layer {
  name: "conv9_2_mbox_conf_perm"
  type: "Permute"
  bottom: "conv9_2_mbox_conf"
  top: "conv9_2_mbox_conf_perm"
  permute_param {
    order: 0
    order: 2
    order: 3
    order: 1
  }
}
layer {
  name: "conv9_2_mbox_conf_flat"
  type: "Flatten"
  bottom: "conv9_2_mbox_conf_perm"
  top: "conv9_2_mbox_conf_flat"
  flatten_param {
    axis: 1
  }
}
layer {
  name: "conv9_2_mbox_priorbox"
  type: "PriorBox"
  bottom: "conv9_2"
  bottom: "data"
  top: "conv9_2_mbox_priorbox"
  prior_box_param {
    min_size: 264
    max_size: 315
    aspect_ratio: 2
    flip: true
    clip: false
    variance: 0.1
    variance: 0.1
    variance: 0.2
    variance: 0.2
    step: 300
    offset: 0.5
  }
}
layer {
  name: "mbox_loc"
  type: "Concat"
  bottom: "conv4_3_norm_mbox_loc_flat"
  bottom: "fc7_mbox_loc_flat"
  bottom: "conv6_2_mbox_loc_flat"
  bottom: "conv7_2_mbox_loc_flat"
  bottom: "conv8_2_mbox_loc_flat"
  bottom: "conv9_2_mbox_loc_flat"
  top: "mbox_loc"
  concat_param {
    axis: 1
  }
}
layer {
  name: "mbox_conf"
  type: "Concat"
  bottom: "conv4_3_norm_mbox_conf_flat"
  bottom: "fc7_mbox_conf_flat"
  bottom: "conv6_2_mbox_conf_flat"
  bottom: "conv7_2_mbox_conf_flat"
  bottom: "conv8_2_mbox_conf_flat"
  bottom: "conv9_2_mbox_conf_flat"
  top: "mbox_conf"
  concat_param {
    axis: 1
  }
}
layer {
  name: "mbox_priorbox"
  type: "Concat"
  bottom: "conv4_3_norm_mbox_priorbox"
  bottom: "fc7_mbox_priorbox"
  bottom: "conv6_2_mbox_priorbox"
  bottom: "conv7_2_mbox_priorbox"
  bottom: "conv8_2_mbox_priorbox"
  bottom: "conv9_2_mbox_priorbox"
  top: "mbox_priorbox"
  concat_param {
    axis: 2
  }
}
layer {
  name: "mbox_conf_reshape"
  type: "Reshape"
  bottom: "mbox_conf"
  top: "mbox_conf_reshape"
  reshape_param {
    shape {
      dim: 0
      dim: -1
      dim: 21
    }
  }
}
layer {
  name: "mbox_conf_softmax"
  type: "Softmax"
  bottom: "mbox_conf_reshape"
  top: "mbox_conf_softmax"
  softmax_param {
    axis: 2
  }
}
layer {
  name: "mbox_conf_flatten"
  type: "Flatten"
  bottom: "mbox_conf_softmax"
  top: "mbox_conf_flatten"
  flatten_param {
    axis: 1
  }
}
layer {
  name: "detection_out"
  type: "DetectionOutput"
  bottom: "mbox_loc"
  bottom: "mbox_conf_flatten"
  bottom: "mbox_priorbox"
  top: "detection_out"
  include {
    phase: TEST
  }
  detection_output_param {
    num_classes: 21
    share_location: true
    background_label_id: 0
    nms_param {
      nms_threshold: 0.45
      top_k: 400
    }
    save_output_param {
      output_directory: "/home/bvi/data/VOCdevkit/results/VOC2007/SSD_300x300/Main"
      output_name_prefix: "comp4_det_test_"
      output_format: "VOC"
      label_map_file: "data/VOC0712/labelmap_voc.prototxt"
      name_size_file: "data/VOC0712/test_name_size.txt"
      num_test_image: 4952
    }
    code_type: CENTER_SIZE
    keep_top_k: 200
    confidence_threshold: 0.01
  }
}
layer {
  name: "detection_eval"
  type: "DetectionEvaluate"
  bottom: "detection_out"
  bottom: "label"
  top: "detection_eval"
  include {
    phase: TEST
  }
  detection_evaluate_param {
    num_classes: 21
    background_label_id: 0
    overlap_threshold: 0.5
    evaluate_difficult_gt: false
    name_size_file: "data/VOC0712/test_name_size.txt"
  }
}
I0623 09:28:07.320941 25934 layer_factory.hpp:77] Creating layer data
I0623 09:28:07.321029 25934 net.cpp:100] Creating Layer data
I0623 09:28:07.321045 25934 net.cpp:408] data -> data
I0623 09:28:07.321068 25934 net.cpp:408] data -> label
I0623 09:28:07.321782 25955 db_lmdb.cpp:35] Opened lmdb examples/VOC0712/VOC0712_test_lmdb
I0623 09:28:07.324292 25934 annotated_data_layer.cpp:62] output data size: 8,3,300,300
I0623 09:28:07.338428 25934 net.cpp:150] Setting up data
I0623 09:28:07.338471 25934 net.cpp:157] Top shape: 8 3 300 300 (2160000)
I0623 09:28:07.338481 25934 net.cpp:157] Top shape: 1 1 2 8 (16)
I0623 09:28:07.338485 25934 net.cpp:165] Memory required for data: 8640064
I0623 09:28:07.338495 25934 layer_factory.hpp:77] Creating layer data_data_0_split
I0623 09:28:07.338517 25934 net.cpp:100] Creating Layer data_data_0_split
I0623 09:28:07.338526 25934 net.cpp:434] data_data_0_split <- data
I0623 09:28:07.338541 25934 net.cpp:408] data_data_0_split -> data_data_0_split_0
I0623 09:28:07.338559 25934 net.cpp:408] data_data_0_split -> data_data_0_split_1
I0623 09:28:07.338572 25934 net.cpp:408] data_data_0_split -> data_data_0_split_2
I0623 09:28:07.338588 25934 net.cpp:408] data_data_0_split -> data_data_0_split_3
I0623 09:28:07.338601 25934 net.cpp:408] data_data_0_split -> data_data_0_split_4
I0623 09:28:07.338616 25934 net.cpp:408] data_data_0_split -> data_data_0_split_5
I0623 09:28:07.338629 25934 net.cpp:408] data_data_0_split -> data_data_0_split_6
I0623 09:28:07.338781 25934 net.cpp:150] Setting up data_data_0_split
I0623 09:28:07.338794 25934 net.cpp:157] Top shape: 8 3 300 300 (2160000)
I0623 09:28:07.338805 25934 net.cpp:157] Top shape: 8 3 300 300 (2160000)
I0623 09:28:07.338814 25934 net.cpp:157] Top shape: 8 3 300 300 (2160000)
I0623 09:28:07.338824 25934 net.cpp:157] Top shape: 8 3 300 300 (2160000)
I0623 09:28:07.338832 25934 net.cpp:157] Top shape: 8 3 300 300 (2160000)
I0623 09:28:07.338842 25934 net.cpp:157] Top shape: 8 3 300 300 (2160000)
I0623 09:28:07.338853 25934 net.cpp:157] Top shape: 8 3 300 300 (2160000)
I0623 09:28:07.338876 25934 net.cpp:165] Memory required for data: 69120064
I0623 09:28:07.338884 25934 layer_factory.hpp:77] Creating layer conv1_1
I0623 09:28:07.338907 25934 net.cpp:100] Creating Layer conv1_1
I0623 09:28:07.338914 25934 net.cpp:434] conv1_1 <- data_data_0_split_0
I0623 09:28:07.338927 25934 net.cpp:408] conv1_1 -> conv1_1
I0623 09:28:07.340590 25934 net.cpp:150] Setting up conv1_1
I0623 09:28:07.340605 25934 net.cpp:157] Top shape: 8 64 300 300 (46080000)
I0623 09:28:07.340611 25934 net.cpp:165] Memory required for data: 253440064
I0623 09:28:07.340629 25934 layer_factory.hpp:77] Creating layer relu1_1
I0623 09:28:07.340641 25934 net.cpp:100] Creating Layer relu1_1
I0623 09:28:07.340649 25934 net.cpp:434] relu1_1 <- conv1_1
I0623 09:28:07.340661 25934 net.cpp:395] relu1_1 -> conv1_1 (in-place)
I0623 09:28:07.340852 25934 net.cpp:150] Setting up relu1_1
I0623 09:28:07.340865 25934 net.cpp:157] Top shape: 8 64 300 300 (46080000)
I0623 09:28:07.340872 25934 net.cpp:165] Memory required for data: 437760064
I0623 09:28:07.340879 25934 layer_factory.hpp:77] Creating layer conv1_2
I0623 09:28:07.340898 25934 net.cpp:100] Creating Layer conv1_2
I0623 09:28:07.340903 25934 net.cpp:434] conv1_2 <- conv1_1
I0623 09:28:07.340915 25934 net.cpp:408] conv1_2 -> conv1_2
I0623 09:28:07.344374 25934 net.cpp:150] Setting up conv1_2
I0623 09:28:07.344398 25934 net.cpp:157] Top shape: 8 64 300 300 (46080000)
I0623 09:28:07.344403 25934 net.cpp:165] Memory required for data: 622080064
I0623 09:28:07.344419 25934 layer_factory.hpp:77] Creating layer relu1_2
I0623 09:28:07.344432 25934 net.cpp:100] Creating Layer relu1_2
I0623 09:28:07.344441 25934 net.cpp:434] relu1_2 <- conv1_2
I0623 09:28:07.344455 25934 net.cpp:395] relu1_2 -> conv1_2 (in-place)
I0623 09:28:07.344830 25934 net.cpp:150] Setting up relu1_2
I0623 09:28:07.344846 25934 net.cpp:157] Top shape: 8 64 300 300 (46080000)
I0623 09:28:07.344851 25934 net.cpp:165] Memory required for data: 806400064
I0623 09:28:07.344861 25934 layer_factory.hpp:77] Creating layer pool1
I0623 09:28:07.344873 25934 net.cpp:100] Creating Layer pool1
I0623 09:28:07.344882 25934 net.cpp:434] pool1 <- conv1_2
I0623 09:28:07.344892 25934 net.cpp:408] pool1 -> pool1
I0623 09:28:07.344960 25934 net.cpp:150] Setting up pool1
I0623 09:28:07.344972 25934 net.cpp:157] Top shape: 8 64 150 150 (11520000)
I0623 09:28:07.344981 25934 net.cpp:165] Memory required for data: 852480064
I0623 09:28:07.344988 25934 layer_factory.hpp:77] Creating layer conv2_1
I0623 09:28:07.345005 25934 net.cpp:100] Creating Layer conv2_1
I0623 09:28:07.345011 25934 net.cpp:434] conv2_1 <- pool1
I0623 09:28:07.345023 25934 net.cpp:408] conv2_1 -> conv2_1
I0623 09:28:07.346750 25934 net.cpp:150] Setting up conv2_1
I0623 09:28:07.346766 25934 net.cpp:157] Top shape: 8 128 150 150 (23040000)
I0623 09:28:07.346773 25934 net.cpp:165] Memory required for data: 944640064
I0623 09:28:07.346791 25934 layer_factory.hpp:77] Creating layer relu2_1
I0623 09:28:07.346808 25934 net.cpp:100] Creating Layer relu2_1
I0623 09:28:07.346815 25934 net.cpp:434] relu2_1 <- conv2_1
I0623 09:28:07.346827 25934 net.cpp:395] relu2_1 -> conv2_1 (in-place)
I0623 09:28:07.347187 25934 net.cpp:150] Setting up relu2_1
I0623 09:28:07.347200 25934 net.cpp:157] Top shape: 8 128 150 150 (23040000)
I0623 09:28:07.347206 25934 net.cpp:165] Memory required for data: 1036800064
I0623 09:28:07.347213 25934 layer_factory.hpp:77] Creating layer conv2_2
I0623 09:28:07.347231 25934 net.cpp:100] Creating Layer conv2_2
I0623 09:28:07.347239 25934 net.cpp:434] conv2_2 <- conv2_1
I0623 09:28:07.347252 25934 net.cpp:408] conv2_2 -> conv2_2
I0623 09:28:07.350036 25934 net.cpp:150] Setting up conv2_2
I0623 09:28:07.350056 25934 net.cpp:157] Top shape: 8 128 150 150 (23040000)
I0623 09:28:07.350064 25934 net.cpp:165] Memory required for data: 1128960064
I0623 09:28:07.350080 25934 layer_factory.hpp:77] Creating layer relu2_2
I0623 09:28:07.350091 25934 net.cpp:100] Creating Layer relu2_2
I0623 09:28:07.350100 25934 net.cpp:434] relu2_2 <- conv2_2
I0623 09:28:07.350123 25934 net.cpp:395] relu2_2 -> conv2_2 (in-place)
I0623 09:28:07.350335 25934 net.cpp:150] Setting up relu2_2
I0623 09:28:07.350349 25934 net.cpp:157] Top shape: 8 128 150 150 (23040000)
I0623 09:28:07.350355 25934 net.cpp:165] Memory required for data: 1221120064
I0623 09:28:07.350363 25934 layer_factory.hpp:77] Creating layer pool2
I0623 09:28:07.350374 25934 net.cpp:100] Creating Layer pool2
I0623 09:28:07.350383 25934 net.cpp:434] pool2 <- conv2_2
I0623 09:28:07.350395 25934 net.cpp:408] pool2 -> pool2
I0623 09:28:07.350466 25934 net.cpp:150] Setting up pool2
I0623 09:28:07.350478 25934 net.cpp:157] Top shape: 8 128 75 75 (5760000)
I0623 09:28:07.350484 25934 net.cpp:165] Memory required for data: 1244160064
I0623 09:28:07.350492 25934 layer_factory.hpp:77] Creating layer conv3_1
I0623 09:28:07.350512 25934 net.cpp:100] Creating Layer conv3_1
I0623 09:28:07.350519 25934 net.cpp:434] conv3_1 <- pool2
I0623 09:28:07.350530 25934 net.cpp:408] conv3_1 -> conv3_1
I0623 09:28:07.354396 25934 net.cpp:150] Setting up conv3_1
I0623 09:28:07.354425 25934 net.cpp:157] Top shape: 8 256 75 75 (11520000)
I0623 09:28:07.354431 25934 net.cpp:165] Memory required for data: 1290240064
I0623 09:28:07.354451 25934 layer_factory.hpp:77] Creating layer relu3_1
I0623 09:28:07.354468 25934 net.cpp:100] Creating Layer relu3_1
I0623 09:28:07.354477 25934 net.cpp:434] relu3_1 <- conv3_1
I0623 09:28:07.354491 25934 net.cpp:395] relu3_1 -> conv3_1 (in-place)
I0623 09:28:07.354877 25934 net.cpp:150] Setting up relu3_1
I0623 09:28:07.354892 25934 net.cpp:157] Top shape: 8 256 75 75 (11520000)
I0623 09:28:07.354897 25934 net.cpp:165] Memory required for data: 1336320064
I0623 09:28:07.354907 25934 layer_factory.hpp:77] Creating layer conv3_2
I0623 09:28:07.354928 25934 net.cpp:100] Creating Layer conv3_2
I0623 09:28:07.354935 25934 net.cpp:434] conv3_2 <- conv3_1
I0623 09:28:07.354949 25934 net.cpp:408] conv3_2 -> conv3_2
I0623 09:28:07.360741 25934 net.cpp:150] Setting up conv3_2
I0623 09:28:07.360764 25934 net.cpp:157] Top shape: 8 256 75 75 (11520000)
I0623 09:28:07.360770 25934 net.cpp:165] Memory required for data: 1382400064
I0623 09:28:07.360785 25934 layer_factory.hpp:77] Creating layer relu3_2
I0623 09:28:07.360800 25934 net.cpp:100] Creating Layer relu3_2
I0623 09:28:07.360808 25934 net.cpp:434] relu3_2 <- conv3_2
I0623 09:28:07.360821 25934 net.cpp:395] relu3_2 -> conv3_2 (in-place)
I0623 09:28:07.361192 25934 net.cpp:150] Setting up relu3_2
I0623 09:28:07.361207 25934 net.cpp:157] Top shape: 8 256 75 75 (11520000)
I0623 09:28:07.361212 25934 net.cpp:165] Memory required for data: 1428480064
I0623 09:28:07.361219 25934 layer_factory.hpp:77] Creating layer conv3_3
I0623 09:28:07.361243 25934 net.cpp:100] Creating Layer conv3_3
I0623 09:28:07.361250 25934 net.cpp:434] conv3_3 <- conv3_2
I0623 09:28:07.361263 25934 net.cpp:408] conv3_3 -> conv3_3
I0623 09:28:07.367223 25934 net.cpp:150] Setting up conv3_3
I0623 09:28:07.367244 25934 net.cpp:157] Top shape: 8 256 75 75 (11520000)
I0623 09:28:07.367249 25934 net.cpp:165] Memory required for data: 1474560064
I0623 09:28:07.367262 25934 layer_factory.hpp:77] Creating layer relu3_3
I0623 09:28:07.367276 25934 net.cpp:100] Creating Layer relu3_3
I0623 09:28:07.367285 25934 net.cpp:434] relu3_3 <- conv3_3
I0623 09:28:07.367300 25934 net.cpp:395] relu3_3 -> conv3_3 (in-place)
I0623 09:28:07.367686 25934 net.cpp:150] Setting up relu3_3
I0623 09:28:07.367699 25934 net.cpp:157] Top shape: 8 256 75 75 (11520000)
I0623 09:28:07.367705 25934 net.cpp:165] Memory required for data: 1520640064
I0623 09:28:07.367712 25934 layer_factory.hpp:77] Creating layer pool3
I0623 09:28:07.367727 25934 net.cpp:100] Creating Layer pool3
I0623 09:28:07.367733 25934 net.cpp:434] pool3 <- conv3_3
I0623 09:28:07.367746 25934 net.cpp:408] pool3 -> pool3
I0623 09:28:07.367817 25934 net.cpp:150] Setting up pool3
I0623 09:28:07.367830 25934 net.cpp:157] Top shape: 8 256 38 38 (2957312)
I0623 09:28:07.367838 25934 net.cpp:165] Memory required for data: 1532469312
I0623 09:28:07.367846 25934 layer_factory.hpp:77] Creating layer conv4_1
I0623 09:28:07.367878 25934 net.cpp:100] Creating Layer conv4_1
I0623 09:28:07.367887 25934 net.cpp:434] conv4_1 <- pool3
I0623 09:28:07.367899 25934 net.cpp:408] conv4_1 -> conv4_1
I0623 09:28:07.378571 25934 net.cpp:150] Setting up conv4_1
I0623 09:28:07.378604 25934 net.cpp:157] Top shape: 8 512 38 38 (5914624)
I0623 09:28:07.378610 25934 net.cpp:165] Memory required for data: 1556127808
I0623 09:28:07.378625 25934 layer_factory.hpp:77] Creating layer relu4_1
I0623 09:28:07.378645 25934 net.cpp:100] Creating Layer relu4_1
I0623 09:28:07.378654 25934 net.cpp:434] relu4_1 <- conv4_1
I0623 09:28:07.378667 25934 net.cpp:395] relu4_1 -> conv4_1 (in-place)
I0623 09:28:07.379053 25934 net.cpp:150] Setting up relu4_1
I0623 09:28:07.379067 25934 net.cpp:157] Top shape: 8 512 38 38 (5914624)
I0623 09:28:07.379075 25934 net.cpp:165] Memory required for data: 1579786304
I0623 09:28:07.379081 25934 layer_factory.hpp:77] Creating layer conv4_2
I0623 09:28:07.379101 25934 net.cpp:100] Creating Layer conv4_2
I0623 09:28:07.379109 25934 net.cpp:434] conv4_2 <- conv4_1
I0623 09:28:07.379123 25934 net.cpp:408] conv4_2 -> conv4_2
I0623 09:28:07.398481 25934 net.cpp:150] Setting up conv4_2
I0623 09:28:07.398519 25934 net.cpp:157] Top shape: 8 512 38 38 (5914624)
I0623 09:28:07.398524 25934 net.cpp:165] Memory required for data: 1603444800
I0623 09:28:07.398550 25934 layer_factory.hpp:77] Creating layer relu4_2
I0623 09:28:07.398571 25934 net.cpp:100] Creating Layer relu4_2
I0623 09:28:07.398581 25934 net.cpp:434] relu4_2 <- conv4_2
I0623 09:28:07.398597 25934 net.cpp:395] relu4_2 -> conv4_2 (in-place)
I0623 09:28:07.398983 25934 net.cpp:150] Setting up relu4_2
I0623 09:28:07.398996 25934 net.cpp:157] Top shape: 8 512 38 38 (5914624)
I0623 09:28:07.399003 25934 net.cpp:165] Memory required for data: 1627103296
I0623 09:28:07.399009 25934 layer_factory.hpp:77] Creating layer conv4_3
I0623 09:28:07.399032 25934 net.cpp:100] Creating Layer conv4_3
I0623 09:28:07.399039 25934 net.cpp:434] conv4_3 <- conv4_2
I0623 09:28:07.399052 25934 net.cpp:408] conv4_3 -> conv4_3
I0623 09:28:07.418583 25934 net.cpp:150] Setting up conv4_3
I0623 09:28:07.418625 25934 net.cpp:157] Top shape: 8 512 38 38 (5914624)
I0623 09:28:07.418630 25934 net.cpp:165] Memory required for data: 1650761792
I0623 09:28:07.418645 25934 layer_factory.hpp:77] Creating layer relu4_3
I0623 09:28:07.418659 25934 net.cpp:100] Creating Layer relu4_3
I0623 09:28:07.418669 25934 net.cpp:434] relu4_3 <- conv4_3
I0623 09:28:07.418682 25934 net.cpp:395] relu4_3 -> conv4_3 (in-place)
I0623 09:28:07.418893 25934 net.cpp:150] Setting up relu4_3
I0623 09:28:07.418906 25934 net.cpp:157] Top shape: 8 512 38 38 (5914624)
I0623 09:28:07.418912 25934 net.cpp:165] Memory required for data: 1674420288
I0623 09:28:07.418921 25934 layer_factory.hpp:77] Creating layer conv4_3_relu4_3_0_split
I0623 09:28:07.418933 25934 net.cpp:100] Creating Layer conv4_3_relu4_3_0_split
I0623 09:28:07.418941 25934 net.cpp:434] conv4_3_relu4_3_0_split <- conv4_3
I0623 09:28:07.418954 25934 net.cpp:408] conv4_3_relu4_3_0_split -> conv4_3_relu4_3_0_split_0
I0623 09:28:07.418969 25934 net.cpp:408] conv4_3_relu4_3_0_split -> conv4_3_relu4_3_0_split_1
I0623 09:28:07.419040 25934 net.cpp:150] Setting up conv4_3_relu4_3_0_split
I0623 09:28:07.419052 25934 net.cpp:157] Top shape: 8 512 38 38 (5914624)
I0623 09:28:07.419061 25934 net.cpp:157] Top shape: 8 512 38 38 (5914624)
I0623 09:28:07.419068 25934 net.cpp:165] Memory required for data: 1721737280
I0623 09:28:07.419075 25934 layer_factory.hpp:77] Creating layer pool4
I0623 09:28:07.419090 25934 net.cpp:100] Creating Layer pool4
I0623 09:28:07.419096 25934 net.cpp:434] pool4 <- conv4_3_relu4_3_0_split_0
I0623 09:28:07.419107 25934 net.cpp:408] pool4 -> pool4
I0623 09:28:07.419175 25934 net.cpp:150] Setting up pool4
I0623 09:28:07.419188 25934 net.cpp:157] Top shape: 8 512 19 19 (1478656)
I0623 09:28:07.419193 25934 net.cpp:165] Memory required for data: 1727651904
I0623 09:28:07.419201 25934 layer_factory.hpp:77] Creating layer conv5_1
I0623 09:28:07.419241 25934 net.cpp:100] Creating Layer conv5_1
I0623 09:28:07.419250 25934 net.cpp:434] conv5_1 <- pool4
I0623 09:28:07.419265 25934 net.cpp:408] conv5_1 -> conv5_1
I0623 09:28:07.438838 25934 net.cpp:150] Setting up conv5_1
I0623 09:28:07.438877 25934 net.cpp:157] Top shape: 8 512 19 19 (1478656)
I0623 09:28:07.438884 25934 net.cpp:165] Memory required for data: 1733566528
I0623 09:28:07.438900 25934 layer_factory.hpp:77] Creating layer relu5_1
I0623 09:28:07.438915 25934 net.cpp:100] Creating Layer relu5_1
I0623 09:28:07.438925 25934 net.cpp:434] relu5_1 <- conv5_1
I0623 09:28:07.438940 25934 net.cpp:395] relu5_1 -> conv5_1 (in-place)
I0623 09:28:07.439321 25934 net.cpp:150] Setting up relu5_1
I0623 09:28:07.439334 25934 net.cpp:157] Top shape: 8 512 19 19 (1478656)
I0623 09:28:07.439340 25934 net.cpp:165] Memory required for data: 1739481152
I0623 09:28:07.439348 25934 layer_factory.hpp:77] Creating layer conv5_2
I0623 09:28:07.439371 25934 net.cpp:100] Creating Layer conv5_2
I0623 09:28:07.439378 25934 net.cpp:434] conv5_2 <- conv5_1
I0623 09:28:07.439393 25934 net.cpp:408] conv5_2 -> conv5_2
I0623 09:28:07.458991 25934 net.cpp:150] Setting up conv5_2
I0623 09:28:07.459025 25934 net.cpp:157] Top shape: 8 512 19 19 (1478656)
I0623 09:28:07.459031 25934 net.cpp:165] Memory required for data: 1745395776
I0623 09:28:07.459046 25934 layer_factory.hpp:77] Creating layer relu5_2
I0623 09:28:07.459064 25934 net.cpp:100] Creating Layer relu5_2
I0623 09:28:07.459074 25934 net.cpp:434] relu5_2 <- conv5_2
I0623 09:28:07.459086 25934 net.cpp:395] relu5_2 -> conv5_2 (in-place)
I0623 09:28:07.459468 25934 net.cpp:150] Setting up relu5_2
I0623 09:28:07.459482 25934 net.cpp:157] Top shape: 8 512 19 19 (1478656)
I0623 09:28:07.459488 25934 net.cpp:165] Memory required for data: 1751310400
I0623 09:28:07.459496 25934 layer_factory.hpp:77] Creating layer conv5_3
I0623 09:28:07.459517 25934 net.cpp:100] Creating Layer conv5_3
I0623 09:28:07.459525 25934 net.cpp:434] conv5_3 <- conv5_2
I0623 09:28:07.459537 25934 net.cpp:408] conv5_3 -> conv5_3
I0623 09:28:07.479048 25934 net.cpp:150] Setting up conv5_3
I0623 09:28:07.479082 25934 net.cpp:157] Top shape: 8 512 19 19 (1478656)
I0623 09:28:07.479087 25934 net.cpp:165] Memory required for data: 1757225024
I0623 09:28:07.479102 25934 layer_factory.hpp:77] Creating layer relu5_3
I0623 09:28:07.479125 25934 net.cpp:100] Creating Layer relu5_3
I0623 09:28:07.479135 25934 net.cpp:434] relu5_3 <- conv5_3
I0623 09:28:07.479147 25934 net.cpp:395] relu5_3 -> conv5_3 (in-place)
I0623 09:28:07.479351 25934 net.cpp:150] Setting up relu5_3
I0623 09:28:07.479364 25934 net.cpp:157] Top shape: 8 512 19 19 (1478656)
I0623 09:28:07.479370 25934 net.cpp:165] Memory required for data: 1763139648
I0623 09:28:07.479378 25934 layer_factory.hpp:77] Creating layer pool5
I0623 09:28:07.479391 25934 net.cpp:100] Creating Layer pool5
I0623 09:28:07.479399 25934 net.cpp:434] pool5 <- conv5_3
I0623 09:28:07.479411 25934 net.cpp:408] pool5 -> pool5
I0623 09:28:07.479485 25934 net.cpp:150] Setting up pool5
I0623 09:28:07.479499 25934 net.cpp:157] Top shape: 8 512 19 19 (1478656)
I0623 09:28:07.479507 25934 net.cpp:165] Memory required for data: 1769054272
I0623 09:28:07.479514 25934 layer_factory.hpp:77] Creating layer fc6
I0623 09:28:07.479534 25934 net.cpp:100] Creating Layer fc6
I0623 09:28:07.479542 25934 net.cpp:434] fc6 <- pool5
I0623 09:28:07.479554 25934 net.cpp:408] fc6 -> fc6
I0623 09:28:07.516077 25934 net.cpp:150] Setting up fc6
I0623 09:28:07.516114 25934 net.cpp:157] Top shape: 8 1024 19 19 (2957312)
I0623 09:28:07.516120 25934 net.cpp:165] Memory required for data: 1780883520
I0623 09:28:07.516136 25934 layer_factory.hpp:77] Creating layer relu6
I0623 09:28:07.516154 25934 net.cpp:100] Creating Layer relu6
I0623 09:28:07.516162 25934 net.cpp:434] relu6 <- fc6
I0623 09:28:07.516176 25934 net.cpp:395] relu6 -> fc6 (in-place)
I0623 09:28:07.516760 25934 net.cpp:150] Setting up relu6
I0623 09:28:07.516777 25934 net.cpp:157] Top shape: 8 1024 19 19 (2957312)
I0623 09:28:07.516785 25934 net.cpp:165] Memory required for data: 1792712768
I0623 09:28:07.516806 25934 layer_factory.hpp:77] Creating layer fc7
I0623 09:28:07.516831 25934 net.cpp:100] Creating Layer fc7
I0623 09:28:07.516839 25934 net.cpp:434] fc7 <- fc6
I0623 09:28:07.516851 25934 net.cpp:408] fc7 -> fc7
I0623 09:28:07.526193 25934 net.cpp:150] Setting up fc7
I0623 09:28:07.526227 25934 net.cpp:157] Top shape: 8 1024 19 19 (2957312)
I0623 09:28:07.526233 25934 net.cpp:165] Memory required for data: 1804542016
I0623 09:28:07.526248 25934 layer_factory.hpp:77] Creating layer relu7
I0623 09:28:07.526262 25934 net.cpp:100] Creating Layer relu7
I0623 09:28:07.526271 25934 net.cpp:434] relu7 <- fc7
I0623 09:28:07.526283 25934 net.cpp:395] relu7 -> fc7 (in-place)
I0623 09:28:07.526482 25934 net.cpp:150] Setting up relu7
I0623 09:28:07.526499 25934 net.cpp:157] Top shape: 8 1024 19 19 (2957312)
I0623 09:28:07.526507 25934 net.cpp:165] Memory required for data: 1816371264
I0623 09:28:07.526515 25934 layer_factory.hpp:77] Creating layer fc7_relu7_0_split
I0623 09:28:07.526530 25934 net.cpp:100] Creating Layer fc7_relu7_0_split
I0623 09:28:07.526537 25934 net.cpp:434] fc7_relu7_0_split <- fc7
I0623 09:28:07.526552 25934 net.cpp:408] fc7_relu7_0_split -> fc7_relu7_0_split_0
I0623 09:28:07.526567 25934 net.cpp:408] fc7_relu7_0_split -> fc7_relu7_0_split_1
I0623 09:28:07.526588 25934 net.cpp:408] fc7_relu7_0_split -> fc7_relu7_0_split_2
I0623 09:28:07.526602 25934 net.cpp:408] fc7_relu7_0_split -> fc7_relu7_0_split_3
I0623 09:28:07.526711 25934 net.cpp:150] Setting up fc7_relu7_0_split
I0623 09:28:07.526726 25934 net.cpp:157] Top shape: 8 1024 19 19 (2957312)
I0623 09:28:07.526737 25934 net.cpp:157] Top shape: 8 1024 19 19 (2957312)
I0623 09:28:07.526746 25934 net.cpp:157] Top shape: 8 1024 19 19 (2957312)
I0623 09:28:07.526757 25934 net.cpp:157] Top shape: 8 1024 19 19 (2957312)
I0623 09:28:07.526763 25934 net.cpp:165] Memory required for data: 1863688256
I0623 09:28:07.526770 25934 layer_factory.hpp:77] Creating layer conv6_1
I0623 09:28:07.526790 25934 net.cpp:100] Creating Layer conv6_1
I0623 09:28:07.526798 25934 net.cpp:434] conv6_1 <- fc7_relu7_0_split_0
I0623 09:28:07.526813 25934 net.cpp:408] conv6_1 -> conv6_1
I0623 09:28:07.530431 25934 net.cpp:150] Setting up conv6_1
I0623 09:28:07.530448 25934 net.cpp:157] Top shape: 8 256 19 19 (739328)
I0623 09:28:07.530454 25934 net.cpp:165] Memory required for data: 1866645568
I0623 09:28:07.530467 25934 layer_factory.hpp:77] Creating layer conv6_1_relu
I0623 09:28:07.530479 25934 net.cpp:100] Creating Layer conv6_1_relu
I0623 09:28:07.530488 25934 net.cpp:434] conv6_1_relu <- conv6_1
I0623 09:28:07.530503 25934 net.cpp:395] conv6_1_relu -> conv6_1 (in-place)
I0623 09:28:07.530701 25934 net.cpp:150] Setting up conv6_1_relu
I0623 09:28:07.530714 25934 net.cpp:157] Top shape: 8 256 19 19 (739328)
I0623 09:28:07.530720 25934 net.cpp:165] Memory required for data: 1869602880
I0623 09:28:07.530730 25934 layer_factory.hpp:77] Creating layer conv6_2
I0623 09:28:07.530747 25934 net.cpp:100] Creating Layer conv6_2
I0623 09:28:07.530755 25934 net.cpp:434] conv6_2 <- conv6_1
I0623 09:28:07.530767 25934 net.cpp:408] conv6_2 -> conv6_2
I0623 09:28:07.541138 25934 net.cpp:150] Setting up conv6_2
I0623 09:28:07.541169 25934 net.cpp:157] Top shape: 8 512 10 10 (409600)
I0623 09:28:07.541175 25934 net.cpp:165] Memory required for data: 1871241280
I0623 09:28:07.541201 25934 layer_factory.hpp:77] Creating layer conv6_2_relu
I0623 09:28:07.541219 25934 net.cpp:100] Creating Layer conv6_2_relu
I0623 09:28:07.541229 25934 net.cpp:434] conv6_2_relu <- conv6_2
I0623 09:28:07.541242 25934 net.cpp:395] conv6_2_relu -> conv6_2 (in-place)
I0623 09:28:07.541625 25934 net.cpp:150] Setting up conv6_2_relu
I0623 09:28:07.541638 25934 net.cpp:157] Top shape: 8 512 10 10 (409600)
I0623 09:28:07.541645 25934 net.cpp:165] Memory required for data: 1872879680
I0623 09:28:07.541651 25934 layer_factory.hpp:77] Creating layer conv6_2_conv6_2_relu_0_split
I0623 09:28:07.541669 25934 net.cpp:100] Creating Layer conv6_2_conv6_2_relu_0_split
I0623 09:28:07.541676 25934 net.cpp:434] conv6_2_conv6_2_relu_0_split <- conv6_2
I0623 09:28:07.541707 25934 net.cpp:408] conv6_2_conv6_2_relu_0_split -> conv6_2_conv6_2_relu_0_split_0
I0623 09:28:07.541721 25934 net.cpp:408] conv6_2_conv6_2_relu_0_split -> conv6_2_conv6_2_relu_0_split_1
I0623 09:28:07.541735 25934 net.cpp:408] conv6_2_conv6_2_relu_0_split -> conv6_2_conv6_2_relu_0_split_2
I0623 09:28:07.541749 25934 net.cpp:408] conv6_2_conv6_2_relu_0_split -> conv6_2_conv6_2_relu_0_split_3
I0623 09:28:07.541860 25934 net.cpp:150] Setting up conv6_2_conv6_2_relu_0_split
I0623 09:28:07.541875 25934 net.cpp:157] Top shape: 8 512 10 10 (409600)
I0623 09:28:07.541885 25934 net.cpp:157] Top shape: 8 512 10 10 (409600)
I0623 09:28:07.541895 25934 net.cpp:157] Top shape: 8 512 10 10 (409600)
I0623 09:28:07.541905 25934 net.cpp:157] Top shape: 8 512 10 10 (409600)
I0623 09:28:07.541913 25934 net.cpp:165] Memory required for data: 1879433280
I0623 09:28:07.541919 25934 layer_factory.hpp:77] Creating layer conv7_1
I0623 09:28:07.541939 25934 net.cpp:100] Creating Layer conv7_1
I0623 09:28:07.541946 25934 net.cpp:434] conv7_1 <- conv6_2_conv6_2_relu_0_split_0
I0623 09:28:07.541960 25934 net.cpp:408] conv7_1 -> conv7_1
I0623 09:28:07.544139 25934 net.cpp:150] Setting up conv7_1
I0623 09:28:07.544155 25934 net.cpp:157] Top shape: 8 128 10 10 (102400)
I0623 09:28:07.544162 25934 net.cpp:165] Memory required for data: 1879842880
I0623 09:28:07.544173 25934 layer_factory.hpp:77] Creating layer conv7_1_relu
I0623 09:28:07.544185 25934 net.cpp:100] Creating Layer conv7_1_relu
I0623 09:28:07.544193 25934 net.cpp:434] conv7_1_relu <- conv7_1
I0623 09:28:07.544209 25934 net.cpp:395] conv7_1_relu -> conv7_1 (in-place)
I0623 09:28:07.544404 25934 net.cpp:150] Setting up conv7_1_relu
I0623 09:28:07.544417 25934 net.cpp:157] Top shape: 8 128 10 10 (102400)
I0623 09:28:07.544423 25934 net.cpp:165] Memory required for data: 1880252480
I0623 09:28:07.544431 25934 layer_factory.hpp:77] Creating layer conv7_2
I0623 09:28:07.544450 25934 net.cpp:100] Creating Layer conv7_2
I0623 09:28:07.544457 25934 net.cpp:434] conv7_2 <- conv7_1
I0623 09:28:07.544471 25934 net.cpp:408] conv7_2 -> conv7_2
I0623 09:28:07.548148 25934 net.cpp:150] Setting up conv7_2
I0623 09:28:07.548167 25934 net.cpp:157] Top shape: 8 256 5 5 (51200)
I0623 09:28:07.548174 25934 net.cpp:165] Memory required for data: 1880457280
I0623 09:28:07.548187 25934 layer_factory.hpp:77] Creating layer conv7_2_relu
I0623 09:28:07.548199 25934 net.cpp:100] Creating Layer conv7_2_relu
I0623 09:28:07.548208 25934 net.cpp:434] conv7_2_relu <- conv7_2
I0623 09:28:07.548223 25934 net.cpp:395] conv7_2_relu -> conv7_2 (in-place)
I0623 09:28:07.548424 25934 net.cpp:150] Setting up conv7_2_relu
I0623 09:28:07.548436 25934 net.cpp:157] Top shape: 8 256 5 5 (51200)
I0623 09:28:07.548442 25934 net.cpp:165] Memory required for data: 1880662080
I0623 09:28:07.548450 25934 layer_factory.hpp:77] Creating layer conv7_2_conv7_2_relu_0_split
I0623 09:28:07.548466 25934 net.cpp:100] Creating Layer conv7_2_conv7_2_relu_0_split
I0623 09:28:07.548475 25934 net.cpp:434] conv7_2_conv7_2_relu_0_split <- conv7_2
I0623 09:28:07.548485 25934 net.cpp:408] conv7_2_conv7_2_relu_0_split -> conv7_2_conv7_2_relu_0_split_0
I0623 09:28:07.548501 25934 net.cpp:408] conv7_2_conv7_2_relu_0_split -> conv7_2_conv7_2_relu_0_split_1
I0623 09:28:07.548516 25934 net.cpp:408] conv7_2_conv7_2_relu_0_split -> conv7_2_conv7_2_relu_0_split_2
I0623 09:28:07.548528 25934 net.cpp:408] conv7_2_conv7_2_relu_0_split -> conv7_2_conv7_2_relu_0_split_3
I0623 09:28:07.548650 25934 net.cpp:150] Setting up conv7_2_conv7_2_relu_0_split
I0623 09:28:07.548661 25934 net.cpp:157] Top shape: 8 256 5 5 (51200)
I0623 09:28:07.548669 25934 net.cpp:157] Top shape: 8 256 5 5 (51200)
I0623 09:28:07.548679 25934 net.cpp:157] Top shape: 8 256 5 5 (51200)
I0623 09:28:07.548689 25934 net.cpp:157] Top shape: 8 256 5 5 (51200)
I0623 09:28:07.548697 25934 net.cpp:165] Memory required for data: 1881481280
I0623 09:28:07.548704 25934 layer_factory.hpp:77] Creating layer conv8_1
I0623 09:28:07.548725 25934 net.cpp:100] Creating Layer conv8_1
I0623 09:28:07.548744 25934 net.cpp:434] conv8_1 <- conv7_2_conv7_2_relu_0_split_0
I0623 09:28:07.548760 25934 net.cpp:408] conv8_1 -> conv8_1
I0623 09:28:07.550331 25934 net.cpp:150] Setting up conv8_1
I0623 09:28:07.550348 25934 net.cpp:157] Top shape: 8 128 5 5 (25600)
I0623 09:28:07.550354 25934 net.cpp:165] Memory required for data: 1881583680
I0623 09:28:07.550370 25934 layer_factory.hpp:77] Creating layer conv8_1_relu
I0623 09:28:07.550381 25934 net.cpp:100] Creating Layer conv8_1_relu
I0623 09:28:07.550390 25934 net.cpp:434] conv8_1_relu <- conv8_1
I0623 09:28:07.550402 25934 net.cpp:395] conv8_1_relu -> conv8_1 (in-place)
I0623 09:28:07.550786 25934 net.cpp:150] Setting up conv8_1_relu
I0623 09:28:07.550799 25934 net.cpp:157] Top shape: 8 128 5 5 (25600)
I0623 09:28:07.550806 25934 net.cpp:165] Memory required for data: 1881686080
I0623 09:28:07.550812 25934 layer_factory.hpp:77] Creating layer conv8_2
I0623 09:28:07.550833 25934 net.cpp:100] Creating Layer conv8_2
I0623 09:28:07.550842 25934 net.cpp:434] conv8_2 <- conv8_1
I0623 09:28:07.550853 25934 net.cpp:408] conv8_2 -> conv8_2
I0623 09:28:07.554558 25934 net.cpp:150] Setting up conv8_2
I0623 09:28:07.554579 25934 net.cpp:157] Top shape: 8 256 3 3 (18432)
I0623 09:28:07.554584 25934 net.cpp:165] Memory required for data: 1881759808
I0623 09:28:07.554599 25934 layer_factory.hpp:77] Creating layer conv8_2_relu
I0623 09:28:07.554610 25934 net.cpp:100] Creating Layer conv8_2_relu
I0623 09:28:07.554620 25934 net.cpp:434] conv8_2_relu <- conv8_2
I0623 09:28:07.554635 25934 net.cpp:395] conv8_2_relu -> conv8_2 (in-place)
I0623 09:28:07.554833 25934 net.cpp:150] Setting up conv8_2_relu
I0623 09:28:07.554847 25934 net.cpp:157] Top shape: 8 256 3 3 (18432)
I0623 09:28:07.554853 25934 net.cpp:165] Memory required for data: 1881833536
I0623 09:28:07.554862 25934 layer_factory.hpp:77] Creating layer conv8_2_conv8_2_relu_0_split
I0623 09:28:07.554874 25934 net.cpp:100] Creating Layer conv8_2_conv8_2_relu_0_split
I0623 09:28:07.554883 25934 net.cpp:434] conv8_2_conv8_2_relu_0_split <- conv8_2
I0623 09:28:07.554896 25934 net.cpp:408] conv8_2_conv8_2_relu_0_split -> conv8_2_conv8_2_relu_0_split_0
I0623 09:28:07.554910 25934 net.cpp:408] conv8_2_conv8_2_relu_0_split -> conv8_2_conv8_2_relu_0_split_1
I0623 09:28:07.554926 25934 net.cpp:408] conv8_2_conv8_2_relu_0_split -> conv8_2_conv8_2_relu_0_split_2
I0623 09:28:07.554939 25934 net.cpp:408] conv8_2_conv8_2_relu_0_split -> conv8_2_conv8_2_relu_0_split_3
I0623 09:28:07.555057 25934 net.cpp:150] Setting up conv8_2_conv8_2_relu_0_split
I0623 09:28:07.555068 25934 net.cpp:157] Top shape: 8 256 3 3 (18432)
I0623 09:28:07.555076 25934 net.cpp:157] Top shape: 8 256 3 3 (18432)
I0623 09:28:07.555088 25934 net.cpp:157] Top shape: 8 256 3 3 (18432)
I0623 09:28:07.555096 25934 net.cpp:157] Top shape: 8 256 3 3 (18432)
I0623 09:28:07.555104 25934 net.cpp:165] Memory required for data: 1882128448
I0623 09:28:07.555110 25934 layer_factory.hpp:77] Creating layer conv9_1
I0623 09:28:07.555130 25934 net.cpp:100] Creating Layer conv9_1
I0623 09:28:07.555136 25934 net.cpp:434] conv9_1 <- conv8_2_conv8_2_relu_0_split_0
I0623 09:28:07.555150 25934 net.cpp:408] conv9_1 -> conv9_1
I0623 09:28:07.556733 25934 net.cpp:150] Setting up conv9_1
I0623 09:28:07.556748 25934 net.cpp:157] Top shape: 8 128 3 3 (9216)
I0623 09:28:07.556754 25934 net.cpp:165] Memory required for data: 1882165312
I0623 09:28:07.556766 25934 layer_factory.hpp:77] Creating layer conv9_1_relu
I0623 09:28:07.556777 25934 net.cpp:100] Creating Layer conv9_1_relu
I0623 09:28:07.556787 25934 net.cpp:434] conv9_1_relu <- conv9_1
I0623 09:28:07.556800 25934 net.cpp:395] conv9_1_relu -> conv9_1 (in-place)
I0623 09:28:07.557003 25934 net.cpp:150] Setting up conv9_1_relu
I0623 09:28:07.557016 25934 net.cpp:157] Top shape: 8 128 3 3 (9216)
I0623 09:28:07.557024 25934 net.cpp:165] Memory required for data: 1882202176
I0623 09:28:07.557032 25934 layer_factory.hpp:77] Creating layer conv9_2
I0623 09:28:07.557052 25934 net.cpp:100] Creating Layer conv9_2
I0623 09:28:07.557071 25934 net.cpp:434] conv9_2 <- conv9_1
I0623 09:28:07.557086 25934 net.cpp:408] conv9_2 -> conv9_2
I0623 09:28:07.560940 25934 net.cpp:150] Setting up conv9_2
I0623 09:28:07.560979 25934 net.cpp:157] Top shape: 8 256 1 1 (2048)
I0623 09:28:07.560984 25934 net.cpp:165] Memory required for data: 1882210368
I0623 09:28:07.561002 25934 layer_factory.hpp:77] Creating layer conv9_2_relu
I0623 09:28:07.561015 25934 net.cpp:100] Creating Layer conv9_2_relu
I0623 09:28:07.561027 25934 net.cpp:434] conv9_2_relu <- conv9_2
I0623 09:28:07.561043 25934 net.cpp:395] conv9_2_relu -> conv9_2 (in-place)
I0623 09:28:07.561442 25934 net.cpp:150] Setting up conv9_2_relu
I0623 09:28:07.561456 25934 net.cpp:157] Top shape: 8 256 1 1 (2048)
I0623 09:28:07.561462 25934 net.cpp:165] Memory required for data: 1882218560
I0623 09:28:07.561470 25934 layer_factory.hpp:77] Creating layer conv9_2_conv9_2_relu_0_split
I0623 09:28:07.561486 25934 net.cpp:100] Creating Layer conv9_2_conv9_2_relu_0_split
I0623 09:28:07.561493 25934 net.cpp:434] conv9_2_conv9_2_relu_0_split <- conv9_2
I0623 09:28:07.561508 25934 net.cpp:408] conv9_2_conv9_2_relu_0_split -> conv9_2_conv9_2_relu_0_split_0
I0623 09:28:07.561523 25934 net.cpp:408] conv9_2_conv9_2_relu_0_split -> conv9_2_conv9_2_relu_0_split_1
I0623 09:28:07.561537 25934 net.cpp:408] conv9_2_conv9_2_relu_0_split -> conv9_2_conv9_2_relu_0_split_2
I0623 09:28:07.561681 25934 net.cpp:150] Setting up conv9_2_conv9_2_relu_0_split
I0623 09:28:07.561695 25934 net.cpp:157] Top shape: 8 256 1 1 (2048)
I0623 09:28:07.561702 25934 net.cpp:157] Top shape: 8 256 1 1 (2048)
I0623 09:28:07.561708 25934 net.cpp:157] Top shape: 8 256 1 1 (2048)
I0623 09:28:07.561712 25934 net.cpp:165] Memory required for data: 1882243136
I0623 09:28:07.561718 25934 layer_factory.hpp:77] Creating layer conv4_3_norm
I0623 09:28:07.561733 25934 net.cpp:100] Creating Layer conv4_3_norm
I0623 09:28:07.561741 25934 net.cpp:434] conv4_3_norm <- conv4_3_relu4_3_0_split_1
I0623 09:28:07.561751 25934 net.cpp:408] conv4_3_norm -> conv4_3_norm
I0623 09:28:07.562196 25934 net.cpp:150] Setting up conv4_3_norm
I0623 09:28:07.562211 25934 net.cpp:157] Top shape: 8 512 38 38 (5914624)
I0623 09:28:07.562217 25934 net.cpp:165] Memory required for data: 1905901632
I0623 09:28:07.562225 25934 layer_factory.hpp:77] Creating layer conv4_3_norm_conv4_3_norm_0_split
I0623 09:28:07.562234 25934 net.cpp:100] Creating Layer conv4_3_norm_conv4_3_norm_0_split
I0623 09:28:07.562240 25934 net.cpp:434] conv4_3_norm_conv4_3_norm_0_split <- conv4_3_norm
I0623 09:28:07.562249 25934 net.cpp:408] conv4_3_norm_conv4_3_norm_0_split -> conv4_3_norm_conv4_3_norm_0_split_0
I0623 09:28:07.562263 25934 net.cpp:408] conv4_3_norm_conv4_3_norm_0_split -> conv4_3_norm_conv4_3_norm_0_split_1
I0623 09:28:07.562276 25934 net.cpp:408] conv4_3_norm_conv4_3_norm_0_split -> conv4_3_norm_conv4_3_norm_0_split_2
I0623 09:28:07.562399 25934 net.cpp:150] Setting up conv4_3_norm_conv4_3_norm_0_split
I0623 09:28:07.562410 25934 net.cpp:157] Top shape: 8 512 38 38 (5914624)
I0623 09:28:07.562415 25934 net.cpp:157] Top shape: 8 512 38 38 (5914624)
I0623 09:28:07.562419 25934 net.cpp:157] Top shape: 8 512 38 38 (5914624)
I0623 09:28:07.562422 25934 net.cpp:165] Memory required for data: 1976877120
I0623 09:28:07.562425 25934 layer_factory.hpp:77] Creating layer conv4_3_norm_mbox_loc
I0623 09:28:07.562438 25934 net.cpp:100] Creating Layer conv4_3_norm_mbox_loc
I0623 09:28:07.562441 25934 net.cpp:434] conv4_3_norm_mbox_loc <- conv4_3_norm_conv4_3_norm_0_split_0
I0623 09:28:07.562449 25934 net.cpp:408] conv4_3_norm_mbox_loc -> conv4_3_norm_mbox_loc
I0623 09:28:07.564738 25934 net.cpp:150] Setting up conv4_3_norm_mbox_loc
I0623 09:28:07.564752 25934 net.cpp:157] Top shape: 8 16 38 38 (184832)
I0623 09:28:07.564756 25934 net.cpp:165] Memory required for data: 1977616448
I0623 09:28:07.564764 25934 layer_factory.hpp:77] Creating layer conv4_3_norm_mbox_loc_perm
I0623 09:28:07.564774 25934 net.cpp:100] Creating Layer conv4_3_norm_mbox_loc_perm
I0623 09:28:07.564779 25934 net.cpp:434] conv4_3_norm_mbox_loc_perm <- conv4_3_norm_mbox_loc
I0623 09:28:07.564801 25934 net.cpp:408] conv4_3_norm_mbox_loc_perm -> conv4_3_norm_mbox_loc_perm
I0623 09:28:07.564976 25934 net.cpp:150] Setting up conv4_3_norm_mbox_loc_perm
I0623 09:28:07.564986 25934 net.cpp:157] Top shape: 8 38 38 16 (184832)
I0623 09:28:07.564990 25934 net.cpp:165] Memory required for data: 1978355776
I0623 09:28:07.564993 25934 layer_factory.hpp:77] Creating layer conv4_3_norm_mbox_loc_flat
I0623 09:28:07.565004 25934 net.cpp:100] Creating Layer conv4_3_norm_mbox_loc_flat
I0623 09:28:07.565009 25934 net.cpp:434] conv4_3_norm_mbox_loc_flat <- conv4_3_norm_mbox_loc_perm
I0623 09:28:07.565016 25934 net.cpp:408] conv4_3_norm_mbox_loc_flat -> conv4_3_norm_mbox_loc_flat
I0623 09:28:07.565069 25934 net.cpp:150] Setting up conv4_3_norm_mbox_loc_flat
I0623 09:28:07.565079 25934 net.cpp:157] Top shape: 8 23104 (184832)
I0623 09:28:07.565083 25934 net.cpp:165] Memory required for data: 1979095104
I0623 09:28:07.565088 25934 layer_factory.hpp:77] Creating layer conv4_3_norm_mbox_conf
I0623 09:28:07.565109 25934 net.cpp:100] Creating Layer conv4_3_norm_mbox_conf
I0623 09:28:07.565114 25934 net.cpp:434] conv4_3_norm_mbox_conf <- conv4_3_norm_conv4_3_norm_0_split_1
I0623 09:28:07.565120 25934 net.cpp:408] conv4_3_norm_mbox_conf -> conv4_3_norm_mbox_conf
I0623 09:28:07.569810 25934 net.cpp:150] Setting up conv4_3_norm_mbox_conf
I0623 09:28:07.569842 25934 net.cpp:157] Top shape: 8 84 38 38 (970368)
I0623 09:28:07.569846 25934 net.cpp:165] Memory required for data: 1982976576
I0623 09:28:07.569857 25934 layer_factory.hpp:77] Creating layer conv4_3_norm_mbox_conf_perm
I0623 09:28:07.569869 25934 net.cpp:100] Creating Layer conv4_3_norm_mbox_conf_perm
I0623 09:28:07.569875 25934 net.cpp:434] conv4_3_norm_mbox_conf_perm <- conv4_3_norm_mbox_conf
I0623 09:28:07.569886 25934 net.cpp:408] conv4_3_norm_mbox_conf_perm -> conv4_3_norm_mbox_conf_perm
I0623 09:28:07.570065 25934 net.cpp:150] Setting up conv4_3_norm_mbox_conf_perm
I0623 09:28:07.570075 25934 net.cpp:157] Top shape: 8 38 38 84 (970368)
I0623 09:28:07.570078 25934 net.cpp:165] Memory required for data: 1986858048
I0623 09:28:07.570081 25934 layer_factory.hpp:77] Creating layer conv4_3_norm_mbox_conf_flat
I0623 09:28:07.570091 25934 net.cpp:100] Creating Layer conv4_3_norm_mbox_conf_flat
I0623 09:28:07.570096 25934 net.cpp:434] conv4_3_norm_mbox_conf_flat <- conv4_3_norm_mbox_conf_perm
I0623 09:28:07.570103 25934 net.cpp:408] conv4_3_norm_mbox_conf_flat -> conv4_3_norm_mbox_conf_flat
I0623 09:28:07.570145 25934 net.cpp:150] Setting up conv4_3_norm_mbox_conf_flat
I0623 09:28:07.570153 25934 net.cpp:157] Top shape: 8 121296 (970368)
I0623 09:28:07.570158 25934 net.cpp:165] Memory required for data: 1990739520
I0623 09:28:07.570160 25934 layer_factory.hpp:77] Creating layer conv4_3_norm_mbox_priorbox
I0623 09:28:07.570173 25934 net.cpp:100] Creating Layer conv4_3_norm_mbox_priorbox
I0623 09:28:07.570178 25934 net.cpp:434] conv4_3_norm_mbox_priorbox <- conv4_3_norm_conv4_3_norm_0_split_2
I0623 09:28:07.570183 25934 net.cpp:434] conv4_3_norm_mbox_priorbox <- data_data_0_split_1
I0623 09:28:07.570192 25934 net.cpp:408] conv4_3_norm_mbox_priorbox -> conv4_3_norm_mbox_priorbox
I0623 09:28:07.570240 25934 net.cpp:150] Setting up conv4_3_norm_mbox_priorbox
I0623 09:28:07.570248 25934 net.cpp:157] Top shape: 1 2 23104 (46208)
I0623 09:28:07.570252 25934 net.cpp:165] Memory required for data: 1990924352
I0623 09:28:07.570256 25934 layer_factory.hpp:77] Creating layer fc7_mbox_loc
I0623 09:28:07.570271 25934 net.cpp:100] Creating Layer fc7_mbox_loc
I0623 09:28:07.570277 25934 net.cpp:434] fc7_mbox_loc <- fc7_relu7_0_split_1
I0623 09:28:07.570286 25934 net.cpp:408] fc7_mbox_loc -> fc7_mbox_loc
I0623 09:28:07.573681 25934 net.cpp:150] Setting up fc7_mbox_loc
I0623 09:28:07.573696 25934 net.cpp:157] Top shape: 8 24 19 19 (69312)
I0623 09:28:07.573700 25934 net.cpp:165] Memory required for data: 1991201600
I0623 09:28:07.573709 25934 layer_factory.hpp:77] Creating layer fc7_mbox_loc_perm
I0623 09:28:07.573715 25934 net.cpp:100] Creating Layer fc7_mbox_loc_perm
I0623 09:28:07.573735 25934 net.cpp:434] fc7_mbox_loc_perm <- fc7_mbox_loc
I0623 09:28:07.573745 25934 net.cpp:408] fc7_mbox_loc_perm -> fc7_mbox_loc_perm
I0623 09:28:07.573920 25934 net.cpp:150] Setting up fc7_mbox_loc_perm
I0623 09:28:07.573930 25934 net.cpp:157] Top shape: 8 19 19 24 (69312)
I0623 09:28:07.573935 25934 net.cpp:165] Memory required for data: 1991478848
I0623 09:28:07.573938 25934 layer_factory.hpp:77] Creating layer fc7_mbox_loc_flat
I0623 09:28:07.573946 25934 net.cpp:100] Creating Layer fc7_mbox_loc_flat
I0623 09:28:07.573951 25934 net.cpp:434] fc7_mbox_loc_flat <- fc7_mbox_loc_perm
I0623 09:28:07.573957 25934 net.cpp:408] fc7_mbox_loc_flat -> fc7_mbox_loc_flat
I0623 09:28:07.573997 25934 net.cpp:150] Setting up fc7_mbox_loc_flat
I0623 09:28:07.574007 25934 net.cpp:157] Top shape: 8 8664 (69312)
I0623 09:28:07.574010 25934 net.cpp:165] Memory required for data: 1991756096
I0623 09:28:07.574014 25934 layer_factory.hpp:77] Creating layer fc7_mbox_conf
I0623 09:28:07.574028 25934 net.cpp:100] Creating Layer fc7_mbox_conf
I0623 09:28:07.574033 25934 net.cpp:434] fc7_mbox_conf <- fc7_relu7_0_split_2
I0623 09:28:07.574038 25934 net.cpp:408] fc7_mbox_conf -> fc7_mbox_conf
I0623 09:28:07.584547 25934 net.cpp:150] Setting up fc7_mbox_conf
I0623 09:28:07.584581 25934 net.cpp:157] Top shape: 8 126 19 19 (363888)
I0623 09:28:07.584585 25934 net.cpp:165] Memory required for data: 1993211648
I0623 09:28:07.584596 25934 layer_factory.hpp:77] Creating layer fc7_mbox_conf_perm
I0623 09:28:07.584611 25934 net.cpp:100] Creating Layer fc7_mbox_conf_perm
I0623 09:28:07.584619 25934 net.cpp:434] fc7_mbox_conf_perm <- fc7_mbox_conf
I0623 09:28:07.584628 25934 net.cpp:408] fc7_mbox_conf_perm -> fc7_mbox_conf_perm
I0623 09:28:07.584811 25934 net.cpp:150] Setting up fc7_mbox_conf_perm
I0623 09:28:07.584820 25934 net.cpp:157] Top shape: 8 19 19 126 (363888)
I0623 09:28:07.584825 25934 net.cpp:165] Memory required for data: 1994667200
I0623 09:28:07.584828 25934 layer_factory.hpp:77] Creating layer fc7_mbox_conf_flat
I0623 09:28:07.584836 25934 net.cpp:100] Creating Layer fc7_mbox_conf_flat
I0623 09:28:07.584841 25934 net.cpp:434] fc7_mbox_conf_flat <- fc7_mbox_conf_perm
I0623 09:28:07.584847 25934 net.cpp:408] fc7_mbox_conf_flat -> fc7_mbox_conf_flat
I0623 09:28:07.584889 25934 net.cpp:150] Setting up fc7_mbox_conf_flat
I0623 09:28:07.584898 25934 net.cpp:157] Top shape: 8 45486 (363888)
I0623 09:28:07.584902 25934 net.cpp:165] Memory required for data: 1996122752
I0623 09:28:07.584905 25934 layer_factory.hpp:77] Creating layer fc7_mbox_priorbox
I0623 09:28:07.584913 25934 net.cpp:100] Creating Layer fc7_mbox_priorbox
I0623 09:28:07.584918 25934 net.cpp:434] fc7_mbox_priorbox <- fc7_relu7_0_split_3
I0623 09:28:07.584924 25934 net.cpp:434] fc7_mbox_priorbox <- data_data_0_split_2
I0623 09:28:07.584930 25934 net.cpp:408] fc7_mbox_priorbox -> fc7_mbox_priorbox
I0623 09:28:07.584975 25934 net.cpp:150] Setting up fc7_mbox_priorbox
I0623 09:28:07.584985 25934 net.cpp:157] Top shape: 1 2 8664 (17328)
I0623 09:28:07.584988 25934 net.cpp:165] Memory required for data: 1996192064
I0623 09:28:07.584992 25934 layer_factory.hpp:77] Creating layer conv6_2_mbox_loc
I0623 09:28:07.585005 25934 net.cpp:100] Creating Layer conv6_2_mbox_loc
I0623 09:28:07.585011 25934 net.cpp:434] conv6_2_mbox_loc <- conv6_2_conv6_2_relu_0_split_1
I0623 09:28:07.585021 25934 net.cpp:408] conv6_2_mbox_loc -> conv6_2_mbox_loc
I0623 09:28:07.587836 25934 net.cpp:150] Setting up conv6_2_mbox_loc
I0623 09:28:07.587853 25934 net.cpp:157] Top shape: 8 24 10 10 (19200)
I0623 09:28:07.587858 25934 net.cpp:165] Memory required for data: 1996268864
I0623 09:28:07.587867 25934 layer_factory.hpp:77] Creating layer conv6_2_mbox_loc_perm
I0623 09:28:07.587874 25934 net.cpp:100] Creating Layer conv6_2_mbox_loc_perm
I0623 09:28:07.587880 25934 net.cpp:434] conv6_2_mbox_loc_perm <- conv6_2_mbox_loc
I0623 09:28:07.587888 25934 net.cpp:408] conv6_2_mbox_loc_perm -> conv6_2_mbox_loc_perm
I0623 09:28:07.588073 25934 net.cpp:150] Setting up conv6_2_mbox_loc_perm
I0623 09:28:07.588098 25934 net.cpp:157] Top shape: 8 10 10 24 (19200)
I0623 09:28:07.588101 25934 net.cpp:165] Memory required for data: 1996345664
I0623 09:28:07.588105 25934 layer_factory.hpp:77] Creating layer conv6_2_mbox_loc_flat
I0623 09:28:07.588111 25934 net.cpp:100] Creating Layer conv6_2_mbox_loc_flat
I0623 09:28:07.588116 25934 net.cpp:434] conv6_2_mbox_loc_flat <- conv6_2_mbox_loc_perm
I0623 09:28:07.588124 25934 net.cpp:408] conv6_2_mbox_loc_flat -> conv6_2_mbox_loc_flat
I0623 09:28:07.588165 25934 net.cpp:150] Setting up conv6_2_mbox_loc_flat
I0623 09:28:07.588173 25934 net.cpp:157] Top shape: 8 2400 (19200)
I0623 09:28:07.588177 25934 net.cpp:165] Memory required for data: 1996422464
I0623 09:28:07.588181 25934 layer_factory.hpp:77] Creating layer conv6_2_mbox_conf
I0623 09:28:07.588194 25934 net.cpp:100] Creating Layer conv6_2_mbox_conf
I0623 09:28:07.588199 25934 net.cpp:434] conv6_2_mbox_conf <- conv6_2_conv6_2_relu_0_split_2
I0623 09:28:07.588207 25934 net.cpp:408] conv6_2_mbox_conf -> conv6_2_mbox_conf
I0623 09:28:07.594341 25934 net.cpp:150] Setting up conv6_2_mbox_conf
I0623 09:28:07.594362 25934 net.cpp:157] Top shape: 8 126 10 10 (100800)
I0623 09:28:07.594365 25934 net.cpp:165] Memory required for data: 1996825664
I0623 09:28:07.594373 25934 layer_factory.hpp:77] Creating layer conv6_2_mbox_conf_perm
I0623 09:28:07.594384 25934 net.cpp:100] Creating Layer conv6_2_mbox_conf_perm
I0623 09:28:07.594391 25934 net.cpp:434] conv6_2_mbox_conf_perm <- conv6_2_mbox_conf
I0623 09:28:07.594399 25934 net.cpp:408] conv6_2_mbox_conf_perm -> conv6_2_mbox_conf_perm
I0623 09:28:07.594584 25934 net.cpp:150] Setting up conv6_2_mbox_conf_perm
I0623 09:28:07.594594 25934 net.cpp:157] Top shape: 8 10 10 126 (100800)
I0623 09:28:07.594599 25934 net.cpp:165] Memory required for data: 1997228864
I0623 09:28:07.594601 25934 layer_factory.hpp:77] Creating layer conv6_2_mbox_conf_flat
I0623 09:28:07.594610 25934 net.cpp:100] Creating Layer conv6_2_mbox_conf_flat
I0623 09:28:07.594614 25934 net.cpp:434] conv6_2_mbox_conf_flat <- conv6_2_mbox_conf_perm
I0623 09:28:07.594621 25934 net.cpp:408] conv6_2_mbox_conf_flat -> conv6_2_mbox_conf_flat
I0623 09:28:07.594666 25934 net.cpp:150] Setting up conv6_2_mbox_conf_flat
I0623 09:28:07.594674 25934 net.cpp:157] Top shape: 8 12600 (100800)
I0623 09:28:07.594678 25934 net.cpp:165] Memory required for data: 1997632064
I0623 09:28:07.594682 25934 layer_factory.hpp:77] Creating layer conv6_2_mbox_priorbox
I0623 09:28:07.594691 25934 net.cpp:100] Creating Layer conv6_2_mbox_priorbox
I0623 09:28:07.594694 25934 net.cpp:434] conv6_2_mbox_priorbox <- conv6_2_conv6_2_relu_0_split_3
I0623 09:28:07.594700 25934 net.cpp:434] conv6_2_mbox_priorbox <- data_data_0_split_3
I0623 09:28:07.594708 25934 net.cpp:408] conv6_2_mbox_priorbox -> conv6_2_mbox_priorbox
I0623 09:28:07.594754 25934 net.cpp:150] Setting up conv6_2_mbox_priorbox
I0623 09:28:07.594763 25934 net.cpp:157] Top shape: 1 2 2400 (4800)
I0623 09:28:07.594768 25934 net.cpp:165] Memory required for data: 1997651264
I0623 09:28:07.594770 25934 layer_factory.hpp:77] Creating layer conv7_2_mbox_loc
I0623 09:28:07.594782 25934 net.cpp:100] Creating Layer conv7_2_mbox_loc
I0623 09:28:07.594789 25934 net.cpp:434] conv7_2_mbox_loc <- conv7_2_conv7_2_relu_0_split_1
I0623 09:28:07.594797 25934 net.cpp:408] conv7_2_mbox_loc -> conv7_2_mbox_loc
I0623 09:28:07.596581 25934 net.cpp:150] Setting up conv7_2_mbox_loc
I0623 09:28:07.596595 25934 net.cpp:157] Top shape: 8 24 5 5 (4800)
I0623 09:28:07.596598 25934 net.cpp:165] Memory required for data: 1997670464
I0623 09:28:07.596606 25934 layer_factory.hpp:77] Creating layer conv7_2_mbox_loc_perm
I0623 09:28:07.596614 25934 net.cpp:100] Creating Layer conv7_2_mbox_loc_perm
I0623 09:28:07.596619 25934 net.cpp:434] conv7_2_mbox_loc_perm <- conv7_2_mbox_loc
I0623 09:28:07.596627 25934 net.cpp:408] conv7_2_mbox_loc_perm -> conv7_2_mbox_loc_perm
I0623 09:28:07.596807 25934 net.cpp:150] Setting up conv7_2_mbox_loc_perm
I0623 09:28:07.596815 25934 net.cpp:157] Top shape: 8 5 5 24 (4800)
I0623 09:28:07.596819 25934 net.cpp:165] Memory required for data: 1997689664
I0623 09:28:07.596837 25934 layer_factory.hpp:77] Creating layer conv7_2_mbox_loc_flat
I0623 09:28:07.596844 25934 net.cpp:100] Creating Layer conv7_2_mbox_loc_flat
I0623 09:28:07.596849 25934 net.cpp:434] conv7_2_mbox_loc_flat <- conv7_2_mbox_loc_perm
I0623 09:28:07.596856 25934 net.cpp:408] conv7_2_mbox_loc_flat -> conv7_2_mbox_loc_flat
I0623 09:28:07.596900 25934 net.cpp:150] Setting up conv7_2_mbox_loc_flat
I0623 09:28:07.596909 25934 net.cpp:157] Top shape: 8 600 (4800)
I0623 09:28:07.596913 25934 net.cpp:165] Memory required for data: 1997708864
I0623 09:28:07.596916 25934 layer_factory.hpp:77] Creating layer conv7_2_mbox_conf
I0623 09:28:07.596930 25934 net.cpp:100] Creating Layer conv7_2_mbox_conf
I0623 09:28:07.596935 25934 net.cpp:434] conv7_2_mbox_conf <- conv7_2_conv7_2_relu_0_split_2
I0623 09:28:07.596943 25934 net.cpp:408] conv7_2_mbox_conf -> conv7_2_mbox_conf
I0623 09:28:07.600849 25934 net.cpp:150] Setting up conv7_2_mbox_conf
I0623 09:28:07.600878 25934 net.cpp:157] Top shape: 8 126 5 5 (25200)
I0623 09:28:07.600880 25934 net.cpp:165] Memory required for data: 1997809664
I0623 09:28:07.600891 25934 layer_factory.hpp:77] Creating layer conv7_2_mbox_conf_perm
I0623 09:28:07.600903 25934 net.cpp:100] Creating Layer conv7_2_mbox_conf_perm
I0623 09:28:07.600908 25934 net.cpp:434] conv7_2_mbox_conf_perm <- conv7_2_mbox_conf
I0623 09:28:07.600919 25934 net.cpp:408] conv7_2_mbox_conf_perm -> conv7_2_mbox_conf_perm
I0623 09:28:07.601105 25934 net.cpp:150] Setting up conv7_2_mbox_conf_perm
I0623 09:28:07.601119 25934 net.cpp:157] Top shape: 8 5 5 126 (25200)
I0623 09:28:07.601122 25934 net.cpp:165] Memory required for data: 1997910464
I0623 09:28:07.601126 25934 layer_factory.hpp:77] Creating layer conv7_2_mbox_conf_flat
I0623 09:28:07.601135 25934 net.cpp:100] Creating Layer conv7_2_mbox_conf_flat
I0623 09:28:07.601140 25934 net.cpp:434] conv7_2_mbox_conf_flat <- conv7_2_mbox_conf_perm
I0623 09:28:07.601147 25934 net.cpp:408] conv7_2_mbox_conf_flat -> conv7_2_mbox_conf_flat
I0623 09:28:07.601189 25934 net.cpp:150] Setting up conv7_2_mbox_conf_flat
I0623 09:28:07.601200 25934 net.cpp:157] Top shape: 8 3150 (25200)
I0623 09:28:07.601203 25934 net.cpp:165] Memory required for data: 1998011264
I0623 09:28:07.601207 25934 layer_factory.hpp:77] Creating layer conv7_2_mbox_priorbox
I0623 09:28:07.601215 25934 net.cpp:100] Creating Layer conv7_2_mbox_priorbox
I0623 09:28:07.601220 25934 net.cpp:434] conv7_2_mbox_priorbox <- conv7_2_conv7_2_relu_0_split_3
I0623 09:28:07.601225 25934 net.cpp:434] conv7_2_mbox_priorbox <- data_data_0_split_4
I0623 09:28:07.601236 25934 net.cpp:408] conv7_2_mbox_priorbox -> conv7_2_mbox_priorbox
I0623 09:28:07.601284 25934 net.cpp:150] Setting up conv7_2_mbox_priorbox
I0623 09:28:07.601295 25934 net.cpp:157] Top shape: 1 2 600 (1200)
I0623 09:28:07.601299 25934 net.cpp:165] Memory required for data: 1998016064
I0623 09:28:07.601302 25934 layer_factory.hpp:77] Creating layer conv8_2_mbox_loc
I0623 09:28:07.601317 25934 net.cpp:100] Creating Layer conv8_2_mbox_loc
I0623 09:28:07.601322 25934 net.cpp:434] conv8_2_mbox_loc <- conv8_2_conv8_2_relu_0_split_1
I0623 09:28:07.601330 25934 net.cpp:408] conv8_2_mbox_loc -> conv8_2_mbox_loc
I0623 09:28:07.603245 25934 net.cpp:150] Setting up conv8_2_mbox_loc
I0623 09:28:07.603260 25934 net.cpp:157] Top shape: 8 16 3 3 (1152)
I0623 09:28:07.603263 25934 net.cpp:165] Memory required for data: 1998020672
I0623 09:28:07.603283 25934 layer_factory.hpp:77] Creating layer conv8_2_mbox_loc_perm
I0623 09:28:07.603293 25934 net.cpp:100] Creating Layer conv8_2_mbox_loc_perm
I0623 09:28:07.603298 25934 net.cpp:434] conv8_2_mbox_loc_perm <- conv8_2_mbox_loc
I0623 09:28:07.603307 25934 net.cpp:408] conv8_2_mbox_loc_perm -> conv8_2_mbox_loc_perm
I0623 09:28:07.603495 25934 net.cpp:150] Setting up conv8_2_mbox_loc_perm
I0623 09:28:07.603504 25934 net.cpp:157] Top shape: 8 3 3 16 (1152)
I0623 09:28:07.603508 25934 net.cpp:165] Memory required for data: 1998025280
I0623 09:28:07.603512 25934 layer_factory.hpp:77] Creating layer conv8_2_mbox_loc_flat
I0623 09:28:07.603534 25934 net.cpp:100] Creating Layer conv8_2_mbox_loc_flat
I0623 09:28:07.603539 25934 net.cpp:434] conv8_2_mbox_loc_flat <- conv8_2_mbox_loc_perm
I0623 09:28:07.603545 25934 net.cpp:408] conv8_2_mbox_loc_flat -> conv8_2_mbox_loc_flat
I0623 09:28:07.603591 25934 net.cpp:150] Setting up conv8_2_mbox_loc_flat
I0623 09:28:07.603600 25934 net.cpp:157] Top shape: 8 144 (1152)
I0623 09:28:07.603603 25934 net.cpp:165] Memory required for data: 1998029888
I0623 09:28:07.603607 25934 layer_factory.hpp:77] Creating layer conv8_2_mbox_conf
I0623 09:28:07.603618 25934 net.cpp:100] Creating Layer conv8_2_mbox_conf
I0623 09:28:07.603623 25934 net.cpp:434] conv8_2_mbox_conf <- conv8_2_conv8_2_relu_0_split_2
I0623 09:28:07.603631 25934 net.cpp:408] conv8_2_mbox_conf -> conv8_2_mbox_conf
I0623 09:28:07.608089 25934 net.cpp:150] Setting up conv8_2_mbox_conf
I0623 09:28:07.608116 25934 net.cpp:157] Top shape: 8 84 3 3 (6048)
I0623 09:28:07.608119 25934 net.cpp:165] Memory required for data: 1998054080
I0623 09:28:07.608129 25934 layer_factory.hpp:77] Creating layer conv8_2_mbox_conf_perm
I0623 09:28:07.608141 25934 net.cpp:100] Creating Layer conv8_2_mbox_conf_perm
I0623 09:28:07.608150 25934 net.cpp:434] conv8_2_mbox_conf_perm <- conv8_2_mbox_conf
I0623 09:28:07.608160 25934 net.cpp:408] conv8_2_mbox_conf_perm -> conv8_2_mbox_conf_perm
I0623 09:28:07.608352 25934 net.cpp:150] Setting up conv8_2_mbox_conf_perm
I0623 09:28:07.608361 25934 net.cpp:157] Top shape: 8 3 3 84 (6048)
I0623 09:28:07.608366 25934 net.cpp:165] Memory required for data: 1998078272
I0623 09:28:07.608369 25934 layer_factory.hpp:77] Creating layer conv8_2_mbox_conf_flat
I0623 09:28:07.608376 25934 net.cpp:100] Creating Layer conv8_2_mbox_conf_flat
I0623 09:28:07.608381 25934 net.cpp:434] conv8_2_mbox_conf_flat <- conv8_2_mbox_conf_perm
I0623 09:28:07.608387 25934 net.cpp:408] conv8_2_mbox_conf_flat -> conv8_2_mbox_conf_flat
I0623 09:28:07.608433 25934 net.cpp:150] Setting up conv8_2_mbox_conf_flat
I0623 09:28:07.608441 25934 net.cpp:157] Top shape: 8 756 (6048)
I0623 09:28:07.608445 25934 net.cpp:165] Memory required for data: 1998102464
I0623 09:28:07.608449 25934 layer_factory.hpp:77] Creating layer conv8_2_mbox_priorbox
I0623 09:28:07.608458 25934 net.cpp:100] Creating Layer conv8_2_mbox_priorbox
I0623 09:28:07.608463 25934 net.cpp:434] conv8_2_mbox_priorbox <- conv8_2_conv8_2_relu_0_split_3
I0623 09:28:07.608467 25934 net.cpp:434] conv8_2_mbox_priorbox <- data_data_0_split_5
I0623 09:28:07.608476 25934 net.cpp:408] conv8_2_mbox_priorbox -> conv8_2_mbox_priorbox
I0623 09:28:07.608530 25934 net.cpp:150] Setting up conv8_2_mbox_priorbox
I0623 09:28:07.608538 25934 net.cpp:157] Top shape: 1 2 144 (288)
I0623 09:28:07.608542 25934 net.cpp:165] Memory required for data: 1998103616
I0623 09:28:07.608546 25934 layer_factory.hpp:77] Creating layer conv9_2_mbox_loc
I0623 09:28:07.608559 25934 net.cpp:100] Creating Layer conv9_2_mbox_loc
I0623 09:28:07.608564 25934 net.cpp:434] conv9_2_mbox_loc <- conv9_2_conv9_2_relu_0_split_0
I0623 09:28:07.608572 25934 net.cpp:408] conv9_2_mbox_loc -> conv9_2_mbox_loc
I0623 09:28:07.610632 25934 net.cpp:150] Setting up conv9_2_mbox_loc
I0623 09:28:07.610646 25934 net.cpp:157] Top shape: 8 16 1 1 (128)
I0623 09:28:07.610651 25934 net.cpp:165] Memory required for data: 1998104128
I0623 09:28:07.610657 25934 layer_factory.hpp:77] Creating layer conv9_2_mbox_loc_perm
I0623 09:28:07.610667 25934 net.cpp:100] Creating Layer conv9_2_mbox_loc_perm
I0623 09:28:07.610672 25934 net.cpp:434] conv9_2_mbox_loc_perm <- conv9_2_mbox_loc
I0623 09:28:07.610678 25934 net.cpp:408] conv9_2_mbox_loc_perm -> conv9_2_mbox_loc_perm
I0623 09:28:07.610865 25934 net.cpp:150] Setting up conv9_2_mbox_loc_perm
I0623 09:28:07.610874 25934 net.cpp:157] Top shape: 8 1 1 16 (128)
I0623 09:28:07.610878 25934 net.cpp:165] Memory required for data: 1998104640
I0623 09:28:07.610882 25934 layer_factory.hpp:77] Creating layer conv9_2_mbox_loc_flat
I0623 09:28:07.610888 25934 net.cpp:100] Creating Layer conv9_2_mbox_loc_flat
I0623 09:28:07.610908 25934 net.cpp:434] conv9_2_mbox_loc_flat <- conv9_2_mbox_loc_perm
I0623 09:28:07.610918 25934 net.cpp:408] conv9_2_mbox_loc_flat -> conv9_2_mbox_loc_flat
I0623 09:28:07.610965 25934 net.cpp:150] Setting up conv9_2_mbox_loc_flat
I0623 09:28:07.610972 25934 net.cpp:157] Top shape: 8 16 (128)
I0623 09:28:07.610976 25934 net.cpp:165] Memory required for data: 1998105152
I0623 09:28:07.610980 25934 layer_factory.hpp:77] Creating layer conv9_2_mbox_conf
I0623 09:28:07.610991 25934 net.cpp:100] Creating Layer conv9_2_mbox_conf
I0623 09:28:07.610996 25934 net.cpp:434] conv9_2_mbox_conf <- conv9_2_conv9_2_relu_0_split_1
I0623 09:28:07.611003 25934 net.cpp:408] conv9_2_mbox_conf -> conv9_2_mbox_conf
I0623 09:28:07.614079 25934 net.cpp:150] Setting up conv9_2_mbox_conf
I0623 09:28:07.614092 25934 net.cpp:157] Top shape: 8 84 1 1 (672)
I0623 09:28:07.614096 25934 net.cpp:165] Memory required for data: 1998107840
I0623 09:28:07.614104 25934 layer_factory.hpp:77] Creating layer conv9_2_mbox_conf_perm
I0623 09:28:07.614111 25934 net.cpp:100] Creating Layer conv9_2_mbox_conf_perm
I0623 09:28:07.614116 25934 net.cpp:434] conv9_2_mbox_conf_perm <- conv9_2_mbox_conf
I0623 09:28:07.614125 25934 net.cpp:408] conv9_2_mbox_conf_perm -> conv9_2_mbox_conf_perm
I0623 09:28:07.614320 25934 net.cpp:150] Setting up conv9_2_mbox_conf_perm
I0623 09:28:07.614331 25934 net.cpp:157] Top shape: 8 1 1 84 (672)
I0623 09:28:07.614334 25934 net.cpp:165] Memory required for data: 1998110528
I0623 09:28:07.614337 25934 layer_factory.hpp:77] Creating layer conv9_2_mbox_conf_flat
I0623 09:28:07.614346 25934 net.cpp:100] Creating Layer conv9_2_mbox_conf_flat
I0623 09:28:07.614351 25934 net.cpp:434] conv9_2_mbox_conf_flat <- conv9_2_mbox_conf_perm
I0623 09:28:07.614358 25934 net.cpp:408] conv9_2_mbox_conf_flat -> conv9_2_mbox_conf_flat
I0623 09:28:07.614401 25934 net.cpp:150] Setting up conv9_2_mbox_conf_flat
I0623 09:28:07.614409 25934 net.cpp:157] Top shape: 8 84 (672)
I0623 09:28:07.614413 25934 net.cpp:165] Memory required for data: 1998113216
I0623 09:28:07.614418 25934 layer_factory.hpp:77] Creating layer conv9_2_mbox_priorbox
I0623 09:28:07.614428 25934 net.cpp:100] Creating Layer conv9_2_mbox_priorbox
I0623 09:28:07.614433 25934 net.cpp:434] conv9_2_mbox_priorbox <- conv9_2_conv9_2_relu_0_split_2
I0623 09:28:07.614437 25934 net.cpp:434] conv9_2_mbox_priorbox <- data_data_0_split_6
I0623 09:28:07.614445 25934 net.cpp:408] conv9_2_mbox_priorbox -> conv9_2_mbox_priorbox
I0623 09:28:07.614488 25934 net.cpp:150] Setting up conv9_2_mbox_priorbox
I0623 09:28:07.614497 25934 net.cpp:157] Top shape: 1 2 16 (32)
I0623 09:28:07.614501 25934 net.cpp:165] Memory required for data: 1998113344
I0623 09:28:07.614504 25934 layer_factory.hpp:77] Creating layer mbox_loc
I0623 09:28:07.614513 25934 net.cpp:100] Creating Layer mbox_loc
I0623 09:28:07.614519 25934 net.cpp:434] mbox_loc <- conv4_3_norm_mbox_loc_flat
I0623 09:28:07.614526 25934 net.cpp:434] mbox_loc <- fc7_mbox_loc_flat
I0623 09:28:07.614532 25934 net.cpp:434] mbox_loc <- conv6_2_mbox_loc_flat
I0623 09:28:07.614538 25934 net.cpp:434] mbox_loc <- conv7_2_mbox_loc_flat
I0623 09:28:07.614543 25934 net.cpp:434] mbox_loc <- conv8_2_mbox_loc_flat
I0623 09:28:07.614549 25934 net.cpp:434] mbox_loc <- conv9_2_mbox_loc_flat
I0623 09:28:07.614557 25934 net.cpp:408] mbox_loc -> mbox_loc
I0623 09:28:07.614600 25934 net.cpp:150] Setting up mbox_loc
I0623 09:28:07.614609 25934 net.cpp:157] Top shape: 8 34928 (279424)
I0623 09:28:07.614614 25934 net.cpp:165] Memory required for data: 1999231040
I0623 09:28:07.614616 25934 layer_factory.hpp:77] Creating layer mbox_conf
I0623 09:28:07.614625 25934 net.cpp:100] Creating Layer mbox_conf
I0623 09:28:07.614630 25934 net.cpp:434] mbox_conf <- conv4_3_norm_mbox_conf_flat
I0623 09:28:07.614637 25934 net.cpp:434] mbox_conf <- fc7_mbox_conf_flat
I0623 09:28:07.614644 25934 net.cpp:434] mbox_conf <- conv6_2_mbox_conf_flat
I0623 09:28:07.614648 25934 net.cpp:434] mbox_conf <- conv7_2_mbox_conf_flat
I0623 09:28:07.614653 25934 net.cpp:434] mbox_conf <- conv8_2_mbox_conf_flat
I0623 09:28:07.614670 25934 net.cpp:434] mbox_conf <- conv9_2_mbox_conf_flat
I0623 09:28:07.614675 25934 net.cpp:408] mbox_conf -> mbox_conf
I0623 09:28:07.614718 25934 net.cpp:150] Setting up mbox_conf
I0623 09:28:07.614727 25934 net.cpp:157] Top shape: 8 183372 (1466976)
I0623 09:28:07.614732 25934 net.cpp:165] Memory required for data: 2005098944
I0623 09:28:07.614734 25934 layer_factory.hpp:77] Creating layer mbox_priorbox
I0623 09:28:07.614742 25934 net.cpp:100] Creating Layer mbox_priorbox
I0623 09:28:07.614748 25934 net.cpp:434] mbox_priorbox <- conv4_3_norm_mbox_priorbox
I0623 09:28:07.614753 25934 net.cpp:434] mbox_priorbox <- fc7_mbox_priorbox
I0623 09:28:07.614758 25934 net.cpp:434] mbox_priorbox <- conv6_2_mbox_priorbox
I0623 09:28:07.614763 25934 net.cpp:434] mbox_priorbox <- conv7_2_mbox_priorbox
I0623 09:28:07.614768 25934 net.cpp:434] mbox_priorbox <- conv8_2_mbox_priorbox
I0623 09:28:07.614773 25934 net.cpp:434] mbox_priorbox <- conv9_2_mbox_priorbox
I0623 09:28:07.614778 25934 net.cpp:408] mbox_priorbox -> mbox_priorbox
I0623 09:28:07.614820 25934 net.cpp:150] Setting up mbox_priorbox
I0623 09:28:07.614827 25934 net.cpp:157] Top shape: 1 2 34928 (69856)
I0623 09:28:07.614831 25934 net.cpp:165] Memory required for data: 2005378368
I0623 09:28:07.614835 25934 layer_factory.hpp:77] Creating layer mbox_conf_reshape
I0623 09:28:07.614843 25934 net.cpp:100] Creating Layer mbox_conf_reshape
I0623 09:28:07.614848 25934 net.cpp:434] mbox_conf_reshape <- mbox_conf
I0623 09:28:07.614856 25934 net.cpp:408] mbox_conf_reshape -> mbox_conf_reshape
I0623 09:28:07.614912 25934 net.cpp:150] Setting up mbox_conf_reshape
I0623 09:28:07.614922 25934 net.cpp:157] Top shape: 8 8732 21 (1466976)
I0623 09:28:07.614925 25934 net.cpp:165] Memory required for data: 2011246272
I0623 09:28:07.614928 25934 layer_factory.hpp:77] Creating layer mbox_conf_softmax
I0623 09:28:07.614935 25934 net.cpp:100] Creating Layer mbox_conf_softmax
I0623 09:28:07.614940 25934 net.cpp:434] mbox_conf_softmax <- mbox_conf_reshape
I0623 09:28:07.614948 25934 net.cpp:408] mbox_conf_softmax -> mbox_conf_softmax
I0623 09:28:07.615442 25934 net.cpp:150] Setting up mbox_conf_softmax
I0623 09:28:07.615453 25934 net.cpp:157] Top shape: 8 8732 21 (1466976)
I0623 09:28:07.615458 25934 net.cpp:165] Memory required for data: 2017114176
I0623 09:28:07.615460 25934 layer_factory.hpp:77] Creating layer mbox_conf_flatten
I0623 09:28:07.615468 25934 net.cpp:100] Creating Layer mbox_conf_flatten
I0623 09:28:07.615473 25934 net.cpp:434] mbox_conf_flatten <- mbox_conf_softmax
I0623 09:28:07.615481 25934 net.cpp:408] mbox_conf_flatten -> mbox_conf_flatten
I0623 09:28:07.615526 25934 net.cpp:150] Setting up mbox_conf_flatten
I0623 09:28:07.615535 25934 net.cpp:157] Top shape: 8 183372 (1466976)
I0623 09:28:07.615538 25934 net.cpp:165] Memory required for data: 2022982080
I0623 09:28:07.615542 25934 layer_factory.hpp:77] Creating layer detection_out
I0623 09:28:07.615558 25934 net.cpp:100] Creating Layer detection_out
I0623 09:28:07.615563 25934 net.cpp:434] detection_out <- mbox_loc
I0623 09:28:07.615567 25934 net.cpp:434] detection_out <- mbox_conf_flatten
I0623 09:28:07.615573 25934 net.cpp:434] detection_out <- mbox_priorbox
I0623 09:28:07.615581 25934 net.cpp:408] detection_out -> detection_out
I0623 09:28:07.617585 25934 net.cpp:150] Setting up detection_out
I0623 09:28:07.617599 25934 net.cpp:157] Top shape: 1 1 1 7 (7)
I0623 09:28:07.617604 25934 net.cpp:165] Memory required for data: 2022982108
I0623 09:28:07.617606 25934 layer_factory.hpp:77] Creating layer detection_eval
I0623 09:28:07.617616 25934 net.cpp:100] Creating Layer detection_eval
I0623 09:28:07.617621 25934 net.cpp:434] detection_eval <- detection_out
I0623 09:28:07.617626 25934 net.cpp:434] detection_eval <- label
I0623 09:28:07.617633 25934 net.cpp:408] detection_eval -> detection_eval
I0623 09:28:07.618726 25934 net.cpp:150] Setting up detection_eval
I0623 09:28:07.618737 25934 net.cpp:157] Top shape: 1 1 21 5 (105)
I0623 09:28:07.618741 25934 net.cpp:165] Memory required for data: 2022982528
I0623 09:28:07.618757 25934 net.cpp:228] detection_eval does not need backward computation.
I0623 09:28:07.618762 25934 net.cpp:228] detection_out does not need backward computation.
I0623 09:28:07.618767 25934 net.cpp:228] mbox_conf_flatten does not need backward computation.
I0623 09:28:07.618769 25934 net.cpp:228] mbox_conf_softmax does not need backward computation.
…
