…
  name: "data"
  type: "AnnotatedData"
  top: "data"
  top: "label"
  include {
    phase: TEST
  }
  transform_param {
    mean_value: 104.0
    mean_value: 117.0
    mean_value: 123.0
    resize_param {
      prob: 1.0
      resize_mode: WARP
      height: 300
      width: 300
      interp_mode: LINEAR
    }
  }
  data_param {
    source: "examples/person_tracking/person_tracking_test_lmdb"
    batch_size: 8
    backend: LMDB
  }
  annotated_data_param {
    batch_sampler {
    }
    label_map_file: "data/person_tracking/labelmap_voc.prototxt"
  }
}
layer {
  name: "conv1_1"
  type: "Convolution"
  bottom: "data"
  top: "conv1_1"
  param {
    lr_mult: 1.0
    decay_mult: 1.0
  }
  param {
    lr_mult: 2.0
    decay_mult: 0.0
  }
  convolution_param {
    num_output: 64
    pad: 1
    kernel_size: 3
    weight_filler {
      type: "xavier"
    }
    bias_filler {
      type: "constant"
      value: 0.0
    }
  }
}
layer {
  name: "relu1_1"
  type: "ReLU"
  bottom: "conv1_1"
  top: "conv1_1"
}
layer {
  name: "conv1_2"
  type: "Convolution"
  bottom: "conv1_1"
  top: "conv1_2"
  param {
    lr_mult: 1.0
    decay_mult: 1.0
  }
  param {
    lr_mult: 2.0
    decay_mult: 0.0
  }
  convolution_param {
    num_output: 64
    pad: 1
    kernel_size: 3
    weight_filler {
      type: "xavier"
    }
    bias_filler {
      type: "constant"
      value: 0.0
    }
  }
}
layer {
  name: "relu1_2"
  type: "ReLU"
  bottom: "conv1_2"
  top: "conv1_2"
}
layer {
  name: "pool1"
  type: "Pooling"
  bottom: "conv1_2"
  top: "pool1"
  pooling_param {
    pool: MAX
    kernel_size: 2
    stride: 2
  }
}
layer {
  name: "conv2_1"
  type: "Convolution"
  bottom: "pool1"
  top: "conv2_1"
  param {
    lr_mult: 1.0
    decay_mult: 1.0
  }
  param {
    lr_mult: 2.0
    decay_mult: 0.0
  }
  convolution_param {
    num_output: 128
    pad: 1
    kernel_size: 3
    weight_filler {
      type: "xavier"
    }
    bias_filler {
      type: "constant"
      value: 0.0
    }
  }
}
layer {
  name: "relu2_1"
  type: "ReLU"
  bottom: "conv2_1"
  top: "conv2_1"
}
layer {
  name: "conv2_2"
  type: "Convolution"
  bottom: "conv2_1"
  top: "conv2_2"
  param {
    lr_mult: 1.0
    decay_mult: 1.0
  }
  param {
    lr_mult: 2.0
    decay_mult: 0.0
  }
  convolution_param {
    num_output: 128
    pad: 1
    kernel_size: 3
    weight_filler {
      type: "xavier"
    }
    bias_filler {
      type: "constant"
      value: 0.0
    }
  }
}
layer {
  name: "relu2_2"
  type: "ReLU"
  bottom: "conv2_2"
  top: "conv2_2"
}
layer {
  name: "pool2"
  type: "Pooling"
  bottom: "conv2_2"
  top: "pool2"
  pooling_param {
    pool: MAX
    kernel_size: 2
    stride: 2
  }
}
layer {
  name: "conv3_1"
  type: "Convolution"
  bottom: "pool2"
  top: "conv3_1"
  param {
    lr_mult: 1.0
    decay_mult: 1.0
  }
  param {
    lr_mult: 2.0
    decay_mult: 0.0
  }
  convolution_param {
    num_output: 256
    pad: 1
    kernel_size: 3
    weight_filler {
      type: "xavier"
    }
    bias_filler {
      type: "constant"
      value: 0.0
    }
  }
}
layer {
  name: "relu3_1"
  type: "ReLU"
  bottom: "conv3_1"
  top: "conv3_1"
}
layer {
  name: "conv3_2"
  type: "Convolution"
  bottom: "conv3_1"
  top: "conv3_2"
  param {
    lr_mult: 1.0
    decay_mult: 1.0
  }
  param {
    lr_mult: 2.0
    decay_mult: 0.0
  }
  convolution_param {
    num_output: 256
    pad: 1
    kernel_size: 3
    weight_filler {
      type: "xavier"
    }
    bias_filler {
      type: "constant"
      value: 0.0
    }
  }
}
layer {
  name: "relu3_2"
  type: "ReLU"
  bottom: "conv3_2"
  top: "conv3_2"
}
layer {
  name: "conv3_3"
  type: "Convolution"
  bottom: "conv3_2"
  top: "conv3_3"
  param {
    lr_mult: 1.0
    decay_mult: 1.0
  }
  param {
    lr_mult: 2.0
    decay_mult: 0.0
  }
  convolution_param {
    num_output: 256
    pad: 1
    kernel_size: 3
    weight_filler {
      type: "xavier"
    }
    bias_filler {
      type: "constant"
      value: 0.0
    }
  }
}
layer {
  name: "relu3_3"
  type: "ReLU"
  bottom: "conv3_3"
  top: "conv3_3"
}
layer {
  name: "pool3"
  type: "Pooling"
  bottom: "conv3_3"
  top: "pool3"
  pooling_param {
    pool: MAX
    kernel_size: 2
    stride: 2
  }
}
layer {
  name: "conv4_1"
  type: "Convolution"
  bottom: "pool3"
  top: "conv4_1"
  param {
    lr_mult: 1.0
    decay_mult: 1.0
  }
  param {
    lr_mult: 2.0
    decay_mult: 0.0
  }
  convolution_param {
    num_output: 512
    pad: 1
    kernel_size: 3
    weight_filler {
      type: "xavier"
    }
    bias_filler {
      type: "constant"
      value: 0.0
    }
  }
}
layer {
  name: "relu4_1"
  type: "ReLU"
  bottom: "conv4_1"
  top: "conv4_1"
}
layer {
  name: "conv4_2"
  type: "Convolution"
  bottom: "conv4_1"
  top: "conv4_2"
  param {
    lr_mult: 1.0
    decay_mult: 1.0
  }
  param {
    lr_mult: 2.0
    decay_mult: 0.0
  }
  convolution_param {
    num_output: 512
    pad: 1
    kernel_size: 3
    weight_filler {
      type: "xavier"
    }
    bias_filler {
      type: "constant"
      value: 0.0
    }
  }
}
layer {
  name: "relu4_2"
  type: "ReLU"
  bottom: "conv4_2"
  top: "conv4_2"
}
layer {
  name: "conv4_3"
  type: "Convolution"
  bottom: "conv4_2"
  top: "conv4_3"
  param {
    lr_mult: 1.0
    decay_mult: 1.0
  }
  param {
    lr_mult: 2.0
    decay_mult: 0.0
  }
  convolution_param {
    num_output: 512
    pad: 1
    kernel_size: 3
    weight_filler {
      type: "xavier"
    }
    bias_filler {
      type: "constant"
      value: 0.0
    }
  }
}
layer {
  name: "relu4_3"
  type: "ReLU"
  bottom: "conv4_3"
  top: "conv4_3"
}
layer {
  name: "pool4"
  type: "Pooling"
  bottom: "conv4_3"
  top: "pool4"
  pooling_param {
    pool: MAX
    kernel_size: 2
    stride: 2
  }
}
layer {
  name: "conv5_1"
  type: "Convolution"
  bottom: "pool4"
  top: "conv5_1"
  param {
    lr_mult: 1.0
    decay_mult: 1.0
  }
  param {
    lr_mult: 2.0
    decay_mult: 0.0
  }
  convolution_param {
    num_output: 512
    pad: 1
    kernel_size: 3
    weight_filler {
      type: "xavier"
    }
    bias_filler {
      type: "constant"
      value: 0.0
    }
    dilation: 1
  }
}
layer {
  name: "relu5_1"
  type: "ReLU"
  bottom: "conv5_1"
  top: "conv5_1"
}
layer {
  name: "conv5_2"
  type: "Convolution"
  bottom: "conv5_1"
  top: "conv5_2"
  param {
    lr_mult: 1.0
    decay_mult: 1.0
  }
  param {
    lr_mult: 2.0
    decay_mult: 0.0
  }
  convolution_param {
    num_output: 512
    pad: 1
    kernel_size: 3
    weight_filler {
      type: "xavier"
    }
    bias_filler {
      type: "constant"
      value: 0.0
    }
    dilation: 1
  }
}
layer {
  name: "relu5_2"
  type: "ReLU"
  bottom: "conv5_2"
  top: "conv5_2"
}
layer {
  name: "conv5_3"
  type: "Convolution"
  bottom: "conv5_2"
  top: "conv5_3"
  param {
    lr_mult: 1.0
    decay_mult: 1.0
  }
  param {
    lr_mult: 2.0
    decay_mult: 0.0
  }
  convolution_param {
    num_output: 512
    pad: 1
    kernel_size: 3
    weight_filler {
      type: "xavier"
    }
    bias_filler {
      type: "constant"
      value: 0.0
    }
    dilation: 1
  }
}
layer {
  name: "relu5_3"
  type: "ReLU"
  bottom: "conv5_3"
  top: "conv5_3"
}
layer {
  name: "pool5"
  type: "Pooling"
  bottom: "conv5_3"
  top: "pool5"
  pooling_param {
    pool: MAX
    kernel_size: 3
    stride: 1
    pad: 1
  }
}
layer {
  name: "fc6"
  type: "Convolution"
  bottom: "pool5"
  top: "fc6"
  param {
    lr_mult: 1.0
    decay_mult: 1.0
  }
  param {
    lr_mult: 2.0
    decay_mult: 0.0
  }
  convolution_param {
    num_output: 1024
    pad: 6
    kernel_size: 3
    weight_filler {
      type: "xavier"
    }
    bias_filler {
      type: "constant"
      value: 0.0
    }
    dilation: 6
  }
}
layer {
  name: "relu6"
  type: "ReLU"
  bottom: "fc6"
  top: "fc6"
}
layer {
  name: "fc7"
  type: "Convolution"
  bottom: "fc6"
  top: "fc7"
  param {
    lr_mult: 1.0
    decay_mult: 1.0
  }
  param {
    lr_mult: 2.0
    decay_mult: 0.0
  }
  convolution_param {
    num_output: 1024
    kernel_size: 1
    weight_filler {
      type: "xavier"
    }
    bias_filler {
      type: "constant"
      value: 0.0
    }
  }
}
layer {
  name: "relu7"
  type: "ReLU"
  bottom: "fc7"
  top: "fc7"
}
layer {
  name: "conv6_1"
  type: "Convolution"
  bottom: "fc7"
  top: "conv6_1"
  param {
    lr_mult: 1.0
    decay_mult: 1.0
  }
  param {
    lr_mult: 2.0
    decay_mult: 0.0
  }
  convolution_param {
    num_output: 256
    pad: 0
    kernel_size: 1
    stride: 1
    weight_filler {
      type: "xavier"
    }
    bias_filler {
      type: "constant"
      value: 0.0
    }
  }
}
layer {
  name: "conv6_1_relu"
  type: "ReLU"
  bottom: "conv6_1"
  top: "conv6_1"
}
layer {
  name: "conv6_2"
  type: "Convolution"
  bottom: "conv6_1"
  top: "conv6_2"
  param {
    lr_mult: 1.0
    decay_mult: 1.0
  }
  param {
    lr_mult: 2.0
    decay_mult: 0.0
  }
  convolution_param {
    num_output: 512
    pad: 1
    kernel_size: 3
    stride: 2
    weight_filler {
      type: "xavier"
    }
    bias_filler {
      type: "constant"
      value: 0.0
    }
  }
}
layer {
  name: "conv6_2_relu"
  type: "ReLU"
  bottom: "conv6_2"
  top: "conv6_2"
}
layer {
  name: "conv7_1"
  type: "Convolution"
  bottom: "conv6_2"
  top: "conv7_1"
  param {
    lr_mult: 1.0
    decay_mult: 1.0
  }
  param {
    lr_mult: 2.0
    decay_mult: 0.0
  }
  convolution_param {
    num_output: 128
    pad: 0
    kernel_size: 1
    stride: 1
    weight_filler {
      type: "xavier"
    }
    bias_filler {
      type: "constant"
      value: 0.0
    }
  }
}
layer {
  name: "conv7_1_relu"
  type: "ReLU"
  bottom: "conv7_1"
  top: "conv7_1"
}
layer {
  name: "conv7_2"
  type: "Convolution"
  bottom: "conv7_1"
  top: "conv7_2"
  param {
    lr_mult: 1.0
    decay_mult: 1.0
  }
  param {
    lr_mult: 2.0
    decay_mult: 0.0
  }
  convolution_param {
    num_output: 256
    pad: 1
    kernel_size: 3
    stride: 2
    weight_filler {
      type: "xavier"
    }
    bias_filler {
      type: "constant"
      value: 0.0
    }
  }
}
layer {
  name: "conv7_2_relu"
  type: "ReLU"
  bottom: "conv7_2"
  top: "conv7_2"
}
layer {
  name: "conv8_1"
  type: "Convolution"
  bottom: "conv7_2"
  top: "conv8_1"
  param {
    lr_mult: 1.0
    decay_mult: 1.0
  }
  param {
    lr_mult: 2.0
    decay_mult: 0.0
  }
  convolution_param {
    num_output: 128
    pad: 0
    kernel_size: 1
    stride: 1
    weight_filler {
      type: "xavier"
    }
    bias_filler {
      type: "constant"
      value: 0.0
    }
  }
}
layer {
  name: "conv8_1_relu"
  type: "ReLU"
  bottom: "conv8_1"
  top: "conv8_1"
}
layer {
  name: "conv8_2"
  type: "Convolution"
  bottom: "conv8_1"
  top: "conv8_2"
  param {
    lr_mult: 1.0
    decay_mult: 1.0
  }
  param {
    lr_mult: 2.0
    decay_mult: 0.0
  }
  convolution_param {
    num_output: 256
    pad: 0
    kernel_size: 3
    stride: 1
    weight_filler {
      type: "xavier"
    }
    bias_filler {
      type: "constant"
      value: 0.0
    }
  }
}
layer {
  name: "conv8_2_relu"
  type: "ReLU"
  bottom: "conv8_2"
  top: "conv8_2"
}
layer {
  name: "conv9_1"
  type: "Convolution"
  bottom: "conv8_2"
  top: "conv9_1"
  param {
    lr_mult: 1.0
    decay_mult: 1.0
  }
  param {
    lr_mult: 2.0
    decay_mult: 0.0
  }
  convolution_param {
    num_output: 128
    pad: 0
    kernel_size: 1
    stride: 1
    weight_filler {
      type: "xavier"
    }
    bias_filler {
      type: "constant"
      value: 0.0
    }
  }
}
layer {
  name: "conv9_1_relu"
  type: "ReLU"
  bottom: "conv9_1"
  top: "conv9_1"
}
layer {
  name: "conv9_2"
  type: "Convolution"
  bottom: "conv9_1"
  top: "conv9_2"
  param {
    lr_mult: 1.0
    decay_mult: 1.0
  }
  param {
    lr_mult: 2.0
    decay_mult: 0.0
  }
  convolution_param {
    num_output: 256
    pad: 0
    kernel_size: 3
    stride: 1
    weight_filler {
      type: "xavier"
    }
    bias_filler {
      type: "constant"
      value: 0.0
    }
  }
}
layer {
  name: "conv9_2_relu"
  type: "ReLU"
  bottom: "conv9_2"
  top: "conv9_2"
}
layer {
  name: "conv4_3_norm"
  type: "Normalize"
  bottom: "conv4_3"
  top: "conv4_3_norm"
  norm_param {
    across_spatial: false
    scale_filler {
      type: "constant"
      value: 20.0
    }
    channel_shared: false
  }
}
layer {
  name: "conv4_3_norm_mbox_loc"
  type: "Convolution"
  bottom: "conv4_3_norm"
  top: "conv4_3_norm_mbox_loc"
  param {
    lr_mult: 1.0
    decay_mult: 1.0
  }
  param {
    lr_mult: 2.0
    decay_mult: 0.0
  }
  convolution_param {
    num_output: 16
    pad: 1
    kernel_size: 3
    stride: 1
    weight_filler {
      type: "xavier"
    }
    bias_filler {
      type: "constant"
      value: 0.0
    }
  }
}
layer {
  name: "conv4_3_norm_mbox_loc_perm"
  type: "Permute"
  bottom: "conv4_3_norm_mbox_loc"
  top: "conv4_3_norm_mbox_loc_perm"
  permute_param {
    order: 0
    order: 2
    order: 3
    order: 1
  }
}
layer {
  name: "conv4_3_norm_mbox_loc_flat"
  type: "Flatten"
  bottom: "conv4_3_norm_mbox_loc_perm"
  top: "conv4_3_norm_mbox_loc_flat"
  flatten_param {
    axis: 1
  }
}
layer {
  name: "conv4_3_norm_mbox_conf"
  type: "Convolution"
  bottom: "conv4_3_norm"
  top: "conv4_3_norm_mbox_conf"
  param {
    lr_mult: 1.0
    decay_mult: 1.0
  }
  param {
    lr_mult: 2.0
    decay_mult: 0.0
  }
  convolution_param {
    num_output: 84
    pad: 1
    kernel_size: 3
    stride: 1
    weight_filler {
      type: "xavier"
    }
    bias_filler {
      type: "constant"
      value: 0.0
    }
  }
}
layer {
  name: "conv4_3_norm_mbox_conf_perm"
  type: "Permute"
  bottom: "conv4_3_norm_mbox_conf"
  top: "conv4_3_norm_mbox_conf_perm"
  permute_param {
    order: 0
    order: 2
    order: 3
    order: 1
  }
}
layer {
  name: "conv4_3_norm_mbox_conf_flat"
  type: "Flatten"
  bottom: "conv4_3_norm_mbox_conf_perm"
  top: "conv4_3_norm_mbox_conf_flat"
  flatten_param {
    axis: 1
  }
}
layer {
  name: "conv4_3_norm_mbox_priorbox"
  type: "PriorBox"
  bottom: "conv4_3_norm"
  bottom: "data"
  top: "conv4_3_norm_mbox_priorbox"
  prior_box_param {
    min_size: 30.0
    max_size: 60.0
    aspect_ratio: 2.0
    flip: true
    clip: false
    variance: 0.10000000149
    variance: 0.10000000149
    variance: 0.20000000298
    variance: 0.20000000298
    step: 8.0
    offset: 0.5
  }
}
layer {
  name: "fc7_mbox_loc"
  type: "Convolution"
  bottom: "fc7"
  top: "fc7_mbox_loc"
  param {
    lr_mult: 1.0
    decay_mult: 1.0
  }
  param {
    lr_mult: 2.0
    decay_mult: 0.0
  }
  convolution_param {
    num_output: 24
    pad: 1
    kernel_size: 3
    stride: 1
    weight_filler {
      type: "xavier"
    }
    bias_filler {
      type: "constant"
      value: 0.0
    }
  }
}
layer {
  name: "fc7_mbox_loc_perm"
  type: "Permute"
  bottom: "fc7_mbox_loc"
  top: "fc7_mbox_loc_perm"
  permute_param {
    order: 0
    order: 2
    order: 3
    order: 1
  }
}
layer {
  name: "fc7_mbox_loc_flat"
  type: "Flatten"
  bottom: "fc7_mbox_loc_perm"
  top: "fc7_mbox_loc_flat"
  flatten_param {
    axis: 1
  }
}
layer {
  name: "fc7_mbox_conf"
  type: "Convolution"
  bottom: "fc7"
  top: "fc7_mbox_conf"
  param {
    lr_mult: 1.0
    decay_mult: 1.0
  }
  param {
    lr_mult: 2.0
    decay_mult: 0.0
  }
  convolution_param {
    num_output: 126
    pad: 1
    kernel_size: 3
    stride: 1
    weight_filler {
      type: "xavier"
    }
    bias_filler {
      type: "constant"
      value: 0.0
    }
  }
}
layer {
  name: "fc7_mbox_conf_perm"
  type: "Permute"
  bottom: "fc7_mbox_conf"
  top: "fc7_mbox_conf_perm"
  permute_param {
    order: 0
    order: 2
    order: 3
    order: 1
  }
}
layer {
  name: "fc7_mbox_conf_flat"
  type: "Flatten"
  bottom: "fc7_mbox_conf_perm"
  top: "fc7_mbox_conf_flat"
  flatten_param {
    axis: 1
  }
}
layer {
  name: "fc7_mbox_priorbox"
  type: "PriorBox"
  bottom: "fc7"
  bottom: "data"
  top: "fc7_mbox_priorbox"
  prior_box_param {
    min_size: 60.0
    max_size: 111.0
    aspect_ratio: 2.0
    aspect_ratio: 3.0
    flip: true
    clip: false
    variance: 0.10000000149
    variance: 0.10000000149
    variance: 0.20000000298
    variance: 0.20000000298
    step: 16.0
    offset: 0.5
  }
}
layer {
  name: "conv6_2_mbox_loc"
  type: "Convolution"
  bottom: "conv6_2"
  top: "conv6_2_mbox_loc"
  param {
    lr_mult: 1.0
    decay_mult: 1.0
  }
  param {
    lr_mult: 2.0
    decay_mult: 0.0
  }
  convolution_param {
    num_output: 24
    pad: 1
    kernel_size: 3
    stride: 1
    weight_filler {
      type: "xavier"
    }
    bias_filler {
      type: "constant"
      value: 0.0
    }
  }
}
layer {
  name: "conv6_2_mbox_loc_perm"
  type: "Permute"
  bottom: "conv6_2_mbox_loc"
  top: "conv6_2_mbox_loc_perm"
  permute_param {
    order: 0
    order: 2
    order: 3
    order: 1
  }
}
layer {
  name: "conv6_2_mbox_loc_flat"
  type: "Flatten"
  bottom: "conv6_2_mbox_loc_perm"
  top: "conv6_2_mbox_loc_flat"
  flatten_param {
    axis: 1
  }
}
layer {
  name: "conv6_2_mbox_conf"
  type: "Convolution"
  bottom: "conv6_2"
  top: "conv6_2_mbox_conf"
  param {
    lr_mult: 1.0
    decay_mult: 1.0
  }
  param {
    lr_mult: 2.0
    decay_mult: 0.0
  }
  convolution_param {
    num_output: 126
    pad: 1
    kernel_size: 3
    stride: 1
    weight_filler {
      type: "xavier"
    }
    bias_filler {
      type: "constant"
      value: 0.0
    }
  }
}
layer {
  name: "conv6_2_mbox_conf_perm"
  type: "Permute"
  bottom: "conv6_2_mbox_conf"
  top: "conv6_2_mbox_conf_perm"
  permute_param {
    order: 0
    order: 2
    order: 3
    order: 1
  }
}
layer {
  name: "conv6_2_mbox_conf_flat"
  type: "Flatten"
  bottom: "conv6_2_mbox_conf_perm"
  top: "conv6_2_mbox_conf_flat"
  flatten_param {
    axis: 1
  }
}
layer {
  name: "conv6_2_mbox_priorbox"
  type: "PriorBox"
  bottom: "conv6_2"
  bottom: "data"
  top: "conv6_2_mbox_priorbox"
  prior_box_param {
    min_size: 111.0
    max_size: 162.0
    aspect_ratio: 2.0
    aspect_ratio: 3.0
    flip: true
    clip: false
    variance: 0.10000000149
    variance: 0.10000000149
    variance: 0.20000000298
    variance: 0.20000000298
    step: 32.0
    offset: 0.5
  }
}
layer {
  name: "conv7_2_mbox_loc"
  type: "Convolution"
  bottom: "conv7_2"
  top: "conv7_2_mbox_loc"
  param {
    lr_mult: 1.0
    decay_mult: 1.0
  }
  param {
    lr_mult: 2.0
    decay_mult: 0.0
  }
  convolution_param {
    num_output: 24
    pad: 1
    kernel_size: 3
    stride: 1
    weight_filler {
      type: "xavier"
    }
    bias_filler {
      type: "constant"
      value: 0.0
    }
  }
}
layer {
  name: "conv7_2_mbox_loc_perm"
  type: "Permute"
  bottom: "conv7_2_mbox_loc"
  top: "conv7_2_mbox_loc_perm"
  permute_param {
    order: 0
    order: 2
    order: 3
    order: 1
  }
}
layer {
  name: "conv7_2_mbox_loc_flat"
  type: "Flatten"
  bottom: "conv7_2_mbox_loc_perm"
  top: "conv7_2_mbox_loc_flat"
  flatten_param {
    axis: 1
  }
}
layer {
  name: "conv7_2_mbox_conf"
  type: "Convolution"
  bottom: "conv7_2"
  top: "conv7_2_mbox_conf"
  param {
    lr_mult: 1.0
    decay_mult: 1.0
  }
  param {
    lr_mult: 2.0
    decay_mult: 0.0
  }
  convolution_param {
    num_output: 126
    pad: 1
    kernel_size: 3
    stride: 1
    weight_filler {
      type: "xavier"
    }
    bias_filler {
      type: "constant"
      value: 0.0
    }
  }
}
layer {
  name: "conv7_2_mbox_conf_perm"
  type: "Permute"
  bottom: "conv7_2_mbox_conf"
  top: "conv7_2_mbox_conf_perm"
  permute_param {
    order: 0
    order: 2
    order: 3
    order: 1
  }
}
layer {
  name: "conv7_2_mbox_conf_flat"
  type: "Flatten"
  bottom: "conv7_2_mbox_conf_perm"
  top: "conv7_2_mbox_conf_flat"
  flatten_param {
    axis: 1
  }
}
layer {
  name: "conv7_2_mbox_priorbox"
  type: "PriorBox"
  bottom: "conv7_2"
  bottom: "data"
  top: "conv7_2_mbox_priorbox"
  prior_box_param {
    min_size: 162.0
    max_size: 213.0
    aspect_ratio: 2.0
    aspect_ratio: 3.0
    flip: true
    clip: false
    variance: 0.10000000149
    variance: 0.10000000149
    variance: 0.20000000298
    variance: 0.20000000298
    step: 64.0
    offset: 0.5
  }
}
layer {
  name: "conv8_2_mbox_loc"
  type: "Convolution"
  bottom: "conv8_2"
  top: "conv8_2_mbox_loc"
  param {
    lr_mult: 1.0
    decay_mult: 1.0
  }
  param {
    lr_mult: 2.0
    decay_mult: 0.0
  }
  convolution_param {
    num_output: 16
    pad: 1
    kernel_size: 3
    stride: 1
    weight_filler {
      type: "xavier"
    }
    bias_filler {
      type: "constant"
      value: 0.0
    }
  }
}
layer {
  name: "conv8_2_mbox_loc_perm"
  type: "Permute"
  bottom: "conv8_2_mbox_loc"
  top: "conv8_2_mbox_loc_perm"
  permute_param {
    order: 0
    order: 2
    order: 3
    order: 1
  }
}
layer {
  name: "conv8_2_mbox_loc_flat"
  type: "Flatten"
  bottom: "conv8_2_mbox_loc_perm"
  top: "conv8_2_mbox_loc_flat"
  flatten_param {
    axis: 1
  }
}
layer {
  name: "conv8_2_mbox_conf"
  type: "Convolution"
  bottom: "conv8_2"
  top: "conv8_2_mbox_conf"
  param {
    lr_mult: 1.0
    decay_mult: 1.0
  }
  param {
    lr_mult: 2.0
    decay_mult: 0.0
  }
  convolution_param {
    num_output: 84
    pad: 1
    kernel_size: 3
    stride: 1
    weight_filler {
      type: "xavier"
    }
    bias_filler {
      type: "constant"
      value: 0.0
    }
  }
}
layer {
  name: "conv8_2_mbox_conf_perm"
  type: "Permute"
  bottom: "conv8_2_mbox_conf"
  top: "conv8_2_mbox_conf_perm"
  permute_param {
    order: 0
    order: 2
    order: 3
    order: 1
  }
}
layer {
  name: "conv8_2_mbox_conf_flat"
  type: "Flatten"
  bottom: "conv8_2_mbox_conf_perm"
  top: "conv8_2_mbox_conf_flat"
  flatten_param {
    axis: 1
  }
}
layer {
  name: "conv8_2_mbox_priorbox"
  type: "PriorBox"
  bottom: "conv8_2"
  bottom: "data"
  top: "conv8_2_mbox_priorbox"
  prior_box_param {
    min_size: 213.0
    max_size: 264.0
    aspect_ratio: 2.0
    flip: true
    clip: false
    variance: 0.10000000149
    variance: 0.10000000149
    variance: 0.20000000298
    variance: 0.20000000298
    step: 100.0
    offset: 0.5
  }
}
layer {
  name: "conv9_2_mbox_loc"
  type: "Convolution"
  bottom: "conv9_2"
  top: "conv9_2_mbox_loc"
  param {
    lr_mult: 1.0
    decay_mult: 1.0
  }
  param {
    lr_mult: 2.0
    decay_mult: 0.0
  }
  convolution_param {
    num_output: 16
    pad: 1
    kernel_size: 3
    stride: 1
    weight_filler {
      type: "xavier"
    }
    bias_filler {
      type: "constant"
      value: 0.0
    }
  }
}
layer {
  name: "conv9_2_mbox_loc_perm"
  type: "Permute"
  bottom: "conv9_2_mbox_loc"
  top: "conv9_2_mbox_loc_perm"
  permute_param {
    order: 0
    order: 2
    order: 3
    order: 1
  }
}
layer {
  name: "conv9_2_mbox_loc_flat"
  type: "Flatten"
  bottom: "conv9_2_mbox_loc_perm"
  top: "conv9_2_mbox_loc_flat"
  flatten_param {
    axis: 1
  }
}
layer {
  name: "conv9_2_mbox_conf"
  type: "Convolution"
  bottom: "conv9_2"
  top: "conv9_2_mbox_conf"
  param {
    lr_mult: 1.0
    decay_mult: 1.0
  }
  param {
    lr_mult: 2.0
    decay_mult: 0.0
  }
  convolution_param {
    num_output: 84
    pad: 1
    kernel_size: 3
    stride: 1
    weight_filler {
      type: "xavier"
    }
    bias_filler {
      type: "constant"
      value: 0.0
    }
  }
}
layer {
  name: "conv9_2_mbox_conf_perm"
  type: "Permute"
  bottom: "conv9_2_mbox_conf"
  top: "conv9_2_mbox_conf_perm"
  permute_param {
    order: 0
    order: 2
    order: 3
    order: 1
  }
}
layer {
  name: "conv9_2_mbox_conf_flat"
  type: "Flatten"
  bottom: "conv9_2_mbox_conf_perm"
  top: "conv9_2_mbox_conf_flat"
  flatten_param {
    axis: 1
  }
}
layer {
  name: "conv9_2_mbox_priorbox"
  type: "PriorBox"
  bottom: "conv9_2"
  bottom: "data"
  top: "conv9_2_mbox_priorbox"
  prior_box_param {
    min_size: 264.0
    max_size: 315.0
    aspect_ratio: 2.0
    flip: true
    clip: false
    variance: 0.10000000149
    variance: 0.10000000149
    variance: 0.20000000298
    variance: 0.20000000298
    step: 300.0
    offset: 0.5
  }
}
layer {
  name: "mbox_loc"
  type: "Concat"
  bottom: "conv4_3_norm_mbox_loc_flat"
  bottom: "fc7_mbox_loc_flat"
  bottom: "conv6_2_mbox_loc_flat"
  bottom: "conv7_2_mbox_loc_flat"
  bottom: "conv8_2_mbox_loc_flat"
  bottom: "conv9_2_mbox_loc_flat"
  top: "mbox_loc"
  concat_param {
    axis: 1
  }
}
layer {
  name: "mbox_conf"
  type: "Concat"
  bottom: "conv4_3_norm_mbox_conf_flat"
  bottom: "fc7_mbox_conf_flat"
  bottom: "conv6_2_mbox_conf_flat"
  bottom: "conv7_2_mbox_conf_flat"
  bottom: "conv8_2_mbox_conf_flat"
  bottom: "conv9_2_mbox_conf_flat"
  top: "mbox_conf"
  concat_param {
    axis: 1
  }
}
layer {
  name: "mbox_priorbox"
  type: "Concat"
  bottom: "conv4_3_norm_mbox_priorbox"
  bottom: "fc7_mbox_priorbox"
  bottom: "conv6_2_mbox_priorbox"
  bottom: "conv7_2_mbox_priorbox"
  bottom: "conv8_2_mbox_priorbox"
  bottom: "conv9_2_mbox_priorbox"
  top: "mbox_priorbox"
  concat_param {
    axis: 2
  }
}
layer {
  name: "mbox_conf_reshape"
  type: "Reshape"
  bottom: "mbox_conf"
  top: "mbox_conf_reshape"
  reshape_param {
    shape {
      dim: 0
      dim: -1
      dim: 21
    }
  }
}
layer {
  name: "mbox_conf_softmax"
  type: "Softmax"
  bottom: "mbox_conf_reshape"
  top: "mbox_conf_softmax"
  softmax_param {
    axis: 2
  }
}
layer {
  name: "mbox_conf_flatten"
  type: "Flatten"
  bottom: "mbox_conf_softmax"
  top: "mbox_conf_flatten"
  flatten_param {
    axis: 1
  }
}
layer {
  name: "detection_out"
  type: "DetectionOutput"
  bottom: "mbox_loc"
  bottom: "mbox_conf_flatten"
  bottom: "mbox_priorbox"
  top: "detection_out"
  include {
    phase: TEST
  }
  detection_output_param {
    num_classes: 21
    share_location: true
    background_label_id: 0
    nms_param {
      nms_threshold: 0.449999988079
      top_k: 400
    }
    save_output_param {
      output_directory: "/home/bvi/data/person_tracking/results/sample/SSD_300x300_score/Main"
      output_name_prefix: "comp4_det_test_"
…
        min_scale: 0.3
        max_scale: 1
        min_aspect_ratio: 0.5
        max_aspect_ratio: 2
      }
      sample_constraint {
        min_jaccard_overlap: 0.9
      }
      max_sample: 1
      max_trials: 50
    }
    batch_sampler {
      sampler {
        min_scale: 0.3
        max_scale: 1
        min_aspect_ratio: 0.5
        max_aspect_ratio: 2
      }
      sample_constraint {
        max_jaccard_overlap: 1
      }
      max_sample: 1
      max_trials: 50
    }
    label_map_file: "data/person_tracking/labelmap_voc.prototxt"
  }
}
layer {
  name: "conv1_1"
  type: "Convolution"
  bottom: "data"
  top: "conv1_1"
  param {
    lr_mult: 1
    decay_mult: 1
  }
  param {
    lr_mult: 2
    decay_mult: 0
  }
  convolution_param {
    num_output: 64
    pad: 1
    kernel_size: 3
    weight_filler {
      type: "xavier"
    }
    bias_filler {
      type: "constant"
      value: 0
    }
  }
}
layer {
  name: "relu1_1"
  type: "ReLU"
  bottom: "conv1_1"
  top: "conv1_1"
}
layer {
  name: "conv1_2"
  type: "Convolution"
  bottom: "conv1_1"
  top: "conv1_2"
  param {
    lr_mult: 1
    decay_mult: 1
  }
  param {
    lr_mult: 2
    decay_mult: 0
  }
  convolution_param {
    num_output: 64
    pad: 1
    kernel_size: 3
    weight_filler {
      type: "xavier"
    }
    bias_filler {
      type: "constant"
      value: 0
    }
  }
}
layer {
  name: "relu1_2"
  type: "ReLU"
  bottom: "conv1_2"
  top: "conv1_2"
}
layer {
  name: "pool1"
  type: "Pooling"
  bottom: "conv1_2"
  top: "pool1"
  pooling_param {
    pool: MAX
    kernel_size: 2
    stride: 2
  }
}
layer {
  name: "conv2_1"
  type: "Convolution"
  bottom: "pool1"
  top: "conv2_1"
  param {
    lr_mult: 1
    decay_mult: 1
  }
  param {
    lr_mult: 2
    decay_mult: 0
  }
  convolution_param {
    num_output: 128
    pad: 1
    kernel_size: 3
    weight_filler {
      type: "xavier"
    }
    bias_filler {
      type: "constant"
      value: 0
    }
  }
}
layer {
  name: "relu2_1"
  type: "ReLU"
  bottom: "conv2_1"
  top: "conv2_1"
}
layer {
  name: "conv2_2"
  type: "Convolution"
  bottom: "conv2_1"
  top: "conv2_2"
  param {
    lr_mult: 1
    decay_mult: 1
  }
  param {
    lr_mult: 2
    decay_mult: 0
  }
  convolution_param {
    num_output: 128
    pad: 1
    kernel_size: 3
    weight_filler {
      type: "xavier"
    }
    bias_filler {
      type: "constant"
      value: 0
    }
  }
}
layer {
  name: "relu2_2"
  type: "ReLU"
  bottom: "conv2_2"
  top: "conv2_2"
}
layer {
  name: "pool2"
  type: "Pooling"
  bottom: "conv2_2"
  top: "pool2"
  pooling_param {
    pool: MAX
    kernel_size: 2
    stride: 2
  }
}
layer {
  name: "conv3_1"
  type: "Convolution"
  bottom: "pool2"
  top: "conv3_1"
  param {
    lr_mult: 1
    decay_mult: 1
  }
  param {
    lr_mult: 2
    decay_mult: 0
  }
  convolution_param {
    num_output: 256
    pad: 1
    kernel_size: 3
    weight_filler {
      type: "xavier"
    }
    bias_filler {
      type: "constant"
      value: 0
    }
  }
}
layer {
  name: "relu3_1"
  type: "ReLU"
  bottom: "conv3_1"
  top: "conv3_1"
}
layer {
  name: "conv3_2"
  type: "Convolution"
  bottom: "conv3_1"
  top: "conv3_2"
  param {
    lr_mult: 1
    decay_mult: 1
  }
  param {
    lr_mult: 2
    decay_mult: 0
  }
  convolution_param {
    num_output: 256
    pad: 1
    kernel_size: 3
    weight_filler {
      type: "xavier"
    }
    bias_filler {
      type: "constant"
      value: 0
    }
  }
}
layer {
  name: "relu3_2"
  type: "ReLU"
  bottom: "conv3_2"
  top: "conv3_2"
}
layer {
  name: "conv3_3"
  type: "Convolution"
  bottom: "conv3_2"
  top: "conv3_3"
  param {
    lr_mult: 1
    decay_mult: 1
  }
  param {
    lr_mult: 2
    decay_mult: 0
  }
  convolution_param {
    num_output: 256
    pad: 1
    kernel_size: 3
    weight_filler {
      type: "xavier"
    }
    bias_filler {
      type: "constant"
      value: 0
    }
  }
}
layer {
  name: "relu3_3"
  type: "ReLU"
  bottom: "conv3_3"
  top: "conv3_3"
}
layer {
  name: "pool3"
  type: "Pooling"
  bottom: "conv3_3"
  top: "pool3"
  pooling_param {
    pool: MAX
    kernel_size: 2
    stride: 2
  }
}
layer {
  name: "conv4_1"
  type: "Convolution"
  bottom: "pool3"
  top: "conv4_1"
  param {
    lr_mult: 1
    decay_mult: 1
  }
  param {
    lr_mult: 2
    decay_mult: 0
  }
  convolution_param {
    num_output: 512
    pad: 1
    kernel_size: 3
    weight_filler {
      type: "xavier"
    }
    bias_filler {
      type: "constant"
      value: 0
    }
  }
}
layer {
  name: "relu4_1"
  type: "ReLU"
  bottom: "conv4_1"
  top: "conv4_1"
}
layer {
  name: "conv4_2"
  type: "Convolution"
  bottom: "conv4_1"
  top: "conv4_2"
  param {
    lr_mult: 1
    decay_mult: 1
  }
  param {
    lr_mult: 2
    decay_mult: 0
  }
  convolution_param {
    num_output: 512
    pad: 1
    kernel_size: 3
    weight_filler {
      type: "xavier"
    }
    bias_filler {
      type: "constant"
      value: 0
    }
  }
}
layer {
  name: "relu4_2"
  type: "ReLU"
  bottom: "conv4_2"
  top: "conv4_2"
}
layer {
  name: "conv4_3"
  type: "Convolution"
  bottom: "conv4_2"
  top: "conv4_3"
  param {
    lr_mult: 1
    decay_mult: 1
  }
  param {
    lr_mult: 2
    decay_mult: 0
  }
  convolution_param {
    num_output: 512
    pad: 1
    kernel_size: 3
    weight_filler {
      type: "xavier"
    }
    bias_filler {
      type: "constant"
      value: 0
    }
  }
}
layer {
  name: "relu4_3"
  type: "ReLU"
  bottom: "conv4_3"
  top: "conv4_3"
}
layer {
  name: "pool4"
  type: "Pooling"
  bottom: "conv4_3"
  top: "pool4"
  pooling_param {
    pool: MAX
    kernel_size: 2
    stride: 2
  }
}
layer {
  name: "conv5_1"
  type: "Convolution"
  bottom: "pool4"
  top: "conv5_1"
  param {
    lr_mult: 1
    decay_mult: 1
  }
  param {
    lr_mult: 2
    decay_mult: 0
  }
  convolution_param {
    num_output: 512
    pad: 1
    kernel_size: 3
    weight_filler {
      type: "xavier"
    }
    bias_filler {
      type: "constant"
      value: 0
    }
    dilation: 1
  }
}
layer {
  name: "relu5_1"
  type: "ReLU"
  bottom: "conv5_1"
  top: "conv5_1"
}
layer {
  name: "conv5_2"
  type: "Convolution"
  bottom: "conv5_1"
  top: "conv5_2"
  param {
    lr_mult: 1
    decay_mult: 1
  }
  param {
    lr_mult: 2
    decay_mult: 0
  }
  convolution_param {
    num_output: 512
    pad: 1
    kernel_size: 3
    weight_filler {
      type: "xavier"
    }
    bias_filler {
      type: "constant"
      value: 0
    }
    dilation: 1
  }
}
layer {
  name: "relu5_2"
  type: "ReLU"
  bottom: "conv5_2"
  top: "conv5_2"
}
layer {
  name: "conv5_3"
  type: "Convolution"
  bottom: "conv5_2"
  top: "conv5_3"
  param {
    lr_mult: 1
    decay_mult: 1
  }
  param {
    lr_mult: 2
    decay_mult: 0
  }
  convolution_param {
    num_output: 512
    pad: 1
    kernel_size: 3
    weight_filler {
      type: "xavier"
    }
    bias_filler {
      type: "constant"
      value: 0
    }
    dilation: 1
  }
}
layer {
  name: "relu5_3"
  type: "ReLU"
  bottom: "conv5_3"
  top: "conv5_3"
}
layer {
  name: "pool5"
  type: "Pooling"
  bottom: "conv5_3"
  top: "pool5"
  pooling_param {
    pool: MAX
    kernel_size: 3
    stride: 1
    pad: 1
  }
}
layer {
  name: "fc6"
  type: "Convolution"
  bottom: "pool5"
  top: "fc6"
  param {
    lr_mult: 1
    decay_mult: 1
  }
  param {
    lr_mult: 2
    decay_mult: 0
  }
  convolution_param {
    num_output: 1024
    pad: 6
    kernel_size: 3
    weight_filler {
      type: "xavier"
    }
    bias_filler {
      type: "constant"
      value: 0
    }
    dilation: 6
  }
}
layer {
  name: "relu6"
  type: "ReLU"
  bottom: "fc6"
  top: "fc6"
}
layer {
  name: "fc7"
  type: "Convolution"
  bottom: "fc6"
  top: "fc7"
  param {
    lr_mult: 1
    decay_mult: 1
  }
  param {
    lr_mult: 2
    decay_mult: 0
  }
  convolution_param {
    num_output: 1024
    kernel_size: 1
    weight_filler {
      type: "xavier"
    }
    bias_filler {
      type: "constant"
      value: 0
    }
  }
}
layer {
  name: "relu7"
  type: "ReLU"
  bottom: "fc7"
  top: "fc7"
}
layer {
  name: "conv6_1"
  type: "Convolution"
  bottom: "fc7"
  top: "conv6_1"
  param {
    lr_mult: 1
    decay_mult: 1
  }
  param {
    lr_mult: 2
    decay_mult: 0
  }
  convolution_param {
    num_output: 256
    pad: 0
    kernel_size: 1
    stride: 1
    weight_filler {
      type: "xavier"
    }
    bias_filler {
      type: "constant"
      value: 0
    }
  }
}
layer {
  name: "conv6_1_relu"
  type: "ReLU"
  bottom: "conv6_1"
  top: "conv6_1"
}
layer {
  name: "conv6_2"
  type: "Convolution"
  bottom: "conv6_1"
  top: "conv6_2"
  param {
    lr_mult: 1
    decay_mult: 1
  }
  param {
    lr_mult: 2
    decay_mult: 0
  }
  convolution_param {
    num_output: 512
    pad: 1
    kernel_size: 3
    stride: 2
    weight_filler {
      type: "xavier"
    }
    bias_filler {
      type: "constant"
      value: 0
    }
  }
}
layer {
  name: "conv6_2_relu"
  type: "ReLU"
  bottom: "conv6_2"
  top: "conv6_2"
}
layer {
  name: "conv7_1"
  type: "Convolution"
  bottom: "conv6_2"
  top: "conv7_1"
  param {
    lr_mult: 1
    decay_mult: 1
  }
  param {
    lr_mult: 2
    decay_mult: 0
  }
  convolution_param {
    num_output: 128
    pad: 0
    kernel_size: 1
    stride: 1
    weight_filler {
      type: "xavier"
    }
    bias_filler {
      type: "constant"
      value: 0
    }
  }
}
layer {
  name: "conv7_1_relu"
  type: "ReLU"
  bottom: "conv7_1"
  top: "conv7_1"
}
layer {
  name: "conv7_2"
  type: "Convolution"
  bottom: "conv7_1"
  top: "conv7_2"
  param {
    lr_mult: 1
    decay_mult: 1
  }
  param {
    lr_mult: 2
    decay_mult: 0
  }
  convolution_param {
    num_output: 256
    pad: 1
    kernel_size: 3
    stride: 2
    weight_filler {
      type: "xavier"
    }
    bias_filler {
      type: "constant"
      value: 0
    }
  }
}
layer {
  name: "conv7_2_relu"
  type: "ReLU"
  bottom: "conv7_2"
  top: "conv7_2"
}
layer {
  name: "conv8_1"
  type: "Convolution"
  bottom: "conv7_2"
  top: "conv8_1"
  param {
    lr_mult: 1
    decay_mult: 1
  }
  param {
    lr_mult: 2
    decay_mult: 0
  }
  convolution_param {
    num_output: 128
    pad: 0
    kernel_size: 1
    stride: 1
    weight_filler {
      type: "xavier"
    }
    bias_filler {
      type: "constant"
      value: 0
    }
  }
}
layer {
  name: "conv8_1_relu"
  type: "ReLU"
  bottom: "conv8_1"
  top: "conv8_1"
}
layer {
  name: "conv8_2"
  type: "Convolution"
  bottom: "conv8_1"
  top: "conv8_2"
  param {
    lr_mult: 1
    decay_mult: 1
  }
  param {
    lr_mult: 2
    decay_mult: 0
  }
  convolution_param {
    num_output: 256
    pad: 0
    kernel_size: 3
    stride: 1
    weight_filler {
      type: "xavier"
    }
    bias_filler {
      type: "constant"
      value: 0
    }
  }
}
layer {
  name: "conv8_2_relu"
  type: "ReLU"
  bottom: "conv8_2"
  top: "conv8_2"
}
layer {
  name: "conv9_1"
  type: "Convolution"
  bottom: "conv8_2"
  top: "conv9_1"
  param {
    lr_mult: 1
    decay_mult: 1
  }
  param {
    lr_mult: 2
    decay_mult: 0
  }
  convolution_param {
    num_output: 128
    pad: 0
    kernel_size: 1
    stride: 1
    weight_filler {
      type: "xavier"
    }
    bias_filler {
      type: "constant"
      value: 0
    }
  }
}
layer {
  name: "conv9_1_relu"
  type: "ReLU"
  bottom: "conv9_1"
  top: "conv9_1"
}
layer {
  name: "conv9_2"
  type: "Convolution"
  bottom: "conv9_1"
  top: "conv9_2"
  param {
    lr_mult: 1
    decay_mult: 1
  }
  param {
    lr_mult: 2
    decay_mult: 0
  }
  convolution_param {
    num_output: 256
    pad: 0
    kernel_size: 3
    stride: 1
    weight_filler {
      type: "xavier"
    }
    bias_filler {
      type: "constant"
      value: 0
    }
  }
}
layer {
  name: "conv9_2_relu"
  type: "ReLU"
  bottom: "conv9_2"
  top: "conv9_2"
}
layer {
  name: "conv4_3_norm"
  type: "Normalize"
  bottom: "conv4_3"
  top: "conv4_3_norm"
  norm_param {
    across_spatial: false
    scale_filler {
      type: "constant"
      value: 20
    }
    channel_shared: false
  }
}
layer {
  name: "conv4_3_norm_mbox_loc"
  type: "Convolution"
  bottom: "conv4_3_norm"
  top: "conv4_3_norm_mbox_loc"
  param {
    lr_mult: 1
    decay_mult: 1
  }
  param {
    lr_mult: 2
    decay_mult: 0
  }
  convolution_param {
    num_output: 16
    pad: 1
    kernel_size: 3
    stride: 1
    weight_filler {
      type: "xavier"
    }
    bias_filler {
      type: "constant"
      value: 0
    }
  }
}
layer {
  name: "conv4_3_norm_mbox_loc_perm"
  type: "Permute"
  bottom: "conv4_3_norm_mbox_loc"
  top: "conv4_3_norm_mbox_loc_perm"
  permute_param {
    order: 0
    order: 2
    order: 3
    order: 1
  }
}
layer {
  name: "conv4_3_norm_mbox_loc_flat"
  type: "Flatten"
  bottom: "conv4_3_norm_mbox_loc_perm"
  top: "conv4_3_norm_mbox_loc_flat"
  flatten_param {
    axis: 1
  }
}
layer {
  name: "conv4_3_norm_mbox_conf"
  type: "Convolution"
  bottom: "conv4_3_norm"
  top: "conv4_3_norm_mbox_conf"
  param {
    lr_mult: 1
    decay_mult: 1
  }
  param {
    lr_mult: 2
    decay_mult: 0
  }
  convolution_param {
    num_output: 84
    pad: 1
    kernel_size: 3
    stride: 1
    weight_filler {
      type: "xavier"
    }
    bias_filler {
      type: "constant"
      value: 0
    }
  }
}
layer {
  name: "conv4_3_norm_mbox_conf_perm"
  type: "Permute"
  bottom: "conv4_3_norm_mbox_conf"
  top: "conv4_3_norm_mbox_conf_perm"
  permute_param {
    order: 0
    order: 2
    order: 3
    order: 1
  }
}
layer {
  name: "conv4_3_norm_mbox_conf_flat"
  type: "Flatten"
  bottom: "conv4_3_norm_mbox_conf_perm"
  top: "conv4_3_norm_mbox_conf_flat"
  flatten_param {
    axis: 1
  }
}
layer {
  name: "conv4_3_norm_mbox_priorbox"
  type: "PriorBox"
  bottom: "conv4_3_norm"
  bottom: "data"
  top: "conv4_3_norm_mbox_priorbox"
  prior_box_param {
    min_size: 30
    max_size: 60
    aspect_ratio: 2
    flip: true
    clip: false
    variance: 0.1
    variance: 0.1
    variance: 0.2
    variance: 0.2
    step: 8
    offset: 0.5
  }
}
layer {
  name: "fc7_mbox_loc"
  type: "Convolution"
  bottom: "fc7"
  top: "fc7_mbox_loc"
  param {
    lr_mult: 1
    decay_mult: 1
  }
  param {
    lr_mult: 2
    decay_mult: 0
  }
  convolution_param {
    num_output: 24
    pad: 1
    kernel_size: 3
    stride: 1
    weight_filler {
      type: "xavier"
    }
    bias_filler {
      type: "constant"
      value: 0
    }
  }
}
layer {
  name: "fc7_mbox_loc_perm"
  type: "Permute"
  bottom: "fc7_mbox_loc"
  top: "fc7_mbox_loc_perm"
  permute_param {
    order: 0
    order: 2
    order: 3
    order: 1
  }
}
layer {
  name: "fc7_mbox_loc_flat"
  type: "Flatten"
  bottom: "fc7_mbox_loc_perm"
  top: "fc7_mbox_loc_flat"
  flatten_param {
    axis: 1
  }
}
layer {
  name: "fc7_mbox_conf"
  type: "Convolution"
  bottom: "fc7"
  top: "fc7_mbox_conf"
  param {
    lr_mult: 1
    decay_mult: 1
  }
  param {
    lr_mult: 2
    decay_mult: 0
  }
  convolution_param {
    num_output: 126
    pad: 1
    kernel_size: 3
    stride: 1
    weight_filler {
      type: "xavier"
    }
    bias_filler {
      type: "constant"
      value: 0
    }
  }
}
layer {
  name: "fc7_mbox_conf_perm"
  type: "Permute"
  bottom: "fc7_mbox_conf"
  top: "fc7_mbox_conf_perm"
  permute_param {
    order: 0
    order: 2
    order: 3
    order: 1
  }
}
layer {
  name: "fc7_mbox_conf_flat"
  type: "Flatten"
  bottom: "fc7_mbox_conf_perm"
  top: "fc7_mbox_conf_flat"
  flatten_param {
    axis: 1
  }
}
layer {
  name: "fc7_mbox_priorbox"
  type: "PriorBox"
  bottom: "fc7"
  bottom: "data"
  top: "fc7_mbox_priorbox"
  prior_box_param {
    min_size: 60
    max_size: 111
    aspect_ratio: 2
    aspect_ratio: 3
    flip: true
    clip: false
    variance: 0.1
    variance: 0.1
    variance: 0.2
    variance: 0.2
    step: 16
    offset: 0.5
  }
}
layer {
  name: "conv6_2_mbox_loc"
  type: "Convolution"
  bottom: "conv6_2"
  top: "conv6_2_mbox_loc"
  param {
    lr_mult: 1
    decay_mult: 1
  }
  param {
    lr_mult: 2
    decay_mult: 0
  }
  convolution_param {
    num_output: 24
    pad: 1
    kernel_size: 3
    stride: 1
    weight_filler {
      type: "xavier"
    }
    bias_filler {
      type: "constant"
      value: 0
    }
  }
}
layer {
  name: "conv6_2_mbox_loc_perm"
  type: "Permute"
  bottom: "conv6_2_mbox_loc"
  top: "conv6_2_mbox_loc_perm"
  permute_param {
    order: 0
    order: 2
    order: 3
    order: 1
  }
}
layer {
  name: "conv6_2_mbox_loc_flat"
  type: "Flatten"
  bottom: "conv6_2_mbox_loc_perm"
  top: "conv6_2_mbox_loc_flat"
  flatten_param {
    axis: 1
  }
}
layer {
  name: "conv6_2_mbox_conf"
  type: "Convolution"
  bottom: "conv6_2"
  top: "conv6_2_mbox_conf"
  param {
    lr_mult: 1
    decay_mult: 1
  }
  param {
    lr_mult: 2
    decay_mult: 0
  }
  convolution_param {
    num_output: 126
    pad: 1
    kernel_size: 3
    stride: 1
    weight_filler {
      type: "xavier"
    }
    bias_filler {
      type: "constant"
      value: 0
    }
  }
}
layer {
  name: "conv6_2_mbox_conf_perm"
  type: "Permute"
  bottom: "conv6_2_mbox_conf"
  top: "conv6_2_mbox_conf_perm"
  permute_param {
    order: 0
    order: 2
    order: 3
    order: 1
  }
}
layer {
  name: "conv6_2_mbox_conf_flat"
  type: "Flatten"
  bottom: "conv6_2_mbox_conf_perm"
  top: "conv6_2_mbox_conf_flat"
  flatten_param {
    axis: 1
  }
}
layer {
  name: "conv6_2_mbox_priorbox"
  type: "PriorBox"
  bottom: "conv6_2"
  bottom: "data"
  top: "conv6_2_mbox_priorbox"
  prior_box_param {
    min_size: 111
    max_size: 162
    aspect_ratio: 2
    aspect_ratio: 3
    flip: true
    clip: false
    variance: 0.1
    variance: 0.1
    variance: 0.2
    variance: 0.2
    step: 32
    offset: 0.5
  }
}
layer {
  name: "conv7_2_mbox_loc"
  type: "Convolution"
  bottom: "conv7_2"
  top: "conv7_2_mbox_loc"
  param {
    lr_mult: 1
    decay_mult: 1
  }
  param {
    lr_mult: 2
    decay_mult: 0
  }
  convolution_param {
    num_output: 24
    pad: 1
    kernel_size: 3
    stride: 1
    weight_filler {
      type: "xavier"
    }
    bias_filler {
      type: "constant"
      value: 0
    }
  }
}
layer {
  name: "conv7_2_mbox_loc_perm"
  type: "Permute"
  bottom: "conv7_2_mbox_loc"
  top: "conv7_2_mbox_loc_perm"
  permute_param {
    order: 0
    order: 2
    order: 3
    order: 1
  }
}
layer {
  name: "conv7_2_mbox_loc_flat"
  type: "Flatten"
  bottom: "conv7_2_mbox_loc_perm"
  top: "conv7_2_mbox_loc_flat"
  flatten_param {
    axis: 1
  }
}
layer {
  name: "conv7_2_mbox_conf"
  type: "Convolution"
  bottom: "conv7_2"
  top: "conv7_2_mbox_conf"
  param {
    lr_mult: 1
    decay_mult: 1
  }
  param {
    lr_mult: 2
    decay_mult: 0
  }
  convolution_param {
    num_output: 126
    pad: 1
    kernel_size: 3
    stride: 1
    weight_filler {
      type: "xavier"
    }
    bias_filler {
      type: "constant"
      value: 0
    }
  }
}
layer {
  name: "conv7_2_mbox_conf_perm"
  type: "Permute"
  bottom: "conv7_2_mbox_conf"
  top: "conv7_2_mbox_conf_perm"
  permute_param {
    order: 0
    order: 2
    order: 3
    order: 1
  }
}
layer {
  name: "conv7_2_mbox_conf_flat"
  type: "Flatten"
  bottom: "conv7_2_mbox_conf_perm"
  top: "conv7_2_mbox_conf_flat"
  flatten_param {
    axis: 1
  }
}
layer {
  name: "conv7_2_mbox_priorbox"
  type: "PriorBox"
  bottom: "conv7_2"
  bottom: "data"
  top: "conv7_2_mbox_priorbox"
  prior_box_param {
    min_size: 162
    max_size: 213
    aspect_ratio: 2
    aspect_ratio: 3
    flip: true
    clip: false
    variance: 0.1
    variance: 0.1
    variance: 0.2
    variance: 0.2
    step: 64
    offset: 0.5
  }
}
layer {
  name: "conv8_2_mbox_loc"
  type: "Convolution"
  bottom: "conv8_2"
  top: "conv8_2_mbox_loc"
  param {
    lr_mult: 1
    decay_mult: 1
  }
  param {
    lr_mult: 2
    decay_mult: 0
  }
  convolution_param {
    num_output: 16
    pad: 1
    kernel_size: 3
    stride: 1
    weight_filler {
      type: "xavier"
    }
    bias_filler {
      type: "constant"
      value: 0
    }
  }
}
layer {
  name: "conv8_2_mbox_loc_perm"
  type: "Permute"
  bottom: "conv8_2_mbox_loc"
  top: "conv8_2_mbox_loc_perm"
  permute_param {
    order: 0
    order: 2
    order: 3
    order: 1
  }
}
layer {
  name: "conv8_2_mbox_loc_flat"
  type: "Flatten"
  bottom: "conv8_2_mbox_loc_perm"
  top: "conv8_2_mbox_loc_flat"
  flatten_param {
    axis: 1
  }
}
layer {
  name: "conv8_2_mbox_conf"
  type: "Convolution"
  bottom: "conv8_2"
  top: "conv8_2_mbox_conf"
  param {
    lr_mult: 1
    decay_mult: 1
  }
  param {
    lr_mult: 2
    decay_mult: 0
  }
  convolution_param {
    num_output: 84
    pad: 1
    kernel_size: 3
    stride: 1
    weight_filler {
      type: "xavier"
    }
    bias_filler {
      type: "constant"
      value: 0
    }
  }
}
layer {
  name: "conv8_2_mbox_conf_perm"
  type: "Permute"
  bottom: "conv8_2_mbox_conf"
  top: "conv8_2_mbox_conf_perm"
  permute_param {
    order: 0
    order: 2
    order: 3
    order: 1
  }
}
layer {
  name: "conv8_2_mbox_conf_flat"
  type: "Flatten"
  bottom: "conv8_2_mbox_conf_perm"
  top: "conv8_2_mbox_conf_flat"
  flatten_param {
    axis: 1
  }
}
layer {
  name: "conv8_2_mbox_priorbox"
  type: "PriorBox"
  bottom: "conv8_2"
  bottom: "data"
  top: "conv8_2_mbox_priorbox"
  prior_box_param {
    min_size: 213
    max_size: 264
    aspect_ratio: 2
    flip: true
    clip: false
    variance: 0.1
    variance: 0.1
    variance: 0.2
    variance: 0.2
    step: 100
    offset: 0.5
  }
}
layer {
  name: "conv9_2_mbox_loc"
  type: "Convolution"
  bottom: "conv9_2"
  top: "conv9_2_mbox_loc"
  param {
    lr_mult: 1
    decay_mult: 1
  }
  param {
    lr_mult: 2
    decay_mult: 0
  }
  convolution_param {
    num_output: 16
    pad: 1
    kernel_size: 3
    stride: 1
    weight_filler {
      type: "xavier"
    }
    bias_filler {
      type: "constant"
      value: 0
    }
  }
}
layer {
  name: "conv9_2_mbox_loc_perm"
  type: "Permute"
  bottom: "conv9_2_mbox_loc"
  top: "conv9_2_mbox_loc_perm"
  permute_param {
    order: 0
    order: 2
    order: 3
    order: 1
  }
}
layer {
  name: "conv9_2_mbox_loc_flat"
  type: "Flatten"
  bottom: "conv9_2_mbox_loc_perm"
  top: "conv9_2_mbox_loc_flat"
  flatten_param {
    axis: 1
  }
}
layer {
  name: "conv9_2_mbox_conf"
  type: "Convolution"
  bottom: "conv9_2"
  top: "conv9_2_mbox_conf"
  param {
    lr_mult: 1
    decay_mult: 1
  }
  param {
    lr_mult: 2
    decay_mult: 0
  }
  convolution_param {
    num_output: 84
    pad: 1
    kernel_size: 3
    stride: 1
    weight_filler {
      type: "xavier"
    }
    bias_filler {
      type: "constant"
      value: 0
    }
  }
}
layer {
  name: "conv9_2_mbox_conf_perm"
  type: "Permute"
  bottom: "conv9_2_mbox_conf"
  top: "conv9_2_mbox_conf_perm"
  permute_param {
    order: 0
    order: 2
    order: 3
    order: 1
  }
}
layer {
  name: "conv9_2_mbox_conf_flat"
  type: "Flatten"
  bottom: "conv9_2_mbox_conf_perm"
  top: "conv9_2_mbox_conf_flat"
  flatten_param {
    axis: 1
  }
}
layer {
  name: "conv9_2_mbox_priorbox"
  type: "PriorBox"
  bottom: "conv9_2"
  bottom: "data"
  top: "conv9_2_mbox_priorbox"
  prior_box_param {
    min_size: 264
    max_size: 315
    aspect_ratio: 2
    flip: true
    clip: false
    variance: 0.1
    variance: 0.1
    variance: 0.2
    variance: 0.2
    step: 300
    offset: 0.5
  }
}
layer {
  name: "mbox_loc"
  type: "Concat"
  bottom: "conv4_3_norm_mbox_loc_flat"
  bottom: "fc7_mbox_loc_flat"
  bottom: "conv6_2_mbox_loc_flat"
  bottom: "conv7_2_mbox_loc_flat"
  bottom: "conv8_2_mbox_loc_flat"
  bottom: "conv9_2_mbox_loc_flat"
  top: "mbox_loc"
  concat_param {
    axis: 1
  }
}
layer {
  name: "mbox_conf"
  type: "Concat"
  bottom: "conv4_3_norm_mbox_conf_flat"
  bottom: "fc7_mbox_conf_flat"
  bottom: "conv6_2_mbox_conf_flat"
  bottom: "conv7_2_mbox_conf_flat"
  bottom: "conv8_2_mbox_conf_flat"
  bottom: "conv9_2_mbox_conf_flat"
  top: "mbox_conf"
  concat_param {
    axis: 1
  }
}
layer {
  name: "mbox_priorbox"
  type: "Concat"
  bottom: "conv4_3_norm_mbox_priorbox"
  bottom: "fc7_mbox_priorbox"
  bottom: "conv6_2_mbox_priorbox"
  bottom: "conv7_2_mbox_priorbox"
  bottom: "conv8_2_mbox_priorbox"
  bottom: "conv9_2_mbox_priorbox"
  top: "mbox_priorbox"
  concat_param {
    axis: 2
  }
}
layer {
  name: "mbox_loss"
  type: "MultiBoxLoss"
  bottom: "mbox_loc"
  bottom: "mbox_conf"
  bottom: "mbox_priorbox"
  bottom: "label"
  top: "mbox_loss"
  include {
    phase: TRAIN
  }
  propagate_down: true
  propagate_down: true
  propagate_down: false
  propagate_down: false
  loss_param {
    normalization: VALID
  }
  multibox_loss_param {
    loc_loss_type: SMOOTH_L1
    conf_loss_type: SOFTMAX
    loc_weight: 1
    num_classes: 21
    share_location: true
    match_type: PER_PREDICTION
    overlap_threshold: 0.5
    use_prior_for_matching: true
    background_label_id: 0
    use_difficult_gt: true
    neg_pos_ratio: 3
    neg_overlap: 0.5
    code_type: CENTER_SIZE
    ignore_cross_boundary_bbox: false
    mining_type: MAX_NEGATIVE
  }
}
I0725 17:03:02.792181 12822 layer_factory.hpp:77] Creating layer data
I0725 17:03:02.792637 12822 net.cpp:100] Creating Layer data
I0725 17:03:02.792664 12822 net.cpp:408] data -> data
I0725 17:03:02.792704 12822 net.cpp:408] data -> label
I0725 17:03:02.793385 12829 db_lmdb.cpp:35] Opened lmdb /home/bvi/data/VOCdevkit/VOC0712/lmdb/VOC0712_trainval_lmdb
I0725 17:03:02.803326 12822 annotated_data_layer.cpp:62] output data size: 1,3,300,300
I0725 17:03:02.805757 12822 net.cpp:150] Setting up data
I0725 17:03:02.805793 12822 net.cpp:157] Top shape: 1 3 300 300 (270000)
I0725 17:03:02.805796 12822 net.cpp:157] Top shape: 1 1 1 8 (8)
I0725 17:03:02.805845 12822 net.cpp:165] Memory required for data: 1080032
I0725 17:03:02.805853 12822 layer_factory.hpp:77] Creating layer data_data_0_split
I0725 17:03:02.805877 12822 net.cpp:100] Creating Layer data_data_0_split
I0725 17:03:02.805882 12822 net.cpp:434] data_data_0_split <- data
I0725 17:03:02.805892 12822 net.cpp:408] data_data_0_split -> data_data_0_split_0
I0725 17:03:02.805901 12822 net.cpp:408] data_data_0_split -> data_data_0_split_1
I0725 17:03:02.805905 12822 net.cpp:408] data_data_0_split -> data_data_0_split_2
I0725 17:03:02.805912 12822 net.cpp:408] data_data_0_split -> data_data_0_split_3
I0725 17:03:02.805915 12822 net.cpp:408] data_data_0_split -> data_data_0_split_4
I0725 17:03:02.805919 12822 net.cpp:408] data_data_0_split -> data_data_0_split_5
I0725 17:03:02.805923 12822 net.cpp:408] data_data_0_split -> data_data_0_split_6
I0725 17:03:02.806006 12822 net.cpp:150] Setting up data_data_0_split
I0725 17:03:02.806010 12822 net.cpp:157] Top shape: 1 3 300 300 (270000)
I0725 17:03:02.806012 12822 net.cpp:157] Top shape: 1 3 300 300 (270000)
I0725 17:03:02.806015 12822 net.cpp:157] Top shape: 1 3 300 300 (270000)
I0725 17:03:02.806032 12822 net.cpp:157] Top shape: 1 3 300 300 (270000)
I0725 17:03:02.806035 12822 net.cpp:157] Top shape: 1 3 300 300 (270000)
I0725 17:03:02.806036 12822 net.cpp:157] Top shape: 1 3 300 300 (270000)
I0725 17:03:02.806040 12822 net.cpp:157] Top shape: 1 3 300 300 (270000)
I0725 17:03:02.806041 12822 net.cpp:165] Memory required for data: 8640032
I0725 17:03:02.806043 12822 layer_factory.hpp:77] Creating layer conv1_1
I0725 17:03:02.806057 12822 net.cpp:100] Creating Layer conv1_1
I0725 17:03:02.806072 12822 net.cpp:434] conv1_1 <- data_data_0_split_0
I0725 17:03:02.806077 12822 net.cpp:408] conv1_1 -> conv1_1
I0725 17:03:02.991772 12822 net.cpp:150] Setting up conv1_1
I0725 17:03:02.991812 12822 net.cpp:157] Top shape: 1 64 300 300 (5760000)
I0725 17:03:02.991814 12822 net.cpp:165] Memory required for data: 31680032
I0725 17:03:02.991833 12822 layer_factory.hpp:77] Creating layer relu1_1
I0725 17:03:02.991845 12822 net.cpp:100] Creating Layer relu1_1
I0725 17:03:02.991848 12822 net.cpp:434] relu1_1 <- conv1_1
I0725 17:03:02.991853 12822 net.cpp:395] relu1_1 -> conv1_1 (in-place)
I0725 17:03:02.991983 12822 net.cpp:150] Setting up relu1_1
I0725 17:03:02.991989 12822 net.cpp:157] Top shape: 1 64 300 300 (5760000)
I0725 17:03:02.991991 12822 net.cpp:165] Memory required for data: 54720032
I0725 17:03:02.991993 12822 layer_factory.hpp:77] Creating layer conv1_2
I0725 17:03:02.992003 12822 net.cpp:100] Creating Layer conv1_2
I0725 17:03:02.992005 12822 net.cpp:434] conv1_2 <- conv1_1
I0725 17:03:02.992008 12822 net.cpp:408] conv1_2 -> conv1_2
I0725 17:03:02.993594 12822 net.cpp:150] Setting up conv1_2
I0725 17:03:02.993603 12822 net.cpp:157] Top shape: 1 64 300 300 (5760000)
I0725 17:03:02.993605 12822 net.cpp:165] Memory required for data: 77760032
I0725 17:03:02.993610 12822 layer_factory.hpp:77] Creating layer relu1_2
I0725 17:03:02.993628 12822 net.cpp:100] Creating Layer relu1_2
I0725 17:03:02.993631 12822 net.cpp:434] relu1_2 <- conv1_2
I0725 17:03:02.993634 12822 net.cpp:395] relu1_2 -> conv1_2 (in-place)
I0725 17:03:02.993949 12822 net.cpp:150] Setting up relu1_2
I0725 17:03:02.993957 12822 net.cpp:157] Top shape: 1 64 300 300 (5760000)
I0725 17:03:02.993958 12822 net.cpp:165] Memory required for data: 100800032
I0725 17:03:02.993960 12822 layer_factory.hpp:77] Creating layer pool1
I0725 17:03:02.993965 12822 net.cpp:100] Creating Layer pool1
I0725 17:03:02.993966 12822 net.cpp:434] pool1 <- conv1_2
I0725 17:03:02.993985 12822 net.cpp:408] pool1 -> pool1
I0725 17:03:02.994036 12822 net.cpp:150] Setting up pool1
I0725 17:03:02.994040 12822 net.cpp:157] Top shape: 1 64 150 150 (1440000)
I0725 17:03:02.994042 12822 net.cpp:165] Memory required for data: 106560032
I0725 17:03:02.994045 12822 layer_factory.hpp:77] Creating layer conv2_1
I0725 17:03:02.994050 12822 net.cpp:100] Creating Layer conv2_1
I0725 17:03:02.994051 12822 net.cpp:434] conv2_1 <- pool1
I0725 17:03:02.994087 12822 net.cpp:408] conv2_1 -> conv2_1
I0725 17:03:02.995282 12822 net.cpp:150] Setting up conv2_1
I0725 17:03:02.995290 12822 net.cpp:157] Top shape: 1 128 150 150 (2880000)
I0725 17:03:02.995291 12822 net.cpp:165] Memory required for data: 118080032
I0725 17:03:02.995297 12822 layer_factory.hpp:77] Creating layer relu2_1
I0725 17:03:02.995302 12822 net.cpp:100] Creating Layer relu2_1
I0725 17:03:02.995319 12822 net.cpp:434] relu2_1 <- conv2_1
I0725 17:03:02.995322 12822 net.cpp:395] relu2_1 -> conv2_1 (in-place)
I0725 17:03:02.995630 12822 net.cpp:150] Setting up relu2_1
I0725 17:03:02.995637 12822 net.cpp:157] Top shape: 1 128 150 150 (2880000)
I0725 17:03:02.995640 12822 net.cpp:165] Memory required for data: 129600032
I0725 17:03:02.995641 12822 layer_factory.hpp:77] Creating layer conv2_2
I0725 17:03:02.995646 12822 net.cpp:100] Creating Layer conv2_2
I0725 17:03:02.995649 12822 net.cpp:434] conv2_2 <- conv2_1
I0725 17:03:02.995667 12822 net.cpp:408] conv2_2 -> conv2_2
I0725 17:03:02.997644 12822 net.cpp:150] Setting up conv2_2
I0725 17:03:02.997653 12822 net.cpp:157] Top shape: 1 128 150 150 (2880000)
I0725 17:03:02.997655 12822 net.cpp:165] Memory required for data: 141120032
I0725 17:03:02.997659 12822 layer_factory.hpp:77] Creating layer relu2_2
I0725 17:03:02.997663 12822 net.cpp:100] Creating Layer relu2_2
I0725 17:03:02.997679 12822 net.cpp:434] relu2_2 <- conv2_2
I0725 17:03:02.997683 12822 net.cpp:395] relu2_2 -> conv2_2 (in-place)
I0725 17:03:02.997819 12822 net.cpp:150] Setting up relu2_2
I0725 17:03:02.997824 12822 net.cpp:157] Top shape: 1 128 150 150 (2880000)
I0725 17:03:02.997826 12822 net.cpp:165] Memory required for data: 152640032
I0725 17:03:02.997828 12822 layer_factory.hpp:77] Creating layer pool2
I0725 17:03:02.997831 12822 net.cpp:100] Creating Layer pool2
I0725 17:03:02.997833 12822 net.cpp:434] pool2 <- conv2_2
I0725 17:03:02.997851 12822 net.cpp:408] pool2 -> pool2
I0725 17:03:02.997894 12822 net.cpp:150] Setting up pool2
I0725 17:03:02.997898 12822 net.cpp:157] Top shape: 1 128 75 75 (720000)
I0725 17:03:02.997900 12822 net.cpp:165] Memory required for data: 155520032
I0725 17:03:02.997901 12822 layer_factory.hpp:77] Creating layer conv3_1
I0725 17:03:02.997910 12822 net.cpp:100] Creating Layer conv3_1
I0725 17:03:02.997912 12822 net.cpp:434] conv3_1 <- pool2
I0725 17:03:02.997915 12822 net.cpp:408] conv3_1 -> conv3_1
I0725 17:03:03.000782 12822 net.cpp:150] Setting up conv3_1
I0725 17:03:03.000792 12822 net.cpp:157] Top shape: 1 256 75 75 (1440000)
I0725 17:03:03.000793 12822 net.cpp:165] Memory required for data: 161280032
I0725 17:03:03.000800 12822 layer_factory.hpp:77] Creating layer relu3_1
I0725 17:03:03.000819 12822 net.cpp:100] Creating Layer relu3_1
I0725 17:03:03.000823 12822 net.cpp:434] relu3_1 <- conv3_1
I0725 17:03:03.000839 12822 net.cpp:395] relu3_1 -> conv3_1 (in-place)
I0725 17:03:03.001166 12822 net.cpp:150] Setting up relu3_1
I0725 17:03:03.001173 12822 net.cpp:157] Top shape: 1 256 75 75 (1440000)
I0725 17:03:03.001176 12822 net.cpp:165] Memory required for data: 167040032
I0725 17:03:03.001178 12822 layer_factory.hpp:77] Creating layer conv3_2
I0725 17:03:03.001184 12822 net.cpp:100] Creating Layer conv3_2
I0725 17:03:03.001201 12822 net.cpp:434] conv3_2 <- conv3_1
I0725 17:03:03.001205 12822 net.cpp:408] conv3_2 -> conv3_2
I0725 17:03:03.004967 12822 net.cpp:150] Setting up conv3_2
I0725 17:03:03.004979 12822 net.cpp:157] Top shape: 1 256 75 75 (1440000)
I0725 17:03:03.004981 12822 net.cpp:165] Memory required for data: 172800032
I0725 17:03:03.004987 12822 layer_factory.hpp:77] Creating layer relu3_2
I0725 17:03:03.005004 12822 net.cpp:100] Creating Layer relu3_2
I0725 17:03:03.005007 12822 net.cpp:434] relu3_2 <- conv3_2
I0725 17:03:03.005010 12822 net.cpp:395] relu3_2 -> conv3_2 (in-place)
I0725 17:03:03.005345 12822 net.cpp:150] Setting up relu3_2
I0725 17:03:03.005352 12822 net.cpp:157] Top shape: 1 256 75 75 (1440000)
I0725 17:03:03.005353 12822 net.cpp:165] Memory required for data: 178560032
I0725 17:03:03.005355 12822 layer_factory.hpp:77] Creating layer conv3_3
I0725 17:03:03.005403 12822 net.cpp:100] Creating Layer conv3_3
I0725 17:03:03.005405 12822 net.cpp:434] conv3_3 <- conv3_2
I0725 17:03:03.005410 12822 net.cpp:408] conv3_3 -> conv3_3
I0725 17:03:03.009383 12822 net.cpp:150] Setting up conv3_3
I0725 17:03:03.009395 12822 net.cpp:157] Top shape: 1 256 75 75 (1440000)
I0725 17:03:03.009397 12822 net.cpp:165] Memory required for data: 184320032
I0725 17:03:03.009402 12822 layer_factory.hpp:77] Creating layer relu3_3
I0725 17:03:03.009407 12822 net.cpp:100] Creating Layer relu3_3
I0725 17:03:03.009423 12822 net.cpp:434] relu3_3 <- conv3_3
I0725 17:03:03.009428 12822 net.cpp:395] relu3_3 -> conv3_3 (in-place)
I0725 17:03:03.009569 12822 net.cpp:150] Setting up relu3_3
I0725 17:03:03.009575 12822 net.cpp:157] Top shape: 1 256 75 75 (1440000)
I0725 17:03:03.009577 12822 net.cpp:165] Memory required for data: 190080032
I0725 17:03:03.009579 12822 layer_factory.hpp:77] Creating layer pool3
I0725 17:03:03.009584 12822 net.cpp:100] Creating Layer pool3
I0725 17:03:03.009587 12822 net.cpp:434] pool3 <- conv3_3
I0725 17:03:03.009590 12822 net.cpp:408] pool3 -> pool3
I0725 17:03:03.009649 12822 net.cpp:150] Setting up pool3
I0725 17:03:03.009654 12822 net.cpp:157] Top shape: 1 256 38 38 (369664)
I0725 17:03:03.009655 12822 net.cpp:165] Memory required for data: 191558688
I0725 17:03:03.009657 12822 layer_factory.hpp:77] Creating layer conv4_1
I0725 17:03:03.009663 12822 net.cpp:100] Creating Layer conv4_1
I0725 17:03:03.009665 12822 net.cpp:434] conv4_1 <- pool3
I0725 17:03:03.009683 12822 net.cpp:408] conv4_1 -> conv4_1
I0725 17:03:03.016980 12822 net.cpp:150] Setting up conv4_1
I0725 17:03:03.017004 12822 net.cpp:157] Top shape: 1 512 38 38 (739328)
I0725 17:03:03.017005 12822 net.cpp:165] Memory required for data: 194516000
I0725 17:03:03.017026 12822 layer_factory.hpp:77] Creating layer relu4_1
I0725 17:03:03.017050 12822 net.cpp:100] Creating Layer relu4_1
I0725 17:03:03.017052 12822 net.cpp:434] relu4_1 <- conv4_1
I0725 17:03:03.017057 12822 net.cpp:395] relu4_1 -> conv4_1 (in-place)
I0725 17:03:03.017391 12822 net.cpp:150] Setting up relu4_1
I0725 17:03:03.017398 12822 net.cpp:157] Top shape: 1 512 38 38 (739328)
I0725 17:03:03.017400 12822 net.cpp:165] Memory required for data: 197473312
I0725 17:03:03.017402 12822 layer_factory.hpp:77] Creating layer conv4_2
I0725 17:03:03.017410 12822 net.cpp:100] Creating Layer conv4_2
I0725 17:03:03.017427 12822 net.cpp:434] conv4_2 <- conv4_1
I0725 17:03:03.017431 12822 net.cpp:408] conv4_2 -> conv4_2
I0725 17:03:03.029698 12822 net.cpp:150] Setting up conv4_2
I0725 17:03:03.029719 12822 net.cpp:157] Top shape: 1 512 38 38 (739328)
I0725 17:03:03.029721 12822 net.cpp:165] Memory required for data: 200430624
I0725 17:03:03.029747 12822 layer_factory.hpp:77] Creating layer relu4_2
I0725 17:03:03.029757 12822 net.cpp:100] Creating Layer relu4_2
I0725 17:03:03.029759 12822 net.cpp:434] relu4_2 <- conv4_2
I0725 17:03:03.029778 12822 net.cpp:395] relu4_2 -> conv4_2 (in-place)
I0725 17:03:03.030123 12822 net.cpp:150] Setting up relu4_2
I0725 17:03:03.030130 12822 net.cpp:157] Top shape: 1 512 38 38 (739328)
I0725 17:03:03.030131 12822 net.cpp:165] Memory required for data: 203387936
I0725 17:03:03.030134 12822 layer_factory.hpp:77] Creating layer conv4_3
I0725 17:03:03.030156 12822 net.cpp:100] Creating Layer conv4_3
I0725 17:03:03.030158 12822 net.cpp:434] conv4_3 <- conv4_2
I0725 17:03:03.030163 12822 net.cpp:408] conv4_3 -> conv4_3
I0725 17:03:03.042588 12822 net.cpp:150] Setting up conv4_3
I0725 17:03:03.042613 12822 net.cpp:157] Top shape: 1 512 38 38 (739328)
I0725 17:03:03.042614 12822 net.cpp:165] Memory required for data: 206345248
I0725 17:03:03.042634 12822 layer_factory.hpp:77] Creating layer relu4_3
I0725 17:03:03.042646 12822 net.cpp:100] Creating Layer relu4_3
I0725 17:03:03.042649 12822 net.cpp:434] relu4_3 <- conv4_3
I0725 17:03:03.042667 12822 net.cpp:395] relu4_3 -> conv4_3 (in-place)
I0725 17:03:03.042812 12822 net.cpp:150] Setting up relu4_3
I0725 17:03:03.042817 12822 net.cpp:157] Top shape: 1 512 38 38 (739328)
I0725 17:03:03.042845 12822 net.cpp:165] Memory required for data: 209302560
I0725 17:03:03.042847 12822 layer_factory.hpp:77] Creating layer conv4_3_relu4_3_0_split
I0725 17:03:03.042852 12822 net.cpp:100] Creating Layer conv4_3_relu4_3_0_split
I0725 17:03:03.042867 12822 net.cpp:434] conv4_3_relu4_3_0_split <- conv4_3
I0725 17:03:03.042871 12822 net.cpp:408] conv4_3_relu4_3_0_split -> conv4_3_relu4_3_0_split_0
I0725 17:03:03.042876 12822 net.cpp:408] conv4_3_relu4_3_0_split -> conv4_3_relu4_3_0_split_1
I0725 17:03:03.042909 12822 net.cpp:150] Setting up conv4_3_relu4_3_0_split
I0725 17:03:03.042914 12822 net.cpp:157] Top shape: 1 512 38 38 (739328)
I0725 17:03:03.042928 12822 net.cpp:157] Top shape: 1 512 38 38 (739328)
I0725 17:03:03.042930 12822 net.cpp:165] Memory required for data: 215217184
I0725 17:03:03.042932 12822 layer_factory.hpp:77] Creating layer pool4
I0725 17:03:03.042937 12822 net.cpp:100] Creating Layer pool4
I0725 17:03:03.042953 12822 net.cpp:434] pool4 <- conv4_3_relu4_3_0_split_0
I0725 17:03:03.042956 12822 net.cpp:408] pool4 -> pool4
I0725 17:03:03.042996 12822 net.cpp:150] Setting up pool4
I0725 17:03:03.043000 12822 net.cpp:157] Top shape: 1 512 19 19 (184832)
I0725 17:03:03.043002 12822 net.cpp:165] Memory required for data: 215956512
I0725 17:03:03.043004 12822 layer_factory.hpp:77] Creating layer conv5_1
I0725 17:03:03.043012 12822 net.cpp:100] Creating Layer conv5_1
I0725 17:03:03.043015 12822 net.cpp:434] conv5_1 <- pool4
I0725 17:03:03.043018 12822 net.cpp:408] conv5_1 -> conv5_1
I0725 17:03:03.055797 12822 net.cpp:150] Setting up conv5_1
I0725 17:03:03.055815 12822 net.cpp:157] Top shape: 1 512 19 19 (184832)
I0725 17:03:03.055819 12822 net.cpp:165] Memory required for data: 216695840
I0725 17:03:03.055840 12822 layer_factory.hpp:77] Creating layer relu5_1
I0725 17:03:03.055860 12822 net.cpp:100] Creating Layer relu5_1
I0725 17:03:03.055863 12822 net.cpp:434] relu5_1 <- conv5_1
I0725 17:03:03.055869 12822 net.cpp:395] relu5_1 -> conv5_1 (in-place)
I0725 17:03:03.056224 12822 net.cpp:150] Setting up relu5_1
I0725 17:03:03.056232 12822 net.cpp:157] Top shape: 1 512 19 19 (184832)
I0725 17:03:03.056234 12822 net.cpp:165] Memory required for data: 217435168
I0725 17:03:03.056236 12822 layer_factory.hpp:77] Creating layer conv5_2
I0725 17:03:03.056246 12822 net.cpp:100] Creating Layer conv5_2
I0725 17:03:03.056248 12822 net.cpp:434] conv5_2 <- conv5_1
I0725 17:03:03.056265 12822 net.cpp:408] conv5_2 -> conv5_2
I0725 17:03:03.068606 12822 net.cpp:150] Setting up conv5_2
I0725 17:03:03.068626 12822 net.cpp:157] Top shape: 1 512 19 19 (184832)
I0725 17:03:03.068629 12822 net.cpp:165] Memory required for data: 218174496
I0725 17:03:03.068650 12822 layer_factory.hpp:77] Creating layer relu5_2
I0725 17:03:03.068660 12822 net.cpp:100] Creating Layer relu5_2
I0725 17:03:03.068663 12822 net.cpp:434] relu5_2 <- conv5_2
I0725 17:03:03.068672 12822 net.cpp:395] relu5_2 -> conv5_2 (in-place)
I0725 17:03:03.069022 12822 net.cpp:150] Setting up relu5_2
I0725 17:03:03.069031 12822 net.cpp:157] Top shape: 1 512 19 19 (184832)
I0725 17:03:03.069032 12822 net.cpp:165] Memory required for data: 218913824
I0725 17:03:03.069034 12822 layer_factory.hpp:77] Creating layer conv5_3
I0725 17:03:03.069056 12822 net.cpp:100] Creating Layer conv5_3
I0725 17:03:03.069059 12822 net.cpp:434] conv5_3 <- conv5_2
I0725 17:03:03.069063 12822 net.cpp:408] conv5_3 -> conv5_3
I0725 17:03:03.081593 12822 net.cpp:150] Setting up conv5_3
I0725 17:03:03.081614 12822 net.cpp:157] Top shape: 1 512 19 19 (184832)
I0725 17:03:03.081617 12822 net.cpp:165] Memory required for data: 219653152
I0725 17:03:03.081637 12822 layer_factory.hpp:77] Creating layer relu5_3
I0725 17:03:03.081667 12822 net.cpp:100] Creating Layer relu5_3
I0725 17:03:03.081672 12822 net.cpp:434] relu5_3 <- conv5_3
I0725 17:03:03.081677 12822 net.cpp:395] relu5_3 -> conv5_3 (in-place)
I0725 17:03:03.081818 12822 net.cpp:150] Setting up relu5_3
I0725 17:03:03.081823 12822 net.cpp:157] Top shape: 1 512 19 19 (184832)
I0725 17:03:03.081825 12822 net.cpp:165] Memory required for data: 220392480
I0725 17:03:03.081853 12822 layer_factory.hpp:77] Creating layer pool5
I0725 17:03:03.081858 12822 net.cpp:100] Creating Layer pool5
I0725 17:03:03.081861 12822 net.cpp:434] pool5 <- conv5_3
I0725 17:03:03.081864 12822 net.cpp:408] pool5 -> pool5
I0725 17:03:03.081912 12822 net.cpp:150] Setting up pool5
I0725 17:03:03.081915 12822 net.cpp:157] Top shape: 1 512 19 19 (184832)
I0725 17:03:03.081918 12822 net.cpp:165] Memory required for data: 221131808
I0725 17:03:03.081918 12822 layer_factory.hpp:77] Creating layer fc6
I0725 17:03:03.081928 12822 net.cpp:100] Creating Layer fc6
I0725 17:03:03.081944 12822 net.cpp:434] fc6 <- pool5
I0725 17:03:03.081948 12822 net.cpp:408] fc6 -> fc6
I0725 17:03:03.105016 12822 net.cpp:150] Setting up fc6
I0725 17:03:03.105039 12822 net.cpp:157] Top shape: 1 1024 19 19 (369664)
I0725 17:03:03.105041 12822 net.cpp:165] Memory required for data: 222610464
I0725 17:03:03.105062 12822 layer_factory.hpp:77] Creating layer relu6
I0725 17:03:03.105084 12822 net.cpp:100] Creating Layer relu6
I0725 17:03:03.105089 12822 net.cpp:434] relu6 <- fc6
I0725 17:03:03.105095 12822 net.cpp:395] relu6 -> fc6 (in-place)
I0725 17:03:03.105530 12822 net.cpp:150] Setting up relu6
I0725 17:03:03.105536 12822 net.cpp:157] Top shape: 1 1024 19 19 (369664)
I0725 17:03:03.105538 12822 net.cpp:165] Memory required for data: 224089120
I0725 17:03:03.105540 12822 layer_factory.hpp:77] Creating layer fc7
I0725 17:03:03.105566 12822 net.cpp:100] Creating Layer fc7
I0725 17:03:03.105568 12822 net.cpp:434] fc7 <- fc6
I0725 17:03:03.105572 12822 net.cpp:408] fc7 -> fc7
I0725 17:03:03.111557 12822 net.cpp:150] Setting up fc7
I0725 17:03:03.111574 12822 net.cpp:157] Top shape: 1 1024 19 19 (369664)
I0725 17:03:03.111577 12822 net.cpp:165] Memory required for data: 225567776
I0725 17:03:03.111582 12822 layer_factory.hpp:77] Creating layer relu7
I0725 17:03:03.111603 12822 net.cpp:100] Creating Layer relu7
I0725 17:03:03.111608 12822 net.cpp:434] relu7 <- fc7
I0725 17:03:03.111611 12822 net.cpp:395] relu7 -> fc7 (in-place)
I0725 17:03:03.111764 12822 net.cpp:150] Setting up relu7
I0725 17:03:03.111769 12822 net.cpp:157] Top shape: 1 1024 19 19 (369664)
I0725 17:03:03.111771 12822 net.cpp:165] Memory required for data: 227046432
I0725 17:03:03.111773 12822 layer_factory.hpp:77] Creating layer fc7_relu7_0_split
I0725 17:03:03.111778 12822 net.cpp:100] Creating Layer fc7_relu7_0_split
I0725 17:03:03.111778 12822 net.cpp:434] fc7_relu7_0_split <- fc7
I0725 17:03:03.111798 12822 net.cpp:408] fc7_relu7_0_split -> fc7_relu7_0_split_0
I0725 17:03:03.111801 12822 net.cpp:408] fc7_relu7_0_split -> fc7_relu7_0_split_1
I0725 17:03:03.111824 12822 net.cpp:408] fc7_relu7_0_split -> fc7_relu7_0_split_2
I0725 17:03:03.111829 12822 net.cpp:408] fc7_relu7_0_split -> fc7_relu7_0_split_3
I0725 17:03:03.111894 12822 net.cpp:150] Setting up fc7_relu7_0_split
I0725 17:03:03.111897 12822 net.cpp:157] Top shape: 1 1024 19 19 (369664)
I0725 17:03:03.111901 12822 net.cpp:157] Top shape: 1 1024 19 19 (369664)
I0725 17:03:03.111903 12822 net.cpp:157] Top shape: 1 1024 19 19 (369664)
I0725 17:03:03.111905 12822 net.cpp:157] Top shape: 1 1024 19 19 (369664)
I0725 17:03:03.111907 12822 net.cpp:165] Memory required for data: 232961056
I0725 17:03:03.111908 12822 layer_factory.hpp:77] Creating layer conv6_1
I0725 17:03:03.111930 12822 net.cpp:100] Creating Layer conv6_1
I0725 17:03:03.111932 12822 net.cpp:434] conv6_1 <- fc7_relu7_0_split_0
I0725 17:03:03.111937 12822 net.cpp:408] conv6_1 -> conv6_1
I0725 17:03:03.114446 12822 net.cpp:150] Setting up conv6_1
I0725 17:03:03.114455 12822 net.cpp:157] Top shape: 1 256 19 19 (92416)
I0725 17:03:03.114457 12822 net.cpp:165] Memory required for data: 233330720
I0725 17:03:03.114461 12822 layer_factory.hpp:77] Creating layer conv6_1_relu
I0725 17:03:03.114465 12822 net.cpp:100] Creating Layer conv6_1_relu
I0725 17:03:03.114482 12822 net.cpp:434] conv6_1_relu <- conv6_1
I0725 17:03:03.114486 12822 net.cpp:395] conv6_1_relu -> conv6_1 (in-place)
I0725 17:03:03.114645 12822 net.cpp:150] Setting up conv6_1_relu
I0725 17:03:03.114660 12822 net.cpp:157] Top shape: 1 256 19 19 (92416)
I0725 17:03:03.114661 12822 net.cpp:165] Memory required for data: 233700384
I0725 17:03:03.114663 12822 layer_factory.hpp:77] Creating layer conv6_2
I0725 17:03:03.114684 12822 net.cpp:100] Creating Layer conv6_2
I0725 17:03:03.114687 12822 net.cpp:434] conv6_2 <- conv6_1
I0725 17:03:03.114691 12822 net.cpp:408] conv6_2 -> conv6_2
I0725 17:03:03.121345 12822 net.cpp:150] Setting up conv6_2
I0725 17:03:03.121364 12822 net.cpp:157] Top shape: 1 512 10 10 (51200)
I0725 17:03:03.121367 12822 net.cpp:165] Memory required for data: 233905184
I0725 17:03:03.121398 12822 layer_factory.hpp:77] Creating layer conv6_2_relu
I0725 17:03:03.121407 12822 net.cpp:100] Creating Layer conv6_2_relu
I0725 17:03:03.121410 12822 net.cpp:434] conv6_2_relu <- conv6_2
I0725 17:03:03.121415 12822 net.cpp:395] conv6_2_relu -> conv6_2 (in-place)
I0725 17:03:03.121763 12822 net.cpp:150] Setting up conv6_2_relu
I0725 17:03:03.121772 12822 net.cpp:157] Top shape: 1 512 10 10 (51200)
I0725 17:03:03.121773 12822 net.cpp:165] Memory required for data: 234109984
I0725 17:03:03.121775 12822 layer_factory.hpp:77] Creating layer conv6_2_conv6_2_relu_0_split
I0725 17:03:03.121780 12822 net.cpp:100] Creating Layer conv6_2_conv6_2_relu_0_split
I0725 17:03:03.121783 12822 net.cpp:434] conv6_2_conv6_2_relu_0_split <- conv6_2
I0725 17:03:03.121800 12822 net.cpp:408] conv6_2_conv6_2_relu_0_split -> conv6_2_conv6_2_relu_0_split_0
I0725 17:03:03.121806 12822 net.cpp:408] conv6_2_conv6_2_relu_0_split -> conv6_2_conv6_2_relu_0_split_1
I0725 17:03:03.121810 12822 net.cpp:408] conv6_2_conv6_2_relu_0_split -> conv6_2_conv6_2_relu_0_split_2
I0725 17:03:03.121829 12822 net.cpp:408] conv6_2_conv6_2_relu_0_split -> conv6_2_conv6_2_relu_0_split_3
I0725 17:03:03.121898 12822 net.cpp:150] Setting up conv6_2_conv6_2_relu_0_split
I0725 17:03:03.121903 12822 net.cpp:157] Top shape: 1 512 10 10 (51200)
I0725 17:03:03.121906 12822 net.cpp:157] Top shape: 1 512 10 10 (51200)
I0725 17:03:03.121907 12822 net.cpp:157] Top shape: 1 512 10 10 (51200)
I0725 17:03:03.121909 12822 net.cpp:157] Top shape: 1 512 10 10 (51200)
I0725 17:03:03.121912 12822 net.cpp:165] Memory required for data: 234929184
I0725 17:03:03.121913 12822 layer_factory.hpp:77] Creating layer conv7_1
I0725 17:03:03.121934 12822 net.cpp:100] Creating Layer conv7_1
I0725 17:03:03.121937 12822 net.cpp:434] conv7_1 <- conv6_2_conv6_2_relu_0_split_0
I0725 17:03:03.121942 12822 net.cpp:408] conv7_1 -> conv7_1
I0725 17:03:03.123193 12822 net.cpp:150] Setting up conv7_1
I0725 17:03:03.123200 12822 net.cpp:157] Top shape: 1 128 10 10 (12800)
I0725 17:03:03.123203 12822 net.cpp:165] Memory required for data: 234980384
I0725 17:03:03.123206 12822 layer_factory.hpp:77] Creating layer conv7_1_relu
I0725 17:03:03.123210 12822 net.cpp:100] Creating Layer conv7_1_relu
I0725 17:03:03.123212 12822 net.cpp:434] conv7_1_relu <- conv7_1
I0725 17:03:03.123230 12822 net.cpp:395] conv7_1_relu -> conv7_1 (in-place)
I0725 17:03:03.123368 12822 net.cpp:150] Setting up conv7_1_relu
I0725 17:03:03.123373 12822 net.cpp:157] Top shape: 1 128 10 10 (12800)
I0725 17:03:03.123375 12822 net.cpp:165] Memory required for data: 235031584
I0725 17:03:03.123376 12822 layer_factory.hpp:77] Creating layer conv7_2
I0725 17:03:03.123395 12822 net.cpp:100] Creating Layer conv7_2
I0725 17:03:03.123397 12822 net.cpp:434] conv7_2 <- conv7_1
I0725 17:03:03.123416 12822 net.cpp:408] conv7_2 -> conv7_2
I0725 17:03:03.125901 12822 net.cpp:150] Setting up conv7_2
I0725 17:03:03.125912 12822 net.cpp:157] Top shape: 1 256 5 5 (6400)
I0725 17:03:03.125915 12822 net.cpp:165] Memory required for data: 235057184
I0725 17:03:03.125918 12822 layer_factory.hpp:77] Creating layer conv7_2_relu
I0725 17:03:03.125936 12822 net.cpp:100] Creating Layer conv7_2_relu
I0725 17:03:03.125938 12822 net.cpp:434] conv7_2_relu <- conv7_2
I0725 17:03:03.125941 12822 net.cpp:395] conv7_2_relu -> conv7_2 (in-place)
I0725 17:03:03.126077 12822 net.cpp:150] Setting up conv7_2_relu
I0725 17:03:03.126082 12822 net.cpp:157] Top shape: 1 256 5 5 (6400)
I0725 17:03:03.126109 12822 net.cpp:165] Memory required for data: 235082784
I0725 17:03:03.126111 12822 layer_factory.hpp:77] Creating layer conv7_2_conv7_2_relu_0_split
I0725 17:03:03.126114 12822 net.cpp:100] Creating Layer conv7_2_conv7_2_relu_0_split
I0725 17:03:03.126116 12822 net.cpp:434] conv7_2_conv7_2_relu_0_split <- conv7_2
I0725 17:03:03.126121 12822 net.cpp:408] conv7_2_conv7_2_relu_0_split -> conv7_2_conv7_2_relu_0_split_0
I0725 17:03:03.126127 12822 net.cpp:408] conv7_2_conv7_2_relu_0_split -> conv7_2_conv7_2_relu_0_split_1
I0725 17:03:03.126130 12822 net.cpp:408] conv7_2_conv7_2_relu_0_split -> conv7_2_conv7_2_relu_0_split_2
I0725 17:03:03.126135 12822 net.cpp:408] conv7_2_conv7_2_relu_0_split -> conv7_2_conv7_2_relu_0_split_3
I0725 17:03:03.126246 12822 net.cpp:150] Setting up conv7_2_conv7_2_relu_0_split
I0725 17:03:03.126250 12822 net.cpp:157] Top shape: 1 256 5 5 (6400)
I0725 17:03:03.126252 12822 net.cpp:157] Top shape: 1 256 5 5 (6400)
I0725 17:03:03.126255 12822 net.cpp:157] Top shape: 1 256 5 5 (6400)
I0725 17:03:03.126257 12822 net.cpp:157] Top shape: 1 256 5 5 (6400)
I0725 17:03:03.126260 12822 net.cpp:165] Memory required for data: 235185184
I0725 17:03:03.126260 12822 layer_factory.hpp:77] Creating layer conv8_1
I0725 17:03:03.126281 12822 net.cpp:100] Creating Layer conv8_1
I0725 17:03:03.126283 12822 net.cpp:434] conv8_1 <- conv7_2_conv7_2_relu_0_split_0
I0725 17:03:03.126289 12822 net.cpp:408] conv8_1 -> conv8_1
I0725 17:03:03.127413 12822 net.cpp:150] Setting up conv8_1
I0725 17:03:03.127421 12822 net.cpp:157] Top shape: 1 128 5 5 (3200)
I0725 17:03:03.127423 12822 net.cpp:165] Memory required for data: 235197984
I0725 17:03:03.127427 12822 layer_factory.hpp:77] Creating layer conv8_1_relu
I0725 17:03:03.127430 12822 net.cpp:100] Creating Layer conv8_1_relu
I0725 17:03:03.127447 12822 net.cpp:434] conv8_1_relu <- conv8_1
I0725 17:03:03.127450 12822 net.cpp:395] conv8_1_relu -> conv8_1 (in-place)
I0725 17:03:03.127779 12822 net.cpp:150] Setting up conv8_1_relu
I0725 17:03:03.127786 12822 net.cpp:157] Top shape: 1 128 5 5 (3200)
I0725 17:03:03.127789 12822 net.cpp:165] Memory required for data: 235210784
I0725 17:03:03.127790 12822 layer_factory.hpp:77] Creating layer conv8_2
I0725 17:03:03.127797 12822 net.cpp:100] Creating Layer conv8_2
I0725 17:03:03.127813 12822 net.cpp:434] conv8_2 <- conv8_1
I0725 17:03:03.127818 12822 net.cpp:408] conv8_2 -> conv8_2
I0725 17:03:03.130271 12822 net.cpp:150] Setting up conv8_2
I0725 17:03:03.130280 12822 net.cpp:157] Top shape: 1 256 3 3 (2304)
I0725 17:03:03.130282 12822 net.cpp:165] Memory required for data: 235220000
I0725 17:03:03.130286 12822 layer_factory.hpp:77] Creating layer conv8_2_relu
I0725 17:03:03.130291 12822 net.cpp:100] Creating Layer conv8_2_relu
I0725 17:03:03.130308 12822 net.cpp:434] conv8_2_relu <- conv8_2
I0725 17:03:03.130311 12822 net.cpp:395] conv8_2_relu -> conv8_2 (in-place)
I0725 17:03:03.130448 12822 net.cpp:150] Setting up conv8_2_relu
I0725 17:03:03.130455 12822 net.cpp:157] Top shape: 1 256 3 3 (2304)
I0725 17:03:03.130457 12822 net.cpp:165] Memory required for data: 235229216
I0725 17:03:03.130458 12822 layer_factory.hpp:77] Creating layer conv8_2_conv8_2_relu_0_split
I0725 17:03:03.130462 12822 net.cpp:100] Creating Layer conv8_2_conv8_2_relu_0_split
I0725 17:03:03.130463 12822 net.cpp:434] conv8_2_conv8_2_relu_0_split <- conv8_2
I0725 17:03:03.130483 12822 net.cpp:408] conv8_2_conv8_2_relu_0_split -> conv8_2_conv8_2_relu_0_split_0
I0725 17:03:03.130488 12822 net.cpp:408] conv8_2_conv8_2_relu_0_split -> conv8_2_conv8_2_relu_0_split_1
I0725 17:03:03.130492 12822 net.cpp:408] conv8_2_conv8_2_relu_0_split -> conv8_2_conv8_2_relu_0_split_2
I0725 17:03:03.130496 12822 net.cpp:408] conv8_2_conv8_2_relu_0_split -> conv8_2_conv8_2_relu_0_split_3
I0725 17:03:03.130564 12822 net.cpp:150] Setting up conv8_2_conv8_2_relu_0_split
I0725 17:03:03.130568 12822 net.cpp:157] Top shape: 1 256 3 3 (2304)
I0725 17:03:03.130570 12822 net.cpp:157] Top shape: 1 256 3 3 (2304)
I0725 17:03:03.130573 12822 net.cpp:157] Top shape: 1 256 3 3 (2304)
I0725 17:03:03.130583 12822 net.cpp:157] Top shape: 1 256 3 3 (2304)
I0725 17:03:03.130599 12822 net.cpp:165] Memory required for data: 235266080
I0725 17:03:03.130599 12822 layer_factory.hpp:77] Creating layer conv9_1
I0725 17:03:03.130609 12822 net.cpp:100] Creating Layer conv9_1
I0725 17:03:03.130610 12822 net.cpp:434] conv9_1 <- conv8_2_conv8_2_relu_0_split_0
I0725 17:03:03.130615 12822 net.cpp:408] conv9_1 -> conv9_1
I0725 17:03:03.131742 12822 net.cpp:150] Setting up conv9_1
I0725 17:03:03.131750 12822 net.cpp:157] Top shape: 1 128 3 3 (1152)
I0725 17:03:03.131753 12822 net.cpp:165] Memory required for data: 235270688
I0725 17:03:03.131757 12822 layer_factory.hpp:77] Creating layer conv9_1_relu
I0725 17:03:03.131760 12822 net.cpp:100] Creating Layer conv9_1_relu
I0725 17:03:03.131777 12822 net.cpp:434] conv9_1_relu <- conv9_1
I0725 17:03:03.131780 12822 net.cpp:395] conv9_1_relu -> conv9_1 (in-place)
I0725 17:03:03.131932 12822 net.cpp:150] Setting up conv9_1_relu
I0725 17:03:03.131937 12822 net.cpp:157] Top shape: 1 128 3 3 (1152)
I0725 17:03:03.131938 12822 net.cpp:165] Memory required for data: 235275296
I0725 17:03:03.131940 12822 layer_factory.hpp:77] Creating layer conv9_2
I0725 17:03:03.131945 12822 net.cpp:100] Creating Layer conv9_2
I0725 17:03:03.131947 12822 net.cpp:434] conv9_2 <- conv9_1
I0725 17:03:03.131966 12822 net.cpp:408] conv9_2 -> conv9_2
I0725 17:03:03.134410 12822 net.cpp:150] Setting up conv9_2
I0725 17:03:03.134418 12822 net.cpp:157] Top shape: 1 256 1 1 (256)
I0725 17:03:03.134420 12822 net.cpp:165] Memory required for data: 235276320
I0725 17:03:03.134424 12822 layer_factory.hpp:77] Creating layer conv9_2_relu
I0725 17:03:03.134428 12822 net.cpp:100] Creating Layer conv9_2_relu
I0725 17:03:03.134445 12822 net.cpp:434] conv9_2_relu <- conv9_2
I0725 17:03:03.134449 12822 net.cpp:395] conv9_2_relu -> conv9_2 (in-place)
I0725 17:03:03.134791 12822 net.cpp:150] Setting up conv9_2_relu
I0725 17:03:03.134799 12822 net.cpp:157] Top shape: 1 256 1 1 (256)
I0725 17:03:03.134800 12822 net.cpp:165] Memory required for data: 235277344
I0725 17:03:03.134802 12822 layer_factory.hpp:77] Creating layer conv9_2_conv9_2_relu_0_split
I0725 17:03:03.134806 12822 net.cpp:100] Creating Layer conv9_2_conv9_2_relu_0_split
I0725 17:03:03.134824 12822 net.cpp:434] conv9_2_conv9_2_relu_0_split <- conv9_2
I0725 17:03:03.134826 12822 net.cpp:408] conv9_2_conv9_2_relu_0_split -> conv9_2_conv9_2_relu_0_split_0
I0725 17:03:03.134832 12822 net.cpp:408] conv9_2_conv9_2_relu_0_split -> conv9_2_conv9_2_relu_0_split_1
I0725 17:03:03.134836 12822 net.cpp:408] conv9_2_conv9_2_relu_0_split -> conv9_2_conv9_2_relu_0_split_2
I0725 17:03:03.134894 12822 net.cpp:150] Setting up conv9_2_conv9_2_relu_0_split
I0725 17:03:03.134898 12822 net.cpp:157] Top shape: 1 256 1 1 (256)
I0725 17:03:03.134901 12822 net.cpp:157] Top shape: 1 256 1 1 (256)
I0725 17:03:03.134902 12822 net.cpp:157] Top shape: 1 256 1 1 (256)
I0725 17:03:03.134904 12822 net.cpp:165] Memory required for data: 235280416
I0725 17:03:03.134905 12822 layer_factory.hpp:77] Creating layer conv4_3_norm
I0725 17:03:03.134910 12822 net.cpp:100] Creating Layer conv4_3_norm
I0725 17:03:03.134927 12822 net.cpp:434] conv4_3_norm <- conv4_3_relu4_3_0_split_1
I0725 17:03:03.134932 12822 net.cpp:408] conv4_3_norm -> conv4_3_norm
I0725 17:03:03.135069 12822 net.cpp:150] Setting up conv4_3_norm
I0725 17:03:03.135073 12822 net.cpp:157] Top shape: 1 512 38 38 (739328)
I0725 17:03:03.135074 12822 net.cpp:165] Memory required for data: 238237728
I0725 17:03:03.135078 12822 layer_factory.hpp:77] Creating layer conv4_3_norm_conv4_3_norm_0_split
I0725 17:03:03.135082 12822 net.cpp:100] Creating Layer conv4_3_norm_conv4_3_norm_0_split
I0725 17:03:03.135083 12822 net.cpp:434] conv4_3_norm_conv4_3_norm_0_split <- conv4_3_norm
I0725 17:03:03.135100 12822 net.cpp:408] conv4_3_norm_conv4_3_norm_0_split -> conv4_3_norm_conv4_3_norm_0_split_0
I0725 17:03:03.135105 12822 net.cpp:408] conv4_3_norm_conv4_3_norm_0_split -> conv4_3_norm_conv4_3_norm_0_split_1
I0725 17:03:03.135118 12822 net.cpp:408] conv4_3_norm_conv4_3_norm_0_split -> conv4_3_norm_conv4_3_norm_0_split_2
I0725 17:03:03.135169 12822 net.cpp:150] Setting up conv4_3_norm_conv4_3_norm_0_split
I0725 17:03:03.135174 12822 net.cpp:157] Top shape: 1 512 38 38 (739328)
I0725 17:03:03.135176 12822 net.cpp:157] Top shape: 1 512 38 38 (739328)
I0725 17:03:03.135179 12822 net.cpp:157] Top shape: 1 512 38 38 (739328)
I0725 17:03:03.135180 12822 net.cpp:165] Memory required for data: 247109664
I0725 17:03:03.135182 12822 layer_factory.hpp:77] Creating layer conv4_3_norm_mbox_loc
I0725 17:03:03.135201 12822 net.cpp:100] Creating Layer conv4_3_norm_mbox_loc
I0725 17:03:03.135203 12822 net.cpp:434] conv4_3_norm_mbox_loc <- conv4_3_norm_conv4_3_norm_0_split_0
I0725 17:03:03.135222 12822 net.cpp:408] conv4_3_norm_mbox_loc -> conv4_3_norm_mbox_loc
I0725 17:03:03.136999 12822 net.cpp:150] Setting up conv4_3_norm_mbox_loc
I0725 17:03:03.137007 12822 net.cpp:157] Top shape: 1 16 38 38 (23104)
I0725 17:03:03.137009 12822 net.cpp:165] Memory required for data: 247202080
I0725 17:03:03.137013 12822 layer_factory.hpp:77] Creating layer conv4_3_norm_mbox_loc_perm
I0725 17:03:03.137033 12822 net.cpp:100] Creating Layer conv4_3_norm_mbox_loc_perm
I0725 17:03:03.137037 12822 net.cpp:434] conv4_3_norm_mbox_loc_perm <- conv4_3_norm_mbox_loc
I0725 17:03:03.137040 12822 net.cpp:408] conv4_3_norm_mbox_loc_perm -> conv4_3_norm_mbox_loc_perm
I0725 17:03:03.137143 12822 net.cpp:150] Setting up conv4_3_norm_mbox_loc_perm
I0725 17:03:03.137147 12822 net.cpp:157] Top shape: 1 38 38 16 (23104)
I0725 17:03:03.137150 12822 net.cpp:165] Memory required for data: 247294496
I0725 17:03:03.137151 12822 layer_factory.hpp:77] Creating layer conv4_3_norm_mbox_loc_flat
I0725 17:03:03.137156 12822 net.cpp:100] Creating Layer conv4_3_norm_mbox_loc_flat
I0725 17:03:03.137157 12822 net.cpp:434] conv4_3_norm_mbox_loc_flat <- conv4_3_norm_mbox_loc_perm
I0725 17:03:03.137176 12822 net.cpp:408] conv4_3_norm_mbox_loc_flat -> conv4_3_norm_mbox_loc_flat
I0725 17:03:03.137217 12822 net.cpp:150] Setting up conv4_3_norm_mbox_loc_flat
I0725 17:03:03.137221 12822 net.cpp:157] Top shape: 1 23104 (23104)
I0725 17:03:03.137223 12822 net.cpp:165] Memory required for data: 247386912
I0725 17:03:03.137224 12822 layer_factory.hpp:77] Creating layer conv4_3_norm_mbox_conf
I0725 17:03:03.137235 12822 net.cpp:100] Creating Layer conv4_3_norm_mbox_conf
I0725 17:03:03.137238 12822 net.cpp:434] conv4_3_norm_mbox_conf <- conv4_3_norm_conv4_3_norm_0_split_1
I0725 17:03:03.137241 12822 net.cpp:408] conv4_3_norm_mbox_conf -> conv4_3_norm_mbox_conf
I0725 17:03:03.140178 12822 net.cpp:150] Setting up conv4_3_norm_mbox_conf
I0725 17:03:03.140190 12822 net.cpp:157] Top shape: 1 84 38 38 (121296)
I0725 17:03:03.140192 12822 net.cpp:165] Memory required for data: 247872096
I0725 17:03:03.140197 12822 layer_factory.hpp:77] Creating layer conv4_3_norm_mbox_conf_perm
I0725 17:03:03.140218 12822 net.cpp:100] Creating Layer conv4_3_norm_mbox_conf_perm
I0725 17:03:03.140220 12822 net.cpp:434] conv4_3_norm_mbox_conf_perm <- conv4_3_norm_mbox_conf
I0725 17:03:03.140223 12822 net.cpp:408] conv4_3_norm_mbox_conf_perm -> conv4_3_norm_mbox_conf_perm
I0725 17:03:03.140338 12822 net.cpp:150] Setting up conv4_3_norm_mbox_conf_perm
I0725 17:03:03.140343 12822 net.cpp:157] Top shape: 1 38 38 84 (121296)
I0725 17:03:03.140346 12822 net.cpp:165] Memory required for data: 248357280
I0725 17:03:03.140347 12822 layer_factory.hpp:77] Creating layer conv4_3_norm_mbox_conf_flat
I0725 17:03:03.140350 12822 net.cpp:100] Creating Layer conv4_3_norm_mbox_conf_flat
I0725 17:03:03.140352 12822 net.cpp:434] conv4_3_norm_mbox_conf_flat <- conv4_3_norm_mbox_conf_perm
I0725 17:03:03.140357 12822 net.cpp:408] conv4_3_norm_mbox_conf_flat -> conv4_3_norm_mbox_conf_flat
I0725 17:03:03.140390 12822 net.cpp:150] Setting up conv4_3_norm_mbox_conf_flat
I0725 17:03:03.140393 12822 net.cpp:157] Top shape: 1 121296 (121296)
I0725 17:03:03.140408 12822 net.cpp:165] Memory required for data: 248842464
I0725 17:03:03.140410 12822 layer_factory.hpp:77] Creating layer conv4_3_norm_mbox_priorbox
I0725 17:03:03.140436 12822 net.cpp:100] Creating Layer conv4_3_norm_mbox_priorbox
I0725 17:03:03.140439 12822 net.cpp:434] conv4_3_norm_mbox_priorbox <- conv4_3_norm_conv4_3_norm_0_split_2
I0725 17:03:03.140442 12822 net.cpp:434] conv4_3_norm_mbox_priorbox <- data_data_0_split_1
I0725 17:03:03.140447 12822 net.cpp:408] conv4_3_norm_mbox_priorbox -> conv4_3_norm_mbox_priorbox
I0725 17:03:03.140486 12822 net.cpp:150] Setting up conv4_3_norm_mbox_priorbox
I0725 17:03:03.140489 12822 net.cpp:157] Top shape: 1 2 23104 (46208)
I0725 17:03:03.140491 12822 net.cpp:165] Memory required for data: 249027296
I0725 17:03:03.140493 12822 layer_factory.hpp:77] Creating layer fc7_mbox_loc
I0725 17:03:03.140499 12822 net.cpp:100] Creating Layer fc7_mbox_loc
I0725 17:03:03.140502 12822 net.cpp:434] fc7_mbox_loc <- fc7_relu7_0_split_1
I0725 17:03:03.140506 12822 net.cpp:408] fc7_mbox_loc -> fc7_mbox_loc
I0725 17:03:03.142889 12822 net.cpp:150] Setting up fc7_mbox_loc
I0725 17:03:03.142897 12822 net.cpp:157] Top shape: 1 24 19 19 (8664)
I0725 17:03:03.142899 12822 net.cpp:165] Memory required for data: 249061952
I0725 17:03:03.142904 12822 layer_factory.hpp:77] Creating layer fc7_mbox_loc_perm
I0725 17:03:03.142923 12822 net.cpp:100] Creating Layer fc7_mbox_loc_perm
I0725 17:03:03.142925 12822 net.cpp:434] fc7_mbox_loc_perm <- fc7_mbox_loc
I0725 17:03:03.142930 12822 net.cpp:408] fc7_mbox_loc_perm -> fc7_mbox_loc_perm
I0725 17:03:03.143030 12822 net.cpp:150] Setting up fc7_mbox_loc_perm
I0725 17:03:03.143035 12822 net.cpp:157] Top shape: 1 19 19 24 (8664)
I0725 17:03:03.143036 12822 net.cpp:165] Memory required for data: 249096608
I0725 17:03:03.143038 12822 layer_factory.hpp:77] Creating layer fc7_mbox_loc_flat
I0725 17:03:03.143043 12822 net.cpp:100] Creating Layer fc7_mbox_loc_flat
I0725 17:03:03.143044 12822 net.cpp:434] fc7_mbox_loc_flat <- fc7_mbox_loc_perm
I0725 17:03:03.143048 12822 net.cpp:408] fc7_mbox_loc_flat -> fc7_mbox_loc_flat
I0725 17:03:03.143095 12822 net.cpp:150] Setting up fc7_mbox_loc_flat
I0725 17:03:03.143111 12822 net.cpp:157] Top shape: 1 8664 (8664)
I0725 17:03:03.143113 12822 net.cpp:165] Memory required for data: 249131264
I0725 17:03:03.143115 12822 layer_factory.hpp:77] Creating layer fc7_mbox_conf
I0725 17:03:03.143133 12822 net.cpp:100] Creating Layer fc7_mbox_conf
I0725 17:03:03.143136 12822 net.cpp:434] fc7_mbox_conf <- fc7_relu7_0_split_2
I0725 17:03:03.143141 12822 net.cpp:408] fc7_mbox_conf -> fc7_mbox_conf
I0725 17:03:03.149955 12822 net.cpp:150] Setting up fc7_mbox_conf
I0725 17:03:03.149976 12822 net.cpp:157] Top shape: 1 126 19 19 (45486)
I0725 17:03:03.149978 12822 net.cpp:165] Memory required for data: 249313208
I0725 17:03:03.149999 12822 layer_factory.hpp:77] Creating layer fc7_mbox_conf_perm
I0725 17:03:03.150008 12822 net.cpp:100] Creating Layer fc7_mbox_conf_perm
I0725 17:03:03.150012 12822 net.cpp:434] fc7_mbox_conf_perm <- fc7_mbox_conf
I0725 17:03:03.150034 12822 net.cpp:408] fc7_mbox_conf_perm -> fc7_mbox_conf_perm
I0725 17:03:03.150142 12822 net.cpp:150] Setting up fc7_mbox_conf_perm
I0725 17:03:03.150147 12822 net.cpp:157] Top shape: 1 19 19 126 (45486)
I0725 17:03:03.150148 12822 net.cpp:165] Memory required for data: 249495152
I0725 17:03:03.150151 12822 layer_factory.hpp:77] Creating layer fc7_mbox_conf_flat
I0725 17:03:03.150154 12822 net.cpp:100] Creating Layer fc7_mbox_conf_flat
I0725 17:03:03.150156 12822 net.cpp:434] fc7_mbox_conf_flat <- fc7_mbox_conf_perm
I0725 17:03:03.150176 12822 net.cpp:408] fc7_mbox_conf_flat -> fc7_mbox_conf_flat
I0725 17:03:03.150207 12822 net.cpp:150] Setting up fc7_mbox_conf_flat
I0725 17:03:03.150212 12822 net.cpp:157] Top shape: 1 45486 (45486)
I0725 17:03:03.150213 12822 net.cpp:165] Memory required for data: 249677096
I0725 17:03:03.150214 12822 layer_factory.hpp:77] Creating layer fc7_mbox_priorbox
I0725 17:03:03.150219 12822 net.cpp:100] Creating Layer fc7_mbox_priorbox
I0725 17:03:03.150223 12822 net.cpp:434] fc7_mbox_priorbox <- fc7_relu7_0_split_3
I0725 17:03:03.150225 12822 net.cpp:434] fc7_mbox_priorbox <- data_data_0_split_2
I0725 17:03:03.150261 12822 net.cpp:408] fc7_mbox_priorbox -> fc7_mbox_priorbox
I0725 17:03:03.150310 12822 net.cpp:150] Setting up fc7_mbox_priorbox
I0725 17:03:03.150313 12822 net.cpp:157] Top shape: 1 2 8664 (17328)
I0725 17:03:03.150328 12822 net.cpp:165] Memory required for data: 249746408
I0725 17:03:03.150329 12822 layer_factory.hpp:77] Creating layer conv6_2_mbox_loc
I0725 17:03:03.150353 12822 net.cpp:100] Creating Layer conv6_2_mbox_loc
I0725 17:03:03.150357 12822 net.cpp:434] conv6_2_mbox_loc <- conv6_2_conv6_2_relu_0_split_1
I0725 17:03:03.150360 12822 net.cpp:408] conv6_2_mbox_loc -> conv6_2_mbox_loc
I0725 17:03:03.152319 12822 net.cpp:150] Setting up conv6_2_mbox_loc
I0725 17:03:03.152328 12822 net.cpp:157] Top shape: 1 24 10 10 (2400)
I0725 17:03:03.152330 12822 net.cpp:165] Memory required for data: 249756008
I0725 17:03:03.152334 12822 layer_factory.hpp:77] Creating layer conv6_2_mbox_loc_perm
I0725 17:03:03.152354 12822 net.cpp:100] Creating Layer conv6_2_mbox_loc_perm
I0725 17:03:03.152356 12822 net.cpp:434] conv6_2_mbox_loc_perm <- conv6_2_mbox_loc
I0725 17:03:03.152360 12822 net.cpp:408] conv6_2_mbox_loc_perm -> conv6_2_mbox_loc_perm
I0725 17:03:03.152467 12822 net.cpp:150] Setting up conv6_2_mbox_loc_perm
I0725 17:03:03.152470 12822 net.cpp:157] Top shape: 1 10 10 24 (2400)
I0725 17:03:03.152472 12822 net.cpp:165] Memory required for data: 249765608
I0725 17:03:03.152474 12822 layer_factory.hpp:77] Creating layer conv6_2_mbox_loc_flat
I0725 17:03:03.152478 12822 net.cpp:100] Creating Layer conv6_2_mbox_loc_flat
I0725 17:03:03.152480 12822 net.cpp:434] conv6_2_mbox_loc_flat <- conv6_2_mbox_loc_perm
I0725 17:03:03.152498 12822 net.cpp:408] conv6_2_mbox_loc_flat -> conv6_2_mbox_loc_flat
I0725 17:03:03.152518 12822 net.cpp:150] Setting up conv6_2_mbox_loc_flat
I0725 17:03:03.152534 12822 net.cpp:157] Top shape: 1 2400 (2400)
I0725 17:03:03.152535 12822 net.cpp:165] Memory required for data: 249775208
I0725 17:03:03.152537 12822 layer_factory.hpp:77] Creating layer conv6_2_mbox_conf
I0725 17:03:03.152544 12822 net.cpp:100] Creating Layer conv6_2_mbox_conf
I0725 17:03:03.152546 12822 net.cpp:434] conv6_2_mbox_conf <- conv6_2_conv6_2_relu_0_split_2
I0725 17:03:03.152565 12822 net.cpp:408] conv6_2_mbox_conf -> conv6_2_mbox_conf
I0725 17:03:03.156560 12822 net.cpp:150] Setting up conv6_2_mbox_conf
I0725 17:03:03.156571 12822 net.cpp:157] Top shape: 1 126 10 10 (12600)
I0725 17:03:03.156574 12822 net.cpp:165] Memory required for data: 249825608
I0725 17:03:03.156577 12822 layer_factory.hpp:77] Creating layer conv6_2_mbox_conf_perm
I0725 17:03:03.156597 12822 net.cpp:100] Creating Layer conv6_2_mbox_conf_perm
I0725 17:03:03.156599 12822 net.cpp:434] conv6_2_mbox_conf_perm <- conv6_2_mbox_conf
I0725 17:03:03.156605 12822 net.cpp:408] conv6_2_mbox_conf_perm -> conv6_2_mbox_conf_perm
I0725 17:03:03.156708 12822 net.cpp:150] Setting up conv6_2_mbox_conf_perm
I0725 17:03:03.156713 12822 net.cpp:157] Top shape: 1 10 10 126 (12600)
I0725 17:03:03.156715 12822 net.cpp:165] Memory required for data: 249876008
I0725 17:03:03.156716 12822 layer_factory.hpp:77] Creating layer conv6_2_mbox_conf_flat
I0725 17:03:03.156720 12822 net.cpp:100] Creating Layer conv6_2_mbox_conf_flat
I0725 17:03:03.156723 12822 net.cpp:434] conv6_2_mbox_conf_flat <- conv6_2_mbox_conf_perm
I0725 17:03:03.156740 12822 net.cpp:408] conv6_2_mbox_conf_flat -> conv6_2_mbox_conf_flat
I0725 17:03:03.156759 12822 net.cpp:150] Setting up conv6_2_mbox_conf_flat
I0725 17:03:03.156776 12822 net.cpp:157] Top shape: 1 12600 (12600)
I0725 17:03:03.156779 12822 net.cpp:165] Memory required for data: 249926408
I0725 17:03:03.156780 12822 layer_factory.hpp:77] Creating layer conv6_2_mbox_priorbox
I0725 17:03:03.156785 12822 net.cpp:100] Creating Layer conv6_2_mbox_priorbox
I0725 17:03:03.156786 12822 net.cpp:434] conv6_2_mbox_priorbox <- conv6_2_conv6_2_relu_0_split_3
I0725 17:03:03.156790 12822 net.cpp:434] conv6_2_mbox_priorbox <- data_data_0_split_3
I0725 17:03:03.156808 12822 net.cpp:408] conv6_2_mbox_priorbox -> conv6_2_mbox_priorbox
I0725 17:03:03.156852 12822 net.cpp:150] Setting up conv6_2_mbox_priorbox
I0725 17:03:03.156857 12822 net.cpp:157] Top shape: 1 2 2400 (4800)
I0725 17:03:03.156859 12822 net.cpp:165] Memory required for data: 249945608
I0725 17:03:03.156862 12822 layer_factory.hpp:77] Creating layer conv7_2_mbox_loc
I0725 17:03:03.156867 12822 net.cpp:100] Creating Layer conv7_2_mbox_loc
I0725 17:03:03.156870 12822 net.cpp:434] conv7_2_mbox_loc <- conv7_2_conv7_2_relu_0_split_1
I0725 17:03:03.156874 12822 net.cpp:408] conv7_2_mbox_loc -> conv7_2_mbox_loc
I0725 17:03:03.158411 12822 net.cpp:150] Setting up conv7_2_mbox_loc
I0725 17:03:03.158421 12822 net.cpp:157] Top shape: 1 24 5 5 (600)
I0725 17:03:03.158422 12822 net.cpp:165] Memory required for data: 249948008
I0725 17:03:03.158427 12822 layer_factory.hpp:77] Creating layer conv7_2_mbox_loc_perm
I0725 17:03:03.158445 12822 net.cpp:100] Creating Layer conv7_2_mbox_loc_perm
I0725 17:03:03.158447 12822 net.cpp:434] conv7_2_mbox_loc_perm <- conv7_2_mbox_loc
I0725 17:03:03.158452 12822 net.cpp:408] conv7_2_mbox_loc_perm -> conv7_2_mbox_loc_perm
I0725 17:03:03.158557 12822 net.cpp:150] Setting up conv7_2_mbox_loc_perm
I0725 17:03:03.158561 12822 net.cpp:157] Top shape: 1 5 5 24 (600)
I0725 17:03:03.158563 12822 net.cpp:165] Memory required for data: 249950408
I0725 17:03:03.158565 12822 layer_factory.hpp:77] Creating layer conv7_2_mbox_loc_flat
I0725 17:03:03.158568 12822 net.cpp:100] Creating Layer conv7_2_mbox_loc_flat
I0725 17:03:03.158571 12822 net.cpp:434] conv7_2_mbox_loc_flat <- conv7_2_mbox_loc_perm
I0725 17:03:03.158589 12822 net.cpp:408] conv7_2_mbox_loc_flat -> conv7_2_mbox_loc_flat
I0725 17:03:03.158622 12822 net.cpp:150] Setting up conv7_2_mbox_loc_flat
I0725 17:03:03.158625 12822 net.cpp:157] Top shape: 1 600 (600)
I0725 17:03:03.158627 12822 net.cpp:165] Memory required for data: 249952808
I0725 17:03:03.158628 12822 layer_factory.hpp:77] Creating layer conv7_2_mbox_conf
I0725 17:03:03.158635 12822 net.cpp:100] Creating Layer conv7_2_mbox_conf
I0725 17:03:03.158638 12822 net.cpp:434] conv7_2_mbox_conf <- conv7_2_conv7_2_relu_0_split_2
I0725 17:03:03.158643 12822 net.cpp:408] conv7_2_mbox_conf -> conv7_2_mbox_conf
I0725 17:03:03.161319 12822 net.cpp:150] Setting up conv7_2_mbox_conf
I0725 17:03:03.161327 12822 net.cpp:157] Top shape: 1 126 5 5 (3150)
I0725 17:03:03.161329 12822 net.cpp:165] Memory required for data: 249965408
I0725 17:03:03.161334 12822 layer_factory.hpp:77] Creating layer conv7_2_mbox_conf_perm
I0725 17:03:03.161337 12822 net.cpp:100] Creating Layer conv7_2_mbox_conf_perm
I0725 17:03:03.161355 12822 net.cpp:434] conv7_2_mbox_conf_perm <- conv7_2_mbox_conf
I0725 17:03:03.161360 12822 net.cpp:408] conv7_2_mbox_conf_perm -> conv7_2_mbox_conf_perm
I0725 17:03:03.161479 12822 net.cpp:150] Setting up conv7_2_mbox_conf_perm
I0725 17:03:03.161484 12822 net.cpp:157] Top shape: 1 5 5 126 (3150)
I0725 17:03:03.161485 12822 net.cpp:165] Memory required for data: 249978008
I0725 17:03:03.161487 12822 layer_factory.hpp:77] Creating layer conv7_2_mbox_conf_flat
I0725 17:03:03.161490 12822 net.cpp:100] Creating Layer conv7_2_mbox_conf_flat
I0725 17:03:03.161492 12822 net.cpp:434] conv7_2_mbox_conf_flat <- conv7_2_mbox_conf_perm
I0725 17:03:03.161511 12822 net.cpp:408] conv7_2_mbox_conf_flat -> conv7_2_mbox_conf_flat
I0725 17:03:03.161545 12822 net.cpp:150] Setting up conv7_2_mbox_conf_flat
I0725 17:03:03.161548 12822 net.cpp:157] Top shape: 1 3150 (3150)
I0725 17:03:03.161550 12822 net.cpp:165] Memory required for data: 249990608
I0725 17:03:03.161551 12822 layer_factory.hpp:77] Creating layer conv7_2_mbox_priorbox
I0725 17:03:03.161556 12822 net.cpp:100] Creating Layer conv7_2_mbox_priorbox
I0725 17:03:03.161558 12822 net.cpp:434] conv7_2_mbox_priorbox <- conv7_2_conv7_2_relu_0_split_3
I0725 17:03:03.161561 12822 net.cpp:434] conv7_2_mbox_priorbox <- data_data_0_split_4
I0725 17:03:03.161567 12822 net.cpp:408] conv7_2_mbox_priorbox -> conv7_2_mbox_priorbox
I0725 17:03:03.161589 12822 net.cpp:150] Setting up conv7_2_mbox_priorbox
I0725 17:03:03.161593 12822 net.cpp:157] Top shape: 1 2 600 (1200)
I0725 17:03:03.161604 12822 net.cpp:165] Memory required for data: 249995408
I0725 17:03:03.161607 12822 layer_factory.hpp:77] Creating layer conv8_2_mbox_loc
I0725 17:03:03.161612 12822 net.cpp:100] Creating Layer conv8_2_mbox_loc
I0725 17:03:03.161615 12822 net.cpp:434] conv8_2_mbox_loc <- conv8_2_conv8_2_relu_0_split_1
I0725 17:03:03.161619 12822 net.cpp:408] conv8_2_mbox_loc -> conv8_2_mbox_loc
I0725 17:03:03.163019 12822 net.cpp:150] Setting up conv8_2_mbox_loc
I0725 17:03:03.163028 12822 net.cpp:157] Top shape: 1 16 3 3 (144)
I0725 17:03:03.163031 12822 net.cpp:165] Memory required for data: 249995984
I0725 17:03:03.163043 12822 layer_factory.hpp:77] Creating layer conv8_2_mbox_loc_perm
I0725 17:03:03.163048 12822 net.cpp:100] Creating Layer conv8_2_mbox_loc_perm
I0725 17:03:03.163053 12822 net.cpp:434] conv8_2_mbox_loc_perm <- conv8_2_mbox_loc
I0725 17:03:03.163056 12822 net.cpp:408] conv8_2_mbox_loc_perm -> conv8_2_mbox_loc_perm
I0725 17:03:03.163152 12822 net.cpp:150] Setting up conv8_2_mbox_loc_perm
I0725 17:03:03.163157 12822 net.cpp:157] Top shape: 1 3 3 16 (144)
I0725 17:03:03.163161 12822 net.cpp:165] Memory required for data: 249996560
I0725 17:03:03.163161 12822 layer_factory.hpp:77] Creating layer conv8_2_mbox_loc_flat
I0725 17:03:03.163164 12822 net.cpp:100] Creating Layer conv8_2_mbox_loc_flat
I0725 17:03:03.163167 12822 net.cpp:434] conv8_2_mbox_loc_flat <- conv8_2_mbox_loc_perm
I0725 17:03:03.163173 12822 net.cpp:408] conv8_2_mbox_loc_flat -> conv8_2_mbox_loc_flat
I0725 17:03:03.163194 12822 net.cpp:150] Setting up conv8_2_mbox_loc_flat
I0725 17:03:03.163198 12822 net.cpp:157] Top shape: 1 144 (144)
I0725 17:03:03.163200 12822 net.cpp:165] Memory required for data: 249997136
I0725 17:03:03.163203 12822 layer_factory.hpp:77] Creating layer conv8_2_mbox_conf
I0725 17:03:03.163208 12822 net.cpp:100] Creating Layer conv8_2_mbox_conf
I0725 17:03:03.163211 12822 net.cpp:434] conv8_2_mbox_conf <- conv8_2_conv8_2_relu_0_split_2
I0725 17:03:03.163218 12822 net.cpp:408] conv8_2_mbox_conf -> conv8_2_mbox_conf
I0725 17:03:03.165534 12822 net.cpp:150] Setting up conv8_2_mbox_conf
I0725 17:03:03.165542 12822 net.cpp:157] Top shape: 1 84 3 3 (756)
I0725 17:03:03.165544 12822 net.cpp:165] Memory required for data: 250000160
I0725 17:03:03.165549 12822 layer_factory.hpp:77] Creating layer conv8_2_mbox_conf_perm
I0725 17:03:03.165554 12822 net.cpp:100] Creating Layer conv8_2_mbox_conf_perm
I0725 17:03:03.165556 12822 net.cpp:434] conv8_2_mbox_conf_perm <- conv8_2_mbox_conf
I0725 17:03:03.165561 12822 net.cpp:408] conv8_2_mbox_conf_perm -> conv8_2_mbox_conf_perm
I0725 17:03:03.165658 12822 net.cpp:150] Setting up conv8_2_mbox_conf_perm
I0725 17:03:03.165663 12822 net.cpp:157] Top shape: 1 3 3 84 (756)
I0725 17:03:03.165664 12822 net.cpp:165] Memory required for data: 250003184
I0725 17:03:03.165666 12822 layer_factory.hpp:77] Creating layer conv8_2_mbox_conf_flat
I0725 17:03:03.165670 12822 net.cpp:100] Creating Layer conv8_2_mbox_conf_flat
I0725 17:03:03.165674 12822 net.cpp:434] conv8_2_mbox_conf_flat <- conv8_2_mbox_conf_perm
I0725 17:03:03.165678 12822 net.cpp:408] conv8_2_mbox_conf_flat -> conv8_2_mbox_conf_flat
I0725 17:03:03.165697 12822 net.cpp:150] Setting up conv8_2_mbox_conf_flat
I0725 17:03:03.165701 12822 net.cpp:157] Top shape: 1 756 (756)
I0725 17:03:03.165704 12822 net.cpp:165] Memory required for data: 250006208
I0725 17:03:03.165706 12822 layer_factory.hpp:77] Creating layer conv8_2_mbox_priorbox
I0725 17:03:03.165711 12822 net.cpp:100] Creating Layer conv8_2_mbox_priorbox
I0725 17:03:03.165714 12822 net.cpp:434] conv8_2_mbox_priorbox <- conv8_2_conv8_2_relu_0_split_3
I0725 17:03:03.165717 12822 net.cpp:434] conv8_2_mbox_priorbox <- data_data_0_split_5
I0725 17:03:03.165722 12822 net.cpp:408] conv8_2_mbox_priorbox -> conv8_2_mbox_priorbox
I0725 17:03:03.165743 12822 net.cpp:150] Setting up conv8_2_mbox_priorbox
I0725 17:03:03.165747 12822 net.cpp:157] Top shape: 1 2 144 (288)
I0725 17:03:03.165750 12822 net.cpp:165] Memory required for data: 250007360
I0725 17:03:03.165751 12822 layer_factory.hpp:77] Creating layer conv9_2_mbox_loc
I0725 17:03:03.165767 12822 net.cpp:100] Creating Layer conv9_2_mbox_loc
I0725 17:03:03.165771 12822 net.cpp:434] conv9_2_mbox_loc <- conv9_2_conv9_2_relu_0_split_0
I0725 17:03:03.165776 12822 net.cpp:408] conv9_2_mbox_loc -> conv9_2_mbox_loc
I0725 17:03:03.167165 12822 net.cpp:150] Setting up conv9_2_mbox_loc
I0725 17:03:03.167172 12822 net.cpp:157] Top shape: 1 16 1 1 (16)
I0725 17:03:03.167174 12822 net.cpp:165] Memory required for data: 250007424
I0725 17:03:03.167179 12822 layer_factory.hpp:77] Creating layer conv9_2_mbox_loc_perm
I0725 17:03:03.167183 12822 net.cpp:100] Creating Layer conv9_2_mbox_loc_perm
I0725 17:03:03.167186 12822 net.cpp:434] conv9_2_mbox_loc_perm <- conv9_2_mbox_loc
I0725 17:03:03.167191 12822 net.cpp:408] conv9_2_mbox_loc_perm -> conv9_2_mbox_loc_perm
I0725 17:03:03.167290 12822 net.cpp:150] Setting up conv9_2_mbox_loc_perm
I0725 17:03:03.167294 12822 net.cpp:157] Top shape: 1 1 1 16 (16)
I0725 17:03:03.167296 12822 net.cpp:165] Memory required for data: 250007488
I0725 17:03:03.167299 12822 layer_factory.hpp:77] Creating layer conv9_2_mbox_loc_flat
I0725 17:03:03.167302 12822 net.cpp:100] Creating Layer conv9_2_mbox_loc_flat
I0725 17:03:03.167305 12822 net.cpp:434] conv9_2_mbox_loc_flat <- conv9_2_mbox_loc_perm
I0725 17:03:03.167309 12822 net.cpp:408] conv9_2_mbox_loc_flat -> conv9_2_mbox_loc_flat
I0725 17:03:03.167330 12822 net.cpp:150] Setting up conv9_2_mbox_loc_flat
I0725 17:03:03.167335 12822 net.cpp:157] Top shape: 1 16 (16)
I0725 17:03:03.167336 12822 net.cpp:165] Memory required for data: 250007552
I0725 17:03:03.167337 12822 layer_factory.hpp:77] Creating layer conv9_2_mbox_conf
I0725 17:03:03.167343 12822 net.cpp:100] Creating Layer conv9_2_mbox_conf
I0725 17:03:03.167346 12822 net.cpp:434] conv9_2_mbox_conf <- conv9_2_conv9_2_relu_0_split_1
I0725 17:03:03.167351 12822 net.cpp:408] conv9_2_mbox_conf -> conv9_2_mbox_conf
I0725 17:03:03.169726 12822 net.cpp:150] Setting up conv9_2_mbox_conf
I0725 17:03:03.169736 12822 net.cpp:157] Top shape: 1 84 1 1 (84)
I0725 17:03:03.169739 12822 net.cpp:165] Memory required for data: 250007888
I0725 17:03:03.169744 12822 layer_factory.hpp:77] Creating layer conv9_2_mbox_conf_perm
I0725 17:03:03.169749 12822 net.cpp:100] Creating Layer conv9_2_mbox_conf_perm
I0725 17:03:03.169751 12822 net.cpp:434] conv9_2_mbox_conf_perm <- conv9_2_mbox_conf
I0725 17:03:03.169757 12822 net.cpp:408] conv9_2_mbox_conf_perm -> conv9_2_mbox_conf_perm
I0725 17:03:03.169855 12822 net.cpp:150] Setting up conv9_2_mbox_conf_perm
I0725 17:03:03.169859 12822 net.cpp:157] Top shape: 1 1 1 84 (84)
I0725 17:03:03.169862 12822 net.cpp:165] Memory required for data: 250008224
I0725 17:03:03.169864 12822 layer_factory.hpp:77] Creating layer conv9_2_mbox_conf_flat
I0725 17:03:03.169868 12822 net.cpp:100] Creating Layer conv9_2_mbox_conf_flat
I0725 17:03:03.169872 12822 net.cpp:434] conv9_2_mbox_conf_flat <- conv9_2_mbox_conf_perm
I0725 17:03:03.169875 12822 net.cpp:408] conv9_2_mbox_conf_flat -> conv9_2_mbox_conf_flat
I0725 17:03:03.169895 12822 net.cpp:150] Setting up conv9_2_mbox_conf_flat
I0725 17:03:03.169899 12822 net.cpp:157] Top shape: 1 84 (84)
I0725 17:03:03.169900 12822 net.cpp:165] Memory required for data: 250008560
I0725 17:03:03.169903 12822 layer_factory.hpp:77] Creating layer conv9_2_mbox_priorbox
I0725 17:03:03.169909 12822 net.cpp:100] Creating Layer conv9_2_mbox_priorbox
I0725 17:03:03.169911 12822 net.cpp:434] conv9_2_mbox_priorbox <- conv9_2_conv9_2_relu_0_split_2
I0725 17:03:03.169914 12822 net.cpp:434] conv9_2_mbox_priorbox <- data_data_0_split_6
I0725 17:03:03.169919 12822 net.cpp:408] conv9_2_mbox_priorbox -> conv9_2_mbox_priorbox
I0725 17:03:03.169941 12822 net.cpp:150] Setting up conv9_2_mbox_priorbox
I0725 17:03:03.169945 12822 net.cpp:157] Top shape: 1 2 16 (32)
I0725 17:03:03.169946 12822 net.cpp:165] Memory required for data: 250008688
I0725 17:03:03.169948 12822 layer_factory.hpp:77] Creating layer mbox_loc
I0725 17:03:03.169953 12822 net.cpp:100] Creating Layer mbox_loc
I0725 17:03:03.169957 12822 net.cpp:434] mbox_loc <- conv4_3_norm_mbox_loc_flat
I0725 17:03:03.169968 12822 net.cpp:434] mbox_loc <- fc7_mbox_loc_flat
I0725 17:03:03.169972 12822 net.cpp:434] mbox_loc <- conv6_2_mbox_loc_flat
I0725 17:03:03.169976 12822 net.cpp:434] mbox_loc <- conv7_2_mbox_loc_flat
I0725 17:03:03.169980 12822 net.cpp:434] mbox_loc <- conv8_2_mbox_loc_flat
I0725 17:03:03.169982 12822 net.cpp:434] mbox_loc <- conv9_2_mbox_loc_flat
I0725 17:03:03.169986 12822 net.cpp:408] mbox_loc -> mbox_loc
I0725 17:03:03.170012 12822 net.cpp:150] Setting up mbox_loc
I0725 17:03:03.170016 12822 net.cpp:157] Top shape: 1 34928 (34928)
I0725 17:03:03.170017 12822 net.cpp:165] Memory required for data: 250148400
I0725 17:03:03.170019 12822 layer_factory.hpp:77] Creating layer mbox_conf
I0725 17:03:03.170024 12822 net.cpp:100] Creating Layer mbox_conf
I0725 17:03:03.170027 12822 net.cpp:434] mbox_conf <- conv4_3_norm_mbox_conf_flat
I0725 17:03:03.170030 12822 net.cpp:434] mbox_conf <- fc7_mbox_conf_flat
I0725 17:03:03.170034 12822 net.cpp:434] mbox_conf <- conv6_2_mbox_conf_flat
I0725 17:03:03.170038 12822 net.cpp:434] mbox_conf <- conv7_2_mbox_conf_flat
I0725 17:03:03.170040 12822 net.cpp:434] mbox_conf <- conv8_2_mbox_conf_flat
I0725 17:03:03.170043 12822 net.cpp:434] mbox_conf <- conv9_2_mbox_conf_flat
I0725 17:03:03.170047 12822 net.cpp:408] mbox_conf -> mbox_conf
I0725 17:03:03.170068 12822 net.cpp:150] Setting up mbox_conf
I0725 17:03:03.170071 12822 net.cpp:157] Top shape: 1 183372 (183372)
I0725 17:03:03.170073 12822 net.cpp:165] Memory required for data: 250881888
I0725 17:03:03.170074 12822 layer_factory.hpp:77] Creating layer mbox_priorbox
I0725 17:03:03.170078 12822 net.cpp:100] Creating Layer mbox_priorbox
I0725 17:03:03.170081 12822 net.cpp:434] mbox_priorbox <- conv4_3_norm_mbox_priorbox
I0725 17:03:03.170084 12822 net.cpp:434] mbox_priorbox <- fc7_mbox_priorbox
I0725 17:03:03.170087 12822 net.cpp:434] mbox_priorbox <- conv6_2_mbox_priorbox
I0725 17:03:03.170090 12822 net.cpp:434] mbox_priorbox <- conv7_2_mbox_priorbox
I0725 17:03:03.170092 12822 net.cpp:434] mbox_priorbox <- conv8_2_mbox_priorbox
I0725 17:03:03.170095 12822 net.cpp:434] mbox_priorbox <- conv9_2_mbox_priorbox
I0725 17:03:03.170099 12822 net.cpp:408] mbox_priorbox -> mbox_priorbox
I0725 17:03:03.170120 12822 net.cpp:150] Setting up mbox_priorbox
I0725 17:03:03.170123 12822 net.cpp:157] Top shape: 1 2 34928 (69856)
I0725 17:03:03.170125 12822 net.cpp:165] Memory required for data: 251161312
I0725 17:03:03.170126 12822 layer_factory.hpp:77] Creating layer mbox_loss
I0725 17:03:03.170135 12822 net.cpp:100] Creating Layer mbox_loss
I0725 17:03:03.170136 12822 net.cpp:434] mbox_loss <- mbox_loc
I0725 17:03:03.170140 12822 net.cpp:434] mbox_loss <- mbox_conf
I0725 17:03:03.170142 12822 net.cpp:434] mbox_loss <- mbox_priorbox
…
layer {
  name: "data"
  type: "AnnotatedData"
  top: "data"
  top: "label"
  include {
    phase: TEST
  }
  transform_param {
    mean_value: 104
    mean_value: 117
    mean_value: 123
    resize_param {
      prob: 1
      resize_mode: WARP
      height: 300
      width: 300
      interp_mode: LINEAR
    }
  }
  data_param {
    source: "examples/person_tracking/person_tracking_test_lmdb"
    batch_size: 8
    backend: LMDB
  }
  annotated_data_param {
    batch_sampler {
    }
    label_map_file: "data/person_tracking/labelmap_voc.prototxt"
  }
}
layer {
  name: "conv1_1"
  type: "Convolution"
  bottom: "data"
  top: "conv1_1"
  param {
    lr_mult: 1
    decay_mult: 1
  }
  param {
    lr_mult: 2
    decay_mult: 0
  }
  convolution_param {
    num_output: 64
    pad: 1
    kernel_size: 3
    weight_filler {
      type: "xavier"
    }
    bias_filler {
      type: "constant"
      value: 0
    }
  }
}
layer {
  name: "relu1_1"
  type: "ReLU"
  bottom: "conv1_1"
  top: "conv1_1"
}
layer {
  name: "conv1_2"
  type: "Convolution"
  bottom: "conv1_1"
  top: "conv1_2"
  param {
    lr_mult: 1
    decay_mult: 1
  }
  param {
    lr_mult: 2
    decay_mult: 0
  }
  convolution_param {
    num_output: 64
    pad: 1
    kernel_size: 3
    weight_filler {
      type: "xavier"
    }
    bias_filler {
      type: "constant"
      value: 0
    }
  }
}
layer {
  name: "relu1_2"
  type: "ReLU"
  bottom: "conv1_2"
  top: "conv1_2"
}
layer {
  name: "pool1"
  type: "Pooling"
  bottom: "conv1_2"
  top: "pool1"
  pooling_param {
    pool: MAX
    kernel_size: 2
    stride: 2
  }
}
layer {
  name: "conv2_1"
  type: "Convolution"
  bottom: "pool1"
  top: "conv2_1"
  param {
    lr_mult: 1
    decay_mult: 1
  }
  param {
    lr_mult: 2
    decay_mult: 0
  }
  convolution_param {
    num_output: 128
    pad: 1
    kernel_size: 3
    weight_filler {
      type: "xavier"
    }
    bias_filler {
      type: "constant"
      value: 0
    }
  }
}
layer {
  name: "relu2_1"
  type: "ReLU"
  bottom: "conv2_1"
  top: "conv2_1"
}
layer {
  name: "conv2_2"
  type: "Convolution"
  bottom: "conv2_1"
  top: "conv2_2"
  param {
    lr_mult: 1
    decay_mult: 1
  }
  param {
    lr_mult: 2
    decay_mult: 0
  }
  convolution_param {
    num_output: 128
    pad: 1
    kernel_size: 3
    weight_filler {
      type: "xavier"
    }
    bias_filler {
      type: "constant"
      value: 0
    }
  }
}
layer {
  name: "relu2_2"
  type: "ReLU"
  bottom: "conv2_2"
  top: "conv2_2"
}
layer {
  name: "pool2"
  type: "Pooling"
  bottom: "conv2_2"
  top: "pool2"
  pooling_param {
    pool: MAX
    kernel_size: 2
    stride: 2
  }
}
layer {
  name: "conv3_1"
  type: "Convolution"
  bottom: "pool2"
  top: "conv3_1"
  param {
    lr_mult: 1
    decay_mult: 1
  }
  param {
    lr_mult: 2
    decay_mult: 0
  }
  convolution_param {
    num_output: 256
    pad: 1
    kernel_size: 3
    weight_filler {
      type: "xavier"
    }
    bias_filler {
      type: "constant"
      value: 0
    }
  }
}
layer {
  name: "relu3_1"
  type: "ReLU"
  bottom: "conv3_1"
  top: "conv3_1"
}
layer {
  name: "conv3_2"
  type: "Convolution"
  bottom: "conv3_1"
  top: "conv3_2"
  param {
    lr_mult: 1
    decay_mult: 1
  }
  param {
    lr_mult: 2
    decay_mult: 0
  }
  convolution_param {
    num_output: 256
    pad: 1
    kernel_size: 3
    weight_filler {
      type: "xavier"
    }
    bias_filler {
      type: "constant"
      value: 0
    }
  }
}
layer {
  name: "relu3_2"
  type: "ReLU"
  bottom: "conv3_2"
  top: "conv3_2"
}
layer {
  name: "conv3_3"
  type: "Convolution"
  bottom: "conv3_2"
  top: "conv3_3"
  param {
    lr_mult: 1
    decay_mult: 1
  }
  param {
    lr_mult: 2
    decay_mult: 0
  }
  convolution_param {
    num_output: 256
    pad: 1
    kernel_size: 3
    weight_filler {
      type: "xavier"
    }
    bias_filler {
      type: "constant"
      value: 0
    }
  }
}
layer {
  name: "relu3_3"
  type: "ReLU"
  bottom: "conv3_3"
  top: "conv3_3"
}
layer {
  name: "pool3"
  type: "Pooling"
  bottom: "conv3_3"
  top: "pool3"
  pooling_param {
    pool: MAX
    kernel_size: 2
    stride: 2
  }
}
layer {
  name: "conv4_1"
  type: "Convolution"
  bottom: "pool3"
  top: "conv4_1"
  param {
    lr_mult: 1
    decay_mult: 1
  }
  param {
    lr_mult: 2
    decay_mult: 0
  }
  convolution_param {
    num_output: 512
    pad: 1
    kernel_size: 3
    weight_filler {
      type: "xavier"
    }
    bias_filler {
      type: "constant"
      value: 0
    }
  }
}
layer {
  name: "relu4_1"
  type: "ReLU"
  bottom: "conv4_1"
  top: "conv4_1"
}
layer {
  name: "conv4_2"
  type: "Convolution"
  bottom: "conv4_1"
  top: "conv4_2"
  param {
    lr_mult: 1
    decay_mult: 1
  }
  param {
    lr_mult: 2
    decay_mult: 0
  }
  convolution_param {
    num_output: 512
    pad: 1
    kernel_size: 3
    weight_filler {
      type: "xavier"
    }
    bias_filler {
      type: "constant"
      value: 0
    }
  }
}
layer {
  name: "relu4_2"
  type: "ReLU"
  bottom: "conv4_2"
  top: "conv4_2"
}
layer {
  name: "conv4_3"
  type: "Convolution"
  bottom: "conv4_2"
  top: "conv4_3"
  param {
    lr_mult: 1
    decay_mult: 1
  }
  param {
    lr_mult: 2
    decay_mult: 0
  }
  convolution_param {
    num_output: 512
    pad: 1
    kernel_size: 3
    weight_filler {
      type: "xavier"
    }
    bias_filler {
      type: "constant"
      value: 0
    }
  }
}
layer {
  name: "relu4_3"
  type: "ReLU"
  bottom: "conv4_3"
  top: "conv4_3"
}
layer {
  name: "pool4"
  type: "Pooling"
  bottom: "conv4_3"
  top: "pool4"
  pooling_param {
    pool: MAX
    kernel_size: 2
    stride: 2
  }
}
layer {
  name: "conv5_1"
  type: "Convolution"
  bottom: "pool4"
  top: "conv5_1"
  param {
    lr_mult: 1
    decay_mult: 1
  }
  param {
    lr_mult: 2
    decay_mult: 0
  }
  convolution_param {
    num_output: 512
    pad: 1
    kernel_size: 3
    weight_filler {
      type: "xavier"
    }
    bias_filler {
      type: "constant"
      value: 0
    }
    dilation: 1
  }
}
layer {
  name: "relu5_1"
  type: "ReLU"
  bottom: "conv5_1"
  top: "conv5_1"
}
layer {
  name: "conv5_2"
  type: "Convolution"
  bottom: "conv5_1"
  top: "conv5_2"
  param {
    lr_mult: 1
    decay_mult: 1
  }
  param {
    lr_mult: 2
    decay_mult: 0
  }
  convolution_param {
    num_output: 512
    pad: 1
    kernel_size: 3
    weight_filler {
      type: "xavier"
    }
    bias_filler {
      type: "constant"
      value: 0
    }
    dilation: 1
  }
}
layer {
  name: "relu5_2"
  type: "ReLU"
  bottom: "conv5_2"
  top: "conv5_2"
}
layer {
  name: "conv5_3"
  type: "Convolution"
  bottom: "conv5_2"
  top: "conv5_3"
  param {
    lr_mult: 1
    decay_mult: 1
  }
  param {
    lr_mult: 2
    decay_mult: 0
  }
  convolution_param {
    num_output: 512
    pad: 1
    kernel_size: 3
    weight_filler {
      type: "xavier"
    }
    bias_filler {
      type: "constant"
      value: 0
    }
    dilation: 1
  }
}
layer {
  name: "relu5_3"
  type: "ReLU"
  bottom: "conv5_3"
  top: "conv5_3"
}
layer {
  name: "pool5"
  type: "Pooling"
  bottom: "conv5_3"
  top: "pool5"
  pooling_param {
    pool: MAX
    kernel_size: 3
    stride: 1
    pad: 1
  }
}
layer {
  name: "fc6"
  type: "Convolution"
  bottom: "pool5"
  top: "fc6"
  param {
    lr_mult: 1
    decay_mult: 1
  }
  param {
    lr_mult: 2
    decay_mult: 0
  }
  convolution_param {
    num_output: 1024
    pad: 6
    kernel_size: 3
    weight_filler {
      type: "xavier"
    }
    bias_filler {
      type: "constant"
      value: 0
    }
    dilation: 6
  }
}
layer {
  name: "relu6"
  type: "ReLU"
  bottom: "fc6"
  top: "fc6"
}
layer {
  name: "fc7"
  type: "Convolution"
  bottom: "fc6"
  top: "fc7"
  param {
    lr_mult: 1
    decay_mult: 1
  }
  param {
    lr_mult: 2
    decay_mult: 0
  }
  convolution_param {
    num_output: 1024
    kernel_size: 1
    weight_filler {
      type: "xavier"
    }
    bias_filler {
      type: "constant"
      value: 0
    }
  }
}
layer {
  name: "relu7"
  type: "ReLU"
  bottom: "fc7"
  top: "fc7"
}
layer {
  name: "conv6_1"
  type: "Convolution"
  bottom: "fc7"
  top: "conv6_1"
  param {
    lr_mult: 1
    decay_mult: 1
  }
  param {
    lr_mult: 2
    decay_mult: 0
  }
  convolution_param {
    num_output: 256
    pad: 0
    kernel_size: 1
    stride: 1
    weight_filler {
      type: "xavier"
    }
    bias_filler {
      type: "constant"
      value: 0
    }
  }
}
layer {
  name: "conv6_1_relu"
  type: "ReLU"
  bottom: "conv6_1"
  top: "conv6_1"
}
layer {
  name: "conv6_2"
  type: "Convolution"
  bottom: "conv6_1"
  top: "conv6_2"
  param {
    lr_mult: 1
    decay_mult: 1
  }
  param {
    lr_mult: 2
    decay_mult: 0
  }
  convolution_param {
    num_output: 512
    pad: 1
    kernel_size: 3
    stride: 2
    weight_filler {
      type: "xavier"
    }
    bias_filler {
      type: "constant"
      value: 0
    }
  }
}
layer {
  name: "conv6_2_relu"
  type: "ReLU"
  bottom: "conv6_2"
  top: "conv6_2"
}
layer {
  name: "conv7_1"
  type: "Convolution"
  bottom: "conv6_2"
  top: "conv7_1"
  param {
    lr_mult: 1
    decay_mult: 1
  }
  param {
    lr_mult: 2
    decay_mult: 0
  }
  convolution_param {
    num_output: 128
    pad: 0
    kernel_size: 1
    stride: 1
    weight_filler {
      type: "xavier"
    }
    bias_filler {
      type: "constant"
      value: 0
    }
  }
}
layer {
  name: "conv7_1_relu"
  type: "ReLU"
  bottom: "conv7_1"
  top: "conv7_1"
}
layer {
  name: "conv7_2"
  type: "Convolution"
  bottom: "conv7_1"
  top: "conv7_2"
  param {
    lr_mult: 1
    decay_mult: 1
  }
  param {
    lr_mult: 2
    decay_mult: 0
  }
  convolution_param {
    num_output: 256
    pad: 1
    kernel_size: 3
    stride: 2
    weight_filler {
      type: "xavier"
    }
    bias_filler {
      type: "constant"
      value: 0
    }
  }
}
layer {
  name: "conv7_2_relu"
  type: "ReLU"
  bottom: "conv7_2"
  top: "conv7_2"
}
layer {
  name: "conv8_1"
  type: "Convolution"
  bottom: "conv7_2"
  top: "conv8_1"
  param {
    lr_mult: 1
    decay_mult: 1
  }
  param {
    lr_mult: 2
    decay_mult: 0
  }
  convolution_param {
    num_output: 128
    pad: 0
    kernel_size: 1
    stride: 1
    weight_filler {
      type: "xavier"
    }
    bias_filler {
      type: "constant"
      value: 0
    }
  }
}
layer {
  name: "conv8_1_relu"
  type: "ReLU"
  bottom: "conv8_1"
  top: "conv8_1"
}
layer {
  name: "conv8_2"
  type: "Convolution"
  bottom: "conv8_1"
  top: "conv8_2"
  param {
    lr_mult: 1
    decay_mult: 1
  }
  param {
    lr_mult: 2
    decay_mult: 0
  }
  convolution_param {
    num_output: 256
    pad: 0
    kernel_size: 3
    stride: 1
    weight_filler {
      type: "xavier"
    }
    bias_filler {
      type: "constant"
      value: 0
    }
  }
}
layer {
  name: "conv8_2_relu"
  type: "ReLU"
  bottom: "conv8_2"
  top: "conv8_2"
}
layer {
  name: "conv9_1"
  type: "Convolution"
  bottom: "conv8_2"
  top: "conv9_1"
  param {
    lr_mult: 1
    decay_mult: 1
  }
  param {
    lr_mult: 2
    decay_mult: 0
  }
  convolution_param {
    num_output: 128
    pad: 0
    kernel_size: 1
    stride: 1
    weight_filler {
      type: "xavier"
    }
    bias_filler {
      type: "constant"
      value: 0
    }
  }
}
layer {
  name: "conv9_1_relu"
  type: "ReLU"
  bottom: "conv9_1"
  top: "conv9_1"
}
layer {
  name: "conv9_2"
  type: "Convolution"
  bottom: "conv9_1"
  top: "conv9_2"
  param {
    lr_mult: 1
    decay_mult: 1
  }
  param {
    lr_mult: 2
    decay_mult: 0
  }
  convolution_param {
    num_output: 256
    pad: 0
    kernel_size: 3
    stride: 1
    weight_filler {
      type: "xavier"
    }
    bias_filler {
      type: "constant"
      value: 0
    }
  }
}
layer {
  name: "conv9_2_relu"
  type: "ReLU"
  bottom: "conv9_2"
  top: "conv9_2"
}
layer {
  name: "conv4_3_norm"
  type: "Normalize"
  bottom: "conv4_3"
  top: "conv4_3_norm"
  norm_param {
    across_spatial: false
    scale_filler {
      type: "constant"
      value: 20
    }
    channel_shared: false
  }
}
layer {
  name: "conv4_3_norm_mbox_loc"
  type: "Convolution"
  bottom: "conv4_3_norm"
  top: "conv4_3_norm_mbox_loc"
  param {
    lr_mult: 1
    decay_mult: 1
  }
  param {
    lr_mult: 2
    decay_mult: 0
  }
  convolution_param {
    num_output: 16
    pad: 1
    kernel_size: 3
    stride: 1
    weight_filler {
      type: "xavier"
    }
    bias_filler {
      type: "constant"
      value: 0
    }
  }
}
layer {
  name: "conv4_3_norm_mbox_loc_perm"
  type: "Permute"
  bottom: "conv4_3_norm_mbox_loc"
  top: "conv4_3_norm_mbox_loc_perm"
  permute_param {
    order: 0
    order: 2
    order: 3
    order: 1
  }
}
layer {
  name: "conv4_3_norm_mbox_loc_flat"
  type: "Flatten"
  bottom: "conv4_3_norm_mbox_loc_perm"
  top: "conv4_3_norm_mbox_loc_flat"
  flatten_param {
    axis: 1
  }
}
layer {
  name: "conv4_3_norm_mbox_conf"
  type: "Convolution"
  bottom: "conv4_3_norm"
  top: "conv4_3_norm_mbox_conf"
  param {
    lr_mult: 1
    decay_mult: 1
  }
  param {
    lr_mult: 2
    decay_mult: 0
  }
  convolution_param {
    num_output: 84
    pad: 1
    kernel_size: 3
    stride: 1
    weight_filler {
      type: "xavier"
    }
    bias_filler {
      type: "constant"
      value: 0
    }
  }
}
layer {
  name: "conv4_3_norm_mbox_conf_perm"
  type: "Permute"
  bottom: "conv4_3_norm_mbox_conf"
  top: "conv4_3_norm_mbox_conf_perm"
  permute_param {
    order: 0
    order: 2
    order: 3
    order: 1
  }
}
layer {
  name: "conv4_3_norm_mbox_conf_flat"
  type: "Flatten"
  bottom: "conv4_3_norm_mbox_conf_perm"
  top: "conv4_3_norm_mbox_conf_flat"
  flatten_param {
    axis: 1
  }
}
layer {
  name: "conv4_3_norm_mbox_priorbox"
  type: "PriorBox"
  bottom: "conv4_3_norm"
  bottom: "data"
  top: "conv4_3_norm_mbox_priorbox"
  prior_box_param {
    min_size: 30
    max_size: 60
    aspect_ratio: 2
    flip: true
    clip: false
    variance: 0.1
    variance: 0.1
    variance: 0.2
    variance: 0.2
    step: 8
    offset: 0.5
  }
}
layer {
  name: "fc7_mbox_loc"
  type: "Convolution"
  bottom: "fc7"
  top: "fc7_mbox_loc"
  param {
    lr_mult: 1
    decay_mult: 1
  }
  param {
    lr_mult: 2
    decay_mult: 0
  }
  convolution_param {
    num_output: 24
    pad: 1
    kernel_size: 3
    stride: 1
    weight_filler {
      type: "xavier"
    }
    bias_filler {
      type: "constant"
      value: 0
    }
  }
}
layer {
  name: "fc7_mbox_loc_perm"
  type: "Permute"
  bottom: "fc7_mbox_loc"
  top: "fc7_mbox_loc_perm"
  permute_param {
    order: 0
    order: 2
    order: 3
    order: 1
  }
}
layer {
  name: "fc7_mbox_loc_flat"
  type: "Flatten"
  bottom: "fc7_mbox_loc_perm"
  top: "fc7_mbox_loc_flat"
  flatten_param {
    axis: 1
  }
}
layer {
  name: "fc7_mbox_conf"
  type: "Convolution"
  bottom: "fc7"
  top: "fc7_mbox_conf"
  param {
    lr_mult: 1
    decay_mult: 1
  }
  param {
    lr_mult: 2
    decay_mult: 0
  }
  convolution_param {
    num_output: 126
    pad: 1
    kernel_size: 3
    stride: 1
    weight_filler {
      type: "xavier"
    }
    bias_filler {
      type: "constant"
      value: 0
    }
  }
}
layer {
  name: "fc7_mbox_conf_perm"
  type: "Permute"
  bottom: "fc7_mbox_conf"
  top: "fc7_mbox_conf_perm"
  permute_param {
    order: 0
    order: 2
    order: 3
    order: 1
  }
}
layer {
  name: "fc7_mbox_conf_flat"
  type: "Flatten"
  bottom: "fc7_mbox_conf_perm"
  top: "fc7_mbox_conf_flat"
  flatten_param {
    axis: 1
  }
}
layer {
  name: "fc7_mbox_priorbox"
  type: "PriorBox"
  bottom: "fc7"
  bottom: "data"
  top: "fc7_mbox_priorbox"
  prior_box_param {
    min_size: 60
    max_size: 111
    aspect_ratio: 2
    aspect_ratio: 3
    flip: true
    clip: false
    variance: 0.1
    variance: 0.1
    variance: 0.2
    variance: 0.2
    step: 16
    offset: 0.5
  }
}
layer {
  name: "conv6_2_mbox_loc"
  type: "Convolution"
  bottom: "conv6_2"
  top: "conv6_2_mbox_loc"
  param {
    lr_mult: 1
    decay_mult: 1
  }
  param {
    lr_mult: 2
    decay_mult: 0
  }
  convolution_param {
    num_output: 24
    pad: 1
    kernel_size: 3
    stride: 1
    weight_filler {
      type: "xavier"
    }
    bias_filler {
      type: "constant"
      value: 0
    }
  }
}
layer {
  name: "conv6_2_mbox_loc_perm"
  type: "Permute"
  bottom: "conv6_2_mbox_loc"
  top: "conv6_2_mbox_loc_perm"
  permute_param {
    order: 0
    order: 2
    order: 3
    order: 1
  }
}
layer {
  name: "conv6_2_mbox_loc_flat"
  type: "Flatten"
  bottom: "conv6_2_mbox_loc_perm"
  top: "conv6_2_mbox_loc_flat"
  flatten_param {
    axis: 1
  }
}
layer {
  name: "conv6_2_mbox_conf"
  type: "Convolution"
  bottom: "conv6_2"
  top: "conv6_2_mbox_conf"
  param {
    lr_mult: 1
    decay_mult: 1
  }
  param {
    lr_mult: 2
    decay_mult: 0
  }
  convolution_param {
    num_output: 126
    pad: 1
    kernel_size: 3
    stride: 1
    weight_filler {
      type: "xavier"
    }
    bias_filler {
      type: "constant"
      value: 0
    }
  }
}
layer {
  name: "conv6_2_mbox_conf_perm"
  type: "Permute"
  bottom: "conv6_2_mbox_conf"
  top: "conv6_2_mbox_conf_perm"
  permute_param {
    order: 0
    order: 2
    order: 3
    order: 1
  }
}
layer {
  name: "conv6_2_mbox_conf_flat"
  type: "Flatten"
  bottom: "conv6_2_mbox_conf_perm"
  top: "conv6_2_mbox_conf_flat"
  flatten_param {
    axis: 1
  }
}
layer {
  name: "conv6_2_mbox_priorbox"
  type: "PriorBox"
  bottom: "conv6_2"
  bottom: "data"
  top: "conv6_2_mbox_priorbox"
  prior_box_param {
    min_size: 111
    max_size: 162
    aspect_ratio: 2
    aspect_ratio: 3
    flip: true
    clip: false
    variance: 0.1
    variance: 0.1
    variance: 0.2
    variance: 0.2
    step: 32
    offset: 0.5
  }
}
layer {
  name: "conv7_2_mbox_loc"
  type: "Convolution"
  bottom: "conv7_2"
  top: "conv7_2_mbox_loc"
  param {
    lr_mult: 1
    decay_mult: 1
  }
  param {
    lr_mult: 2
    decay_mult: 0
  }
  convolution_param {
    num_output: 24
    pad: 1
    kernel_size: 3
    stride: 1
    weight_filler {
      type: "xavier"
    }
    bias_filler {
      type: "constant"
      value: 0
    }
  }
}
layer {
  name: "conv7_2_mbox_loc_perm"
  type: "Permute"
  bottom: "conv7_2_mbox_loc"
  top: "conv7_2_mbox_loc_perm"
  permute_param {
    order: 0
    order: 2
    order: 3
    order: 1
  }
}
layer {
  name: "conv7_2_mbox_loc_flat"
  type: "Flatten"
  bottom: "conv7_2_mbox_loc_perm"
  top: "conv7_2_mbox_loc_flat"
  flatten_param {
    axis: 1
  }
}
layer {
  name: "conv7_2_mbox_conf"
  type: "Convolution"
  bottom: "conv7_2"
  top: "conv7_2_mbox_conf"
  param {
    lr_mult: 1
    decay_mult: 1
  }
  param {
    lr_mult: 2
    decay_mult: 0
  }
  convolution_param {
    num_output: 126
    pad: 1
    kernel_size: 3
    stride: 1
    weight_filler {
      type: "xavier"
    }
    bias_filler {
      type: "constant"
      value: 0
    }
  }
}
layer {
  name: "conv7_2_mbox_conf_perm"
  type: "Permute"
  bottom: "conv7_2_mbox_conf"
  top: "conv7_2_mbox_conf_perm"
  permute_param {
    order: 0
    order: 2
    order: 3
    order: 1
  }
}
layer {
  name: "conv7_2_mbox_conf_flat"
  type: "Flatten"
  bottom: "conv7_2_mbox_conf_perm"
  top: "conv7_2_mbox_conf_flat"
  flatten_param {
    axis: 1
  }
}
layer {
  name: "conv7_2_mbox_priorbox"
  type: "PriorBox"
  bottom: "conv7_2"
  bottom: "data"
  top: "conv7_2_mbox_priorbox"
  prior_box_param {
    min_size: 162
    max_size: 213
    aspect_ratio: 2
    aspect_ratio: 3
    flip: true
    clip: false
    variance: 0.1
    variance: 0.1
    variance: 0.2
    variance: 0.2
    step: 64
    offset: 0.5
  }
}
layer {
  name: "conv8_2_mbox_loc"
  type: "Convolution"
  bottom: "conv8_2"
  top: "conv8_2_mbox_loc"
  param {
    lr_mult: 1
    decay_mult: 1
  }
  param {
    lr_mult: 2
    decay_mult: 0
  }
  convolution_param {
    num_output: 16
    pad: 1
    kernel_size: 3
    stride: 1
    weight_filler {
      type: "xavier"
    }
    bias_filler {
      type: "constant"
      value: 0
    }
  }
}
layer {
  name: "conv8_2_mbox_loc_perm"
  type: "Permute"
  bottom: "conv8_2_mbox_loc"
  top: "conv8_2_mbox_loc_perm"
  permute_param {
    order: 0
    order: 2
    order: 3
    order: 1
  }
}
layer {
  name: "conv8_2_mbox_loc_flat"
  type: "Flatten"
  bottom: "conv8_2_mbox_loc_perm"
  top: "conv8_2_mbox_loc_flat"
  flatten_param {
    axis: 1
  }
}
layer {
  name: "conv8_2_mbox_conf"
  type: "Convolution"
  bottom: "conv8_2"
  top: "conv8_2_mbox_conf"
  param {
    lr_mult: 1
    decay_mult: 1
  }
  param {
    lr_mult: 2
    decay_mult: 0
  }
  convolution_param {
    num_output: 84
    pad: 1
    kernel_size: 3
    stride: 1
    weight_filler {
      type: "xavier"
    }
    bias_filler {
      type: "constant"
      value: 0
    }
  }
}
layer {
  name: "conv8_2_mbox_conf_perm"
  type: "Permute"
  bottom: "conv8_2_mbox_conf"
  top: "conv8_2_mbox_conf_perm"
  permute_param {
    order: 0
    order: 2
    order: 3
    order: 1
  }
}
layer {
  name: "conv8_2_mbox_conf_flat"
  type: "Flatten"
  bottom: "conv8_2_mbox_conf_perm"
  top: "conv8_2_mbox_conf_flat"
  flatten_param {
    axis: 1
  }
}
layer {
  name: "conv8_2_mbox_priorbox"
  type: "PriorBox"
  bottom: "conv8_2"
  bottom: "data"
  top: "conv8_2_mbox_priorbox"
  prior_box_param {
    min_size: 213
    max_size: 264
    aspect_ratio: 2
    flip: true
    clip: false
    variance: 0.1
    variance: 0.1
    variance: 0.2
    variance: 0.2
    step: 100
    offset: 0.5
  }
}
layer {
  name: "conv9_2_mbox_loc"
  type: "Convolution"
  bottom: "conv9_2"
  top: "conv9_2_mbox_loc"
  param {
    lr_mult: 1
    decay_mult: 1
  }
  param {
    lr_mult: 2
    decay_mult: 0
  }
  convolution_param {
    num_output: 16
    pad: 1
    kernel_size: 3
    stride: 1
    weight_filler {
      type: "xavier"
    }
    bias_filler {
      type: "constant"
      value: 0
    }
  }
}
layer {
  name: "conv9_2_mbox_loc_perm"
  type: "Permute"
  bottom: "conv9_2_mbox_loc"
  top: "conv9_2_mbox_loc_perm"
  permute_param {
    order: 0
    order: 2
    order: 3
    order: 1
  }
}
layer {
  name: "conv9_2_mbox_loc_flat"
  type: "Flatten"
  bottom: "conv9_2_mbox_loc_perm"
  top: "conv9_2_mbox_loc_flat"
  flatten_param {
    axis: 1
  }
}
layer {
  name: "conv9_2_mbox_conf"
  type: "Convolution"
  bottom: "conv9_2"
  top: "conv9_2_mbox_conf"
  param {
    lr_mult: 1
    decay_mult: 1
  }
  param {
    lr_mult: 2
    decay_mult: 0
  }
  convolution_param {
    num_output: 84
    pad: 1
    kernel_size: 3
    stride: 1
    weight_filler {
      type: "xavier"
    }
    bias_filler {
      type: "constant"
      value: 0
    }
  }
}
layer {
  name: "conv9_2_mbox_conf_perm"
  type: "Permute"
  bottom: "conv9_2_mbox_conf"
  top: "conv9_2_mbox_conf_perm"
  permute_param {
    order: 0
    order: 2
    order: 3
    order: 1
  }
}
layer {
  name: "conv9_2_mbox_conf_flat"
  type: "Flatten"
  bottom: "conv9_2_mbox_conf_perm"
  top: "conv9_2_mbox_conf_flat"
  flatten_param {
    axis: 1
  }
}
layer {
  name: "conv9_2_mbox_priorbox"
  type: "PriorBox"
  bottom: "conv9_2"
  bottom: "data"
  top: "conv9_2_mbox_priorbox"
  prior_box_param {
    min_size: 264
    max_size: 315
    aspect_ratio: 2
    flip: true
    clip: false
    variance: 0.1
    variance: 0.1
    variance: 0.2
    variance: 0.2
    step: 300
    offset: 0.5
  }
}
layer {
  name: "mbox_loc"
  type: "Concat"
  bottom: "conv4_3_norm_mbox_loc_flat"
  bottom: "fc7_mbox_loc_flat"
  bottom: "conv6_2_mbox_loc_flat"
  bottom: "conv7_2_mbox_loc_flat"
  bottom: "conv8_2_mbox_loc_flat"
  bottom: "conv9_2_mbox_loc_flat"
  top: "mbox_loc"
  concat_param {
    axis: 1
  }
}
layer {
  name: "mbox_conf"
  type: "Concat"
  bottom: "conv4_3_norm_mbox_conf_flat"
  bottom: "fc7_mbox_conf_flat"
  bottom: "conv6_2_mbox_conf_flat"
  bottom: "conv7_2_mbox_conf_flat"
  bottom: "conv8_2_mbox_conf_flat"
  bottom: "conv9_2_mbox_conf_flat"
  top: "mbox_conf"
  concat_param {
    axis: 1
  }
}
layer {
  name: "mbox_priorbox"
  type: "Concat"
  bottom: "conv4_3_norm_mbox_priorbox"
  bottom: "fc7_mbox_priorbox"
  bottom: "conv6_2_mbox_priorbox"
  bottom: "conv7_2_mbox_priorbox"
  bottom: "conv8_2_mbox_priorbox"
  bottom: "conv9_2_mbox_priorbox"
  top: "mbox_priorbox"
  concat_param {
    axis: 2
  }
}
layer {
  name: "mbox_conf_reshape"
  type: "Reshape"
  bottom: "mbox_conf"
  top: "mbox_conf_reshape"
  reshape_param {
    shape {
      dim: 0
      dim: -1
      dim: 21
    }
  }
}
layer {
  name: "mbox_conf_softmax"
  type: "Softmax"
  bottom: "mbox_conf_reshape"
  top: "mbox_conf_softmax"
  softmax_param {
    axis: 2
  }
}
layer {
  name: "mbox_conf_flatten"
  type: "Flatten"
  bottom: "mbox_conf_softmax"
  top: "mbox_conf_flatten"
  flatten_param {
    axis: 1
  }
}
layer {
  name: "detection_out"
  type: "DetectionOutput"
  bottom: "mbox_loc"
  bottom: "mbox_conf_flatten"
  bottom: "mbox_priorbox"
  top: "detection_out"
  include {
    phase: TEST
  }
  detection_output_param {
    num_classes: 21
    share_location: true
    background_label_id: 0
    nms_param {
      nms_threshold: 0.45
      top_k: 400
    }
    save_output_param {
      output_directory: "/home/bvi/data/person_tracking/results/sample/SSD_300x300_score/Main"
      output_name_prefix: "comp4_det_test_"
      output_format: "VOC"
      label_map_file: "data/person_tracking/labelmap_voc.prototxt"
      name_size_file: "data/person_tracking/test_name_size.txt"
      num_test_image: 1394
    }
    code_type: CENTER_SIZE
    keep_top_k: 200
    confidence_threshold: 0.01
  }
}
layer {
  name: "detection_eval"
  type: "DetectionEvaluate"
  bottom: "detection_out"
  bottom: "label"
  top: "detection_eval"
  include {
    phase: TEST
  }
  detection_evaluate_param {
    num_classes: 21
    background_label_id: 0
    overlap_threshold: 0.5
    evaluate_difficult_gt: false
    name_size_file: "data/person_tracking/test_name_size.txt"
  }
}
I0725 17:03:03.172731 12822 layer_factory.hpp:77] Creating layer data
I0725 17:03:03.172804 12822 net.cpp:100] Creating Layer data
I0725 17:03:03.172811 12822 net.cpp:408] data -> data
I0725 17:03:03.172832 12822 net.cpp:408] data -> label
I0725 17:03:03.173516 12834 db_lmdb.cpp:35] Opened lmdb examples/person_tracking/person_tracking_test_lmdb
I0725 17:03:03.178455 12822 annotated_data_layer.cpp:62] output data size: 8,3,300,300
I0725 17:03:03.190207 12822 net.cpp:150] Setting up data
I0725 17:03:03.190243 12822 net.cpp:157] Top shape: 8 3 300 300 (2160000)
I0725 17:03:03.190248 12822 net.cpp:157] Top shape: 1 1 1 8 (8)
I0725 17:03:03.190263 12822 net.cpp:165] Memory required for data: 8640032
I0725 17:03:03.190268 12822 layer_factory.hpp:77] Creating layer data_data_0_split
I0725 17:03:03.190282 12822 net.cpp:100] Creating Layer data_data_0_split
I0725 17:03:03.190299 12822 net.cpp:434] data_data_0_split <- data
I0725 17:03:03.190304 12822 net.cpp:408] data_data_0_split -> data_data_0_split_0
I0725 17:03:03.190311 12822 net.cpp:408] data_data_0_split -> data_data_0_split_1
I0725 17:03:03.190316 12822 net.cpp:408] data_data_0_split -> data_data_0_split_2
I0725 17:03:03.190321 12822 net.cpp:408] data_data_0_split -> data_data_0_split_3
I0725 17:03:03.190325 12822 net.cpp:408] data_data_0_split -> data_data_0_split_4
I0725 17:03:03.190330 12822 net.cpp:408] data_data_0_split -> data_data_0_split_5
I0725 17:03:03.190333 12822 net.cpp:408] data_data_0_split -> data_data_0_split_6
I0725 17:03:03.190508 12822 net.cpp:150] Setting up data_data_0_split
I0725 17:03:03.190513 12822 net.cpp:157] Top shape: 8 3 300 300 (2160000)
I0725 17:03:03.190515 12822 net.cpp:157] Top shape: 8 3 300 300 (2160000)
I0725 17:03:03.190517 12822 net.cpp:157] Top shape: 8 3 300 300 (2160000)
I0725 17:03:03.190521 12822 net.cpp:157] Top shape: 8 3 300 300 (2160000)
I0725 17:03:03.190522 12822 net.cpp:157] Top shape: 8 3 300 300 (2160000)
I0725 17:03:03.190539 12822 net.cpp:157] Top shape: 8 3 300 300 (2160000)
I0725 17:03:03.190541 12822 net.cpp:157] Top shape: 8 3 300 300 (2160000)
I0725 17:03:03.190543 12822 net.cpp:165] Memory required for data: 69120032
I0725 17:03:03.190546 12822 layer_factory.hpp:77] Creating layer conv1_1
I0725 17:03:03.190569 12822 net.cpp:100] Creating Layer conv1_1
I0725 17:03:03.190572 12822 net.cpp:434] conv1_1 <- data_data_0_split_0
I0725 17:03:03.190600 12822 net.cpp:408] conv1_1 -> conv1_1
I0725 17:03:03.192344 12822 net.cpp:150] Setting up conv1_1
I0725 17:03:03.192370 12822 net.cpp:157] Top shape: 8 64 300 300 (46080000)
I0725 17:03:03.192373 12822 net.cpp:165] Memory required for data: 253440032
I0725 17:03:03.192381 12822 layer_factory.hpp:77] Creating layer relu1_1
I0725 17:03:03.192387 12822 net.cpp:100] Creating Layer relu1_1
I0725 17:03:03.192406 12822 net.cpp:434] relu1_1 <- conv1_1
I0725 17:03:03.192409 12822 net.cpp:395] relu1_1 -> conv1_1 (in-place)
I0725 17:03:03.192589 12822 net.cpp:150] Setting up relu1_1
I0725 17:03:03.192595 12822 net.cpp:157] Top shape: 8 64 300 300 (46080000)
I0725 17:03:03.192611 12822 net.cpp:165] Memory required for data: 437760032
I0725 17:03:03.192612 12822 layer_factory.hpp:77] Creating layer conv1_2
I0725 17:03:03.192621 12822 net.cpp:100] Creating Layer conv1_2
I0725 17:03:03.192625 12822 net.cpp:434] conv1_2 <- conv1_1
I0725 17:03:03.192628 12822 net.cpp:408] conv1_2 -> conv1_2
I0725 17:03:03.194367 12822 net.cpp:150] Setting up conv1_2
I0725 17:03:03.194392 12822 net.cpp:157] Top shape: 8 64 300 300 (46080000)
I0725 17:03:03.194394 12822 net.cpp:165] Memory required for data: 622080032
I0725 17:03:03.194401 12822 layer_factory.hpp:77] Creating layer relu1_2
I0725 17:03:03.194406 12822 net.cpp:100] Creating Layer relu1_2
I0725 17:03:03.194409 12822 net.cpp:434] relu1_2 <- conv1_2
I0725 17:03:03.194413 12822 net.cpp:395] relu1_2 -> conv1_2 (in-place)
I0725 17:03:03.194767 12822 net.cpp:150] Setting up relu1_2
I0725 17:03:03.194774 12822 net.cpp:157] Top shape: 8 64 300 300 (46080000)
I0725 17:03:03.194792 12822 net.cpp:165] Memory required for data: 806400032
I0725 17:03:03.194793 12822 layer_factory.hpp:77] Creating layer pool1
I0725 17:03:03.194798 12822 net.cpp:100] Creating Layer pool1
I0725 17:03:03.194800 12822 net.cpp:434] pool1 <- conv1_2
I0725 17:03:03.194806 12822 net.cpp:408] pool1 -> pool1
I0725 17:03:03.194865 12822 net.cpp:150] Setting up pool1
I0725 17:03:03.194869 12822 net.cpp:157] Top shape: 8 64 150 150 (11520000)
I0725 17:03:03.194885 12822 net.cpp:165] Memory required for data: 852480032
I0725 17:03:03.194888 12822 layer_factory.hpp:77] Creating layer conv2_1
I0725 17:03:03.194895 12822 net.cpp:100] Creating Layer conv2_1
I0725 17:03:03.194908 12822 net.cpp:434] conv2_1 <- pool1
I0725 17:03:03.194912 12822 net.cpp:408] conv2_1 -> conv2_1
I0725 17:03:03.196307 12822 net.cpp:150] Setting up conv2_1
I0725 17:03:03.196331 12822 net.cpp:157] Top shape: 8 128 150 150 (23040000)
I0725 17:03:03.196332 12822 net.cpp:165] Memory required for data: 944640032
I0725 17:03:03.196338 12822 layer_factory.hpp:77] Creating layer relu2_1
I0725 17:03:03.196357 12822 net.cpp:100] Creating Layer relu2_1
I0725 17:03:03.196360 12822 net.cpp:434] relu2_1 <- conv2_1
I0725 17:03:03.196363 12822 net.cpp:395] relu2_1 -> conv2_1 (in-place)
I0725 17:03:03.198074 12822 net.cpp:150] Setting up relu2_1
I0725 17:03:03.198081 12822 net.cpp:157] Top shape: 8 128 150 150 (23040000)
I0725 17:03:03.198098 12822 net.cpp:165] Memory required for data: 1036800032
I0725 17:03:03.198101 12822 layer_factory.hpp:77] Creating layer conv2_2
I0725 17:03:03.198107 12822 net.cpp:100] Creating Layer conv2_2
I0725 17:03:03.198109 12822 net.cpp:434] conv2_2 <- conv2_1
I0725 17:03:03.198114 12822 net.cpp:408] conv2_2 -> conv2_2
I0725 17:03:03.200320 12822 net.cpp:150] Setting up conv2_2
I0725 17:03:03.200343 12822 net.cpp:157] Top shape: 8 128 150 150 (23040000)
I0725 17:03:03.200346 12822 net.cpp:165] Memory required for data: 1128960032
I0725 17:03:03.200351 12822 layer_factory.hpp:77] Creating layer relu2_2
I0725 17:03:03.200354 12822 net.cpp:100] Creating Layer relu2_2
I0725 17:03:03.200358 12822 net.cpp:434] relu2_2 <- conv2_2
I0725 17:03:03.200376 12822 net.cpp:395] relu2_2 -> conv2_2 (in-place)
I0725 17:03:03.200525 12822 net.cpp:150] Setting up relu2_2
I0725 17:03:03.200529 12822 net.cpp:157] Top shape: 8 128 150 150 (23040000)
I0725 17:03:03.200546 12822 net.cpp:165] Memory required for data: 1221120032
I0725 17:03:03.200562 12822 layer_factory.hpp:77] Creating layer pool2
I0725 17:03:03.200567 12822 net.cpp:100] Creating Layer pool2
I0725 17:03:03.200569 12822 net.cpp:434] pool2 <- conv2_2
I0725 17:03:03.200572 12822 net.cpp:408] pool2 -> pool2
I0725 17:03:03.200628 12822 net.cpp:150] Setting up pool2
I0725 17:03:03.200633 12822 net.cpp:157] Top shape: 8 128 75 75 (5760000)
I0725 17:03:03.200634 12822 net.cpp:165] Memory required for data: 1244160032
I0725 17:03:03.200636 12822 layer_factory.hpp:77] Creating layer conv3_1
I0725 17:03:03.200642 12822 net.cpp:100] Creating Layer conv3_1
I0725 17:03:03.200656 12822 net.cpp:434] conv3_1 <- pool2
I0725 17:03:03.200660 12822 net.cpp:408] conv3_1 -> conv3_1
I0725 17:03:03.203513 12822 net.cpp:150] Setting up conv3_1
I0725 17:03:03.203549 12822 net.cpp:157] Top shape: 8 256 75 75 (11520000)
I0725 17:03:03.203552 12822 net.cpp:165] Memory required for data: 1290240032
I0725 17:03:03.203564 12822 layer_factory.hpp:77] Creating layer relu3_1
I0725 17:03:03.203572 12822 net.cpp:100] Creating Layer relu3_1
I0725 17:03:03.203577 12822 net.cpp:434] relu3_1 <- conv3_1
I0725 17:03:03.203583 12822 net.cpp:395] relu3_1 -> conv3_1 (in-place)
I0725 17:03:03.203951 12822 net.cpp:150] Setting up relu3_1
I0725 17:03:03.203972 12822 net.cpp:157] Top shape: 8 256 75 75 (11520000)
I0725 17:03:03.203974 12822 net.cpp:165] Memory required for data: 1336320032
I0725 17:03:03.203977 12822 layer_factory.hpp:77] Creating layer conv3_2
I0725 17:03:03.203999 12822 net.cpp:100] Creating Layer conv3_2
I0725 17:03:03.204000 12822 net.cpp:434] conv3_2 <- conv3_1
I0725 17:03:03.204005 12822 net.cpp:408] conv3_2 -> conv3_2
I0725 17:03:03.208010 12822 net.cpp:150] Setting up conv3_2
I0725 17:03:03.208037 12822 net.cpp:157] Top shape: 8 256 75 75 (11520000)
I0725 17:03:03.208039 12822 net.cpp:165] Memory required for data: 1382400032
I0725 17:03:03.208045 12822 layer_factory.hpp:77] Creating layer relu3_2
I0725 17:03:03.208050 12822 net.cpp:100] Creating Layer relu3_2
I0725 17:03:03.208055 12822 net.cpp:434] relu3_2 <- conv3_2
I0725 17:03:03.208058 12822 net.cpp:395] relu3_2 -> conv3_2 (in-place)
I0725 17:03:03.208401 12822 net.cpp:150] Setting up relu3_2
I0725 17:03:03.208423 12822 net.cpp:157] Top shape: 8 256 75 75 (11520000)
I0725 17:03:03.208425 12822 net.cpp:165] Memory required for data: 1428480032
I0725 17:03:03.208427 12822 layer_factory.hpp:77] Creating layer conv3_3
I0725 17:03:03.208436 12822 net.cpp:100] Creating Layer conv3_3
I0725 17:03:03.208439 12822 net.cpp:434] conv3_3 <- conv3_2
I0725 17:03:03.208457 12822 net.cpp:408] conv3_3 -> conv3_3
I0725 17:03:03.212703 12822 net.cpp:150] Setting up conv3_3
I0725 17:03:03.212733 12822 net.cpp:157] Top shape: 8 256 75 75 (11520000)
I0725 17:03:03.212736 12822 net.cpp:165] Memory required for data: 1474560032
I0725 17:03:03.212743 12822 layer_factory.hpp:77] Creating layer relu3_3
I0725 17:03:03.212764 12822 net.cpp:100] Creating Layer relu3_3
I0725 17:03:03.212766 12822 net.cpp:434] relu3_3 <- conv3_3
I0725 17:03:03.212772 12822 net.cpp:395] relu3_3 -> conv3_3 (in-place)
I0725 17:03:03.213121 12822 net.cpp:150] Setting up relu3_3
I0725 17:03:03.213129 12822 net.cpp:157] Top shape: 8 256 75 75 (11520000)
I0725 17:03:03.213145 12822 net.cpp:165] Memory required for data: 1520640032
I0725 17:03:03.213147 12822 layer_factory.hpp:77] Creating layer pool3
I0725 17:03:03.213153 12822 net.cpp:100] Creating Layer pool3
I0725 17:03:03.213155 12822 net.cpp:434] pool3 <- conv3_3
I0725 17:03:03.213171 12822 net.cpp:408] pool3 -> pool3
I0725 17:03:03.213217 12822 net.cpp:150] Setting up pool3
I0725 17:03:03.213222 12822 net.cpp:157] Top shape: 8 256 38 38 (2957312)
I0725 17:03:03.213223 12822 net.cpp:165] Memory required for data: 1532469280
I0725 17:03:03.213238 12822 layer_factory.hpp:77] Creating layer conv4_1
I0725 17:03:03.213244 12822 net.cpp:100] Creating Layer conv4_1
I0725 17:03:03.213260 12822 net.cpp:434] conv4_1 <- pool3
I0725 17:03:03.213264 12822 net.cpp:408] conv4_1 -> conv4_1
I0725 17:03:03.220616 12822 net.cpp:150] Setting up conv4_1
I0725 17:03:03.220662 12822 net.cpp:157] Top shape: 8 512 38 38 (5914624)
I0725 17:03:03.220664 12822 net.cpp:165] Memory required for data: 1556127776
I0725 17:03:03.220686 12822 layer_factory.hpp:77] Creating layer relu4_1
I0725 17:03:03.220698 12822 net.cpp:100] Creating Layer relu4_1
I0725 17:03:03.220703 12822 net.cpp:434] relu4_1 <- conv4_1
I0725 17:03:03.220710 12822 net.cpp:395] relu4_1 -> conv4_1 (in-place)
I0725 17:03:03.221109 12822 net.cpp:150] Setting up relu4_1
I0725 17:03:03.221117 12822 net.cpp:157] Top shape: 8 512 38 38 (5914624)
I0725 17:03:03.221118 12822 net.cpp:165] Memory required for data: 1579786272
I0725 17:03:03.221120 12822 layer_factory.hpp:77] Creating layer conv4_2
I0725 17:03:03.221143 12822 net.cpp:100] Creating Layer conv4_2
I0725 17:03:03.221145 12822 net.cpp:434] conv4_2 <- conv4_1
I0725 17:03:03.221151 12822 net.cpp:408] conv4_2 -> conv4_2
I0725 17:03:03.234388 12822 net.cpp:150] Setting up conv4_2
I0725 17:03:03.234410 12822 net.cpp:157] Top shape: 8 512 38 38 (5914624)
I0725 17:03:03.234426 12822 net.cpp:165] Memory required for data: 1603444768
I0725 17:03:03.234441 12822 layer_factory.hpp:77] Creating layer relu4_2
I0725 17:03:03.234465 12822 net.cpp:100] Creating Layer relu4_2
I0725 17:03:03.234469 12822 net.cpp:434] relu4_2 <- conv4_2
I0725 17:03:03.234474 12822 net.cpp:395] relu4_2 -> conv4_2 (in-place)
I0725 17:03:03.234846 12822 net.cpp:150] Setting up relu4_2
I0725 17:03:03.234853 12822 net.cpp:157] Top shape: 8 512 38 38 (5914624)
I0725 17:03:03.234855 12822 net.cpp:165] Memory required for data: 1627103264
I0725 17:03:03.234858 12822 layer_factory.hpp:77] Creating layer conv4_3
I0725 17:03:03.234880 12822 net.cpp:100] Creating Layer conv4_3
I0725 17:03:03.234882 12822 net.cpp:434] conv4_3 <- conv4_2
I0725 17:03:03.234886 12822 net.cpp:408] conv4_3 -> conv4_3
I0725 17:03:03.248201 12822 net.cpp:150] Setting up conv4_3
I0725 17:03:03.248253 12822 net.cpp:157] Top shape: 8 512 38 38 (5914624)
I0725 17:03:03.248256 12822 net.cpp:165] Memory required for data: 1650761760
I0725 17:03:03.248271 12822 layer_factory.hpp:77] Creating layer relu4_3
I0725 17:03:03.248287 12822 net.cpp:100] Creating Layer relu4_3
I0725 17:03:03.248294 12822 net.cpp:434] relu4_3 <- conv4_3
I0725 17:03:03.248314 12822 net.cpp:395] relu4_3 -> conv4_3 (in-place)
I0725 17:03:03.248471 12822 net.cpp:150] Setting up relu4_3
I0725 17:03:03.248477 12822 net.cpp:157] Top shape: 8 512 38 38 (5914624)
…
I0725 17:03:03.248627 12822 net.cpp:100] Creating Layer pool4
I0725 17:03:03.248642 12822 net.cpp:434] pool4 <- conv4_3_relu4_3_0_split_0
I0725 17:03:03.248646 12822 net.cpp:408] pool4 -> pool4
I0725 17:03:03.248687 12822 net.cpp:150] Setting up pool4
I0725 17:03:03.248690 12822 net.cpp:157] Top shape: 8 512 19 19 (1478656)
I0725 17:03:03.248693 12822 net.cpp:165] Memory required for data: 1727651872
I0725 17:03:03.248694 12822 layer_factory.hpp:77] Creating layer conv5_1
I0725 17:03:03.248716 12822 net.cpp:100] Creating Layer conv5_1
I0725 17:03:03.248718 12822 net.cpp:434] conv5_1 <- pool4
I0725 17:03:03.248739 12822 net.cpp:408] conv5_1 -> conv5_1
I0725 17:03:03.261832 12822 net.cpp:150] Setting up conv5_1
I0725 17:03:03.261858 12822 net.cpp:157] Top shape: 8 512 19 19 (1478656)
I0725 17:03:03.261925 12822 net.cpp:165] Memory required for data: 1733566496
I0725 17:03:03.261935 12822 layer_factory.hpp:77] Creating layer relu5_1
I0725 17:03:03.261945 12822 net.cpp:100] Creating Layer relu5_1
I0725 17:03:03.261950 12822 net.cpp:434] relu5_1 <- conv5_1
I0725 17:03:03.261956 12822 net.cpp:395] relu5_1 -> conv5_1 (in-place)
I0725 17:03:03.262329 12822 net.cpp:150] Setting up relu5_1
I0725 17:03:03.262336 12822 net.cpp:157] Top shape: 8 512 19 19 (1478656)
I0725 17:03:03.262338 12822 net.cpp:165] Memory required for data: 1739481120
I0725 17:03:03.262341 12822 layer_factory.hpp:77] Creating layer conv5_2
I0725 17:03:03.262363 12822 net.cpp:100] Creating Layer conv5_2
I0725 17:03:03.262365 12822 net.cpp:434] conv5_2 <- conv5_1
I0725 17:03:03.262370 12822 net.cpp:408] conv5_2 -> conv5_2
I0725 17:03:03.275480 12822 net.cpp:150] Setting up conv5_2
I0725 17:03:03.275499 12822 net.cpp:157] Top shape: 8 512 19 19 (1478656)
I0725 17:03:03.275516 12822 net.cpp:165] Memory required for data: 1745395744
I0725 17:03:03.275522 12822 layer_factory.hpp:77] Creating layer relu5_2
I0725 17:03:03.275530 12822 net.cpp:100] Creating Layer relu5_2
I0725 17:03:03.275535 12822 net.cpp:434] relu5_2 <- conv5_2
I0725 17:03:03.275542 12822 net.cpp:395] relu5_2 -> conv5_2 (in-place)
I0725 17:03:03.275892 12822 net.cpp:150] Setting up relu5_2
I0725 17:03:03.275899 12822 net.cpp:157] Top shape: 8 512 19 19 (1478656)
I0725 17:03:03.275902 12822 net.cpp:165] Memory required for data: 1751310368
I0725 17:03:03.275903 12822 layer_factory.hpp:77] Creating layer conv5_3
I0725 17:03:03.275925 12822 net.cpp:100] Creating Layer conv5_3
I0725 17:03:03.275928 12822 net.cpp:434] conv5_3 <- conv5_2
I0725 17:03:03.275933 12822 net.cpp:408] conv5_3 -> conv5_3
I0725 17:03:03.289204 12822 net.cpp:150] Setting up conv5_3
I0725 17:03:03.289224 12822 net.cpp:157] Top shape: 8 512 19 19 (1478656)
I0725 17:03:03.289240 12822 net.cpp:165] Memory required for data: 1757224992
I0725 17:03:03.289248 12822 layer_factory.hpp:77] Creating layer relu5_3
I0725 17:03:03.289268 12822 net.cpp:100] Creating Layer relu5_3
I0725 17:03:03.289273 12822 net.cpp:434] relu5_3 <- conv5_3
I0725 17:03:03.289289 12822 net.cpp:395] relu5_3 -> conv5_3 (in-place)
I0725 17:03:03.289459 12822 net.cpp:150] Setting up relu5_3
I0725 17:03:03.289464 12822 net.cpp:157] Top shape: 8 512 19 19 (1478656)
I0725 17:03:03.289466 12822 net.cpp:165] Memory required for data: 1763139616
I0725 17:03:03.289469 12822 layer_factory.hpp:77] Creating layer pool5
I0725 17:03:03.289474 12822 net.cpp:100] Creating Layer pool5
I0725 17:03:03.289475 12822 net.cpp:434] pool5 <- conv5_3
I0725 17:03:03.289479 12822 net.cpp:408] pool5 -> pool5
I0725 17:03:03.289532 12822 net.cpp:150] Setting up pool5
I0725 17:03:03.289537 12822 net.cpp:157] Top shape: 8 512 19 19 (1478656)
I0725 17:03:03.289538 12822 net.cpp:165] Memory required for data: 1769054240
I0725 17:03:03.289541 12822 layer_factory.hpp:77] Creating layer fc6
I0725 17:03:03.289561 12822 net.cpp:100] Creating Layer fc6
I0725 17:03:03.289563 12822 net.cpp:434] fc6 <- pool5
I0725 17:03:03.289567 12822 net.cpp:408] fc6 -> fc6
I0725 17:03:03.314262 12822 net.cpp:150] Setting up fc6
I0725 17:03:03.314281 12822 net.cpp:157] Top shape: 8 1024 19 19 (2957312)
I0725 17:03:03.314283 12822 net.cpp:165] Memory required for data: 1780883488
I0725 17:03:03.314306 12822 layer_factory.hpp:77] Creating layer relu6
I0725 17:03:03.314329 12822 net.cpp:100] Creating Layer relu6
I0725 17:03:03.314334 12822 net.cpp:434] relu6 <- fc6
I0725 17:03:03.314342 12822 net.cpp:395] relu6 -> fc6 (in-place)
I0725 17:03:03.314839 12822 net.cpp:150] Setting up relu6
I0725 17:03:03.314846 12822 net.cpp:157] Top shape: 8 1024 19 19 (2957312)
I0725 17:03:03.314848 12822 net.cpp:165] Memory required for data: 1792712736
I0725 17:03:03.314851 12822 layer_factory.hpp:77] Creating layer fc7
I0725 17:03:03.314874 12822 net.cpp:100] Creating Layer fc7
I0725 17:03:03.314877 12822 net.cpp:434] fc7 <- fc6
I0725 17:03:03.314882 12822 net.cpp:408] fc7 -> fc7
I0725 17:03:03.321310 12822 net.cpp:150] Setting up fc7
I0725 17:03:03.321333 12822 net.cpp:157] Top shape: 8 1024 19 19 (2957312)
I0725 17:03:03.321350 12822 net.cpp:165] Memory required for data: 1804541984
I0725 17:03:03.321358 12822 layer_factory.hpp:77] Creating layer relu7
I0725 17:03:03.321367 12822 net.cpp:100] Creating Layer relu7
I0725 17:03:03.321370 12822 net.cpp:434] relu7 <- fc7
I0725 17:03:03.321389 12822 net.cpp:395] relu7 -> fc7 (in-place)
I0725 17:03:03.321527 12822 net.cpp:150] Setting up relu7
I0725 17:03:03.321533 12822 net.cpp:157] Top shape: 8 1024 19 19 (2957312)
I0725 17:03:03.321534 12822 net.cpp:165] Memory required for data: 1816371232
I0725 17:03:03.321537 12822 layer_factory.hpp:77] Creating layer fc7_relu7_0_split
I0725 17:03:03.321540 12822 net.cpp:100] Creating Layer fc7_relu7_0_split
I0725 17:03:03.321557 12822 net.cpp:434] fc7_relu7_0_split <- fc7
I0725 17:03:03.321560 12822 net.cpp:408] fc7_relu7_0_split -> fc7_relu7_0_split_0
I0725 17:03:03.321565 12822 net.cpp:408] fc7_relu7_0_split -> fc7_relu7_0_split_1
I0725 17:03:03.321573 12822 net.cpp:408] fc7_relu7_0_split -> fc7_relu7_0_split_2
I0725 17:03:03.321578 12822 net.cpp:408] fc7_relu7_0_split -> fc7_relu7_0_split_3
I0725 17:03:03.321686 12822 net.cpp:150] Setting up fc7_relu7_0_split
I0725 17:03:03.321691 12822 net.cpp:157] Top shape: 8 1024 19 19 (2957312)
I0725 17:03:03.321693 12822 net.cpp:157] Top shape: 8 1024 19 19 (2957312)
I0725 17:03:03.321696 12822 net.cpp:157] Top shape: 8 1024 19 19 (2957312)
I0725 17:03:03.321712 12822 net.cpp:157] Top shape: 8 1024 19 19 (2957312)
I0725 17:03:03.321714 12822 net.cpp:165] Memory required for data: 1863688224
I0725 17:03:03.321717 12822 layer_factory.hpp:77] Creating layer conv6_1
I0725 17:03:03.321724 12822 net.cpp:100] Creating Layer conv6_1
I0725 17:03:03.321727 12822 net.cpp:434] conv6_1 <- fc7_relu7_0_split_0
I0725 17:03:03.321732 12822 net.cpp:408] conv6_1 -> conv6_1
I0725 17:03:03.324457 12822 net.cpp:150] Setting up conv6_1
I0725 17:03:03.324467 12822 net.cpp:157] Top shape: 8 256 19 19 (739328)
I0725 17:03:03.324470 12822 net.cpp:165] Memory required for data: 1866645536
I0725 17:03:03.324488 12822 layer_factory.hpp:77] Creating layer conv6_1_relu
I0725 17:03:03.324492 12822 net.cpp:100] Creating Layer conv6_1_relu
I0725 17:03:03.324496 12822 net.cpp:434] conv6_1_relu <- conv6_1
I0725 17:03:03.324499 12822 net.cpp:395] conv6_1_relu -> conv6_1 (in-place)
I0725 17:03:03.324851 12822 net.cpp:150] Setting up conv6_1_relu
I0725 17:03:03.324858 12822 net.cpp:157] Top shape: 8 256 19 19 (739328)
I0725 17:03:03.324861 12822 net.cpp:165] Memory required for data: 1869602848
I0725 17:03:03.324862 12822 layer_factory.hpp:77] Creating layer conv6_2
I0725 17:03:03.324883 12822 net.cpp:100] Creating Layer conv6_2
I0725 17:03:03.324885 12822 net.cpp:434] conv6_2 <- conv6_1
I0725 17:03:03.324890 12822 net.cpp:408] conv6_2 -> conv6_2
I0725 17:03:03.331773 12822 net.cpp:150] Setting up conv6_2
I0725 17:03:03.331799 12822 net.cpp:157] Top shape: 8 512 10 10 (409600)
I0725 17:03:03.331815 12822 net.cpp:165] Memory required for data: 1871241248
I0725 17:03:03.331838 12822 layer_factory.hpp:77] Creating layer conv6_2_relu
I0725 17:03:03.331863 12822 net.cpp:100] Creating Layer conv6_2_relu
I0725 17:03:03.331867 12822 net.cpp:434] conv6_2_relu <- conv6_2
I0725 17:03:03.331873 12822 net.cpp:395] conv6_2_relu -> conv6_2 (in-place)
I0725 17:03:03.332254 12822 net.cpp:150] Setting up conv6_2_relu
I0725 17:03:03.332262 12822 net.cpp:157] Top shape: 8 512 10 10 (409600)
I0725 17:03:03.332263 12822 net.cpp:165] Memory required for data: 1872879648
I0725 17:03:03.332265 12822 layer_factory.hpp:77] Creating layer conv6_2_conv6_2_relu_0_split
I0725 17:03:03.332284 12822 net.cpp:100] Creating Layer conv6_2_conv6_2_relu_0_split
I0725 17:03:03.332286 12822 net.cpp:434] conv6_2_conv6_2_relu_0_split <- conv6_2
I0725 17:03:03.332290 12822 net.cpp:408] conv6_2_conv6_2_relu_0_split -> conv6_2_conv6_2_relu_0_split_0
I0725 17:03:03.332295 12822 net.cpp:408] conv6_2_conv6_2_relu_0_split -> conv6_2_conv6_2_relu_0_split_1
I0725 17:03:03.332341 12822 net.cpp:408] conv6_2_conv6_2_relu_0_split -> conv6_2_conv6_2_relu_0_split_2
I0725 17:03:03.332345 12822 net.cpp:408] conv6_2_conv6_2_relu_0_split -> conv6_2_conv6_2_relu_0_split_3
I0725 17:03:03.332461 12822 net.cpp:150] Setting up conv6_2_conv6_2_relu_0_split
I0725 17:03:03.332465 12822 net.cpp:157] Top shape: 8 512 10 10 (409600)
I0725 17:03:03.332468 12822 net.cpp:157] Top shape: 8 512 10 10 (409600)
I0725 17:03:03.332471 12822 net.cpp:157] Top shape: 8 512 10 10 (409600)
I0725 17:03:03.332487 12822 net.cpp:157] Top shape: 8 512 10 10 (409600)
I0725 17:03:03.332489 12822 net.cpp:165] Memory required for data: 1879433248
I0725 17:03:03.332491 12822 layer_factory.hpp:77] Creating layer conv7_1
I0725 17:03:03.332499 12822 net.cpp:100] Creating Layer conv7_1
I0725 17:03:03.332504 12822 net.cpp:434] conv7_1 <- conv6_2_conv6_2_relu_0_split_0
I0725 17:03:03.332507 12822 net.cpp:408] conv7_1 -> conv7_1
I0725 17:03:03.334288 12822 net.cpp:150] Setting up conv7_1
I0725 17:03:03.334296 12822 net.cpp:157] Top shape: 8 128 10 10 (102400)
I0725 17:03:03.334298 12822 net.cpp:165] Memory required for data: 1879842848
I0725 17:03:03.334318 12822 layer_factory.hpp:77] Creating layer conv7_1_relu
I0725 17:03:03.334322 12822 net.cpp:100] Creating Layer conv7_1_relu
I0725 17:03:03.334326 12822 net.cpp:434] conv7_1_relu <- conv7_1
I0725 17:03:03.334342 12822 net.cpp:395] conv7_1_relu -> conv7_1 (in-place)
I0725 17:03:03.334484 12822 net.cpp:150] Setting up conv7_1_relu
I0725 17:03:03.334491 12822 net.cpp:157] Top shape: 8 128 10 10 (102400)
I0725 17:03:03.334491 12822 net.cpp:165] Memory required for data: 1880252448
I0725 17:03:03.334493 12822 layer_factory.hpp:77] Creating layer conv7_2
I0725 17:03:03.334514 12822 net.cpp:100] Creating Layer conv7_2
I0725 17:03:03.334517 12822 net.cpp:434] conv7_2 <- conv7_1
I0725 17:03:03.334522 12822 net.cpp:408] conv7_2 -> conv7_2
I0725 17:03:03.337153 12822 net.cpp:150] Setting up conv7_2
I0725 17:03:03.337163 12822 net.cpp:157] Top shape: 8 256 5 5 (51200)
I0725 17:03:03.337165 12822 net.cpp:165] Memory required for data: 1880457248
I0725 17:03:03.337184 12822 layer_factory.hpp:77] Creating layer conv7_2_relu
I0725 17:03:03.337188 12822 net.cpp:100] Creating Layer conv7_2_relu
I0725 17:03:03.337191 12822 net.cpp:434] conv7_2_relu <- conv7_2
I0725 17:03:03.337195 12822 net.cpp:395] conv7_2_relu -> conv7_2 (in-place)
I0725 17:03:03.337553 12822 net.cpp:150] Setting up conv7_2_relu
I0725 17:03:03.337560 12822 net.cpp:157] Top shape: 8 256 5 5 (51200)
I0725 17:03:03.337563 12822 net.cpp:165] Memory required for data: 1880662048
I0725 17:03:03.337564 12822 layer_factory.hpp:77] Creating layer conv7_2_conv7_2_relu_0_split
I0725 17:03:03.337584 12822 net.cpp:100] Creating Layer conv7_2_conv7_2_relu_0_split
I0725 17:03:03.337585 12822 net.cpp:434] conv7_2_conv7_2_relu_0_split <- conv7_2
I0725 17:03:03.337589 12822 net.cpp:408] conv7_2_conv7_2_relu_0_split -> conv7_2_conv7_2_relu_0_split_0
I0725 17:03:03.337595 12822 net.cpp:408] conv7_2_conv7_2_relu_0_split -> conv7_2_conv7_2_relu_0_split_1
I0725 17:03:03.337600 12822 net.cpp:408] conv7_2_conv7_2_relu_0_split -> conv7_2_conv7_2_relu_0_split_2
I0725 17:03:03.337604 12822 net.cpp:408] conv7_2_conv7_2_relu_0_split -> conv7_2_conv7_2_relu_0_split_3
I0725 17:03:03.337692 12822 net.cpp:150] Setting up conv7_2_conv7_2_relu_0_split
I0725 17:03:03.337697 12822 net.cpp:157] Top shape: 8 256 5 5 (51200)
I0725 17:03:03.337698 12822 net.cpp:157] Top shape: 8 256 5 5 (51200)
I0725 17:03:03.337700 12822 net.cpp:157] Top shape: 8 256 5 5 (51200)
I0725 17:03:03.337702 12822 net.cpp:157] Top shape: 8 256 5 5 (51200)
I0725 17:03:03.337719 12822 net.cpp:165] Memory required for data: 1881481248
I0725 17:03:03.337721 12822 layer_factory.hpp:77] Creating layer conv8_1
I0725 17:03:03.337728 12822 net.cpp:100] Creating Layer conv8_1
I0725 17:03:03.337729 12822 net.cpp:434] conv8_1 <- conv7_2_conv7_2_relu_0_split_0
I0725 17:03:03.337734 12822 net.cpp:408] conv8_1 -> conv8_1
I0725 17:03:03.338824 12822 net.cpp:150] Setting up conv8_1
I0725 17:03:03.338835 12822 net.cpp:157] Top shape: 8 128 5 5 (25600)
I0725 17:03:03.338871 12822 net.cpp:165] Memory required for data: 1881583648
I0725 17:03:03.338878 12822 layer_factory.hpp:77] Creating layer conv8_1_relu
I0725 17:03:03.338883 12822 net.cpp:100] Creating Layer conv8_1_relu
I0725 17:03:03.338887 12822 net.cpp:434] conv8_1_relu <- conv8_1
I0725 17:03:03.338891 12822 net.cpp:395] conv8_1_relu -> conv8_1 (in-place)
I0725 17:03:03.339329 12822 net.cpp:150] Setting up conv8_1_relu
I0725 17:03:03.339335 12822 net.cpp:157] Top shape: 8 128 5 5 (25600)
I0725 17:03:03.339337 12822 net.cpp:165] Memory required for data: 1881686048
I0725 17:03:03.339339 12822 layer_factory.hpp:77] Creating layer conv8_2
I0725 17:03:03.339362 12822 net.cpp:100] Creating Layer conv8_2
I0725 17:03:03.339365 12822 net.cpp:434] conv8_2 <- conv8_1
I0725 17:03:03.339382 12822 net.cpp:408] conv8_2 -> conv8_2
I0725 17:03:03.342072 12822 net.cpp:150] Setting up conv8_2
I0725 17:03:03.342082 12822 net.cpp:157] Top shape: 8 256 3 3 (18432)
I0725 17:03:03.342083 12822 net.cpp:165] Memory required for data: 1881759776
I0725 17:03:03.342103 12822 layer_factory.hpp:77] Creating layer conv8_2_relu
I0725 17:03:03.342106 12822 net.cpp:100] Creating Layer conv8_2_relu
I0725 17:03:03.342109 12822 net.cpp:434] conv8_2_relu <- conv8_2
I0725 17:03:03.342113 12822 net.cpp:395] conv8_2_relu -> conv8_2 (in-place)
I0725 17:03:03.342267 12822 net.cpp:150] Setting up conv8_2_relu
I0725 17:03:03.342272 12822 net.cpp:157] Top shape: 8 256 3 3 (18432)
I0725 17:03:03.342273 12822 net.cpp:165] Memory required for data: 1881833504
I0725 17:03:03.342275 12822 layer_factory.hpp:77] Creating layer conv8_2_conv8_2_relu_0_split
I0725 17:03:03.342295 12822 net.cpp:100] Creating Layer conv8_2_conv8_2_relu_0_split
I0725 17:03:03.342298 12822 net.cpp:434] conv8_2_conv8_2_relu_0_split <- conv8_2
I0725 17:03:03.342301 12822 net.cpp:408] conv8_2_conv8_2_relu_0_split -> conv8_2_conv8_2_relu_0_split_0
I0725 17:03:03.342306 12822 net.cpp:408] conv8_2_conv8_2_relu_0_split -> conv8_2_conv8_2_relu_0_split_1
I0725 17:03:03.342311 12822 net.cpp:408] conv8_2_conv8_2_relu_0_split -> conv8_2_conv8_2_relu_0_split_2
I0725 17:03:03.342315 12822 net.cpp:408] conv8_2_conv8_2_relu_0_split -> conv8_2_conv8_2_relu_0_split_3
I0725 17:03:03.342403 12822 net.cpp:150] Setting up conv8_2_conv8_2_relu_0_split
I0725 17:03:03.342407 12822 net.cpp:157] Top shape: 8 256 3 3 (18432)
I0725 17:03:03.342411 12822 net.cpp:157] Top shape: 8 256 3 3 (18432)
I0725 17:03:03.342412 12822 net.cpp:157] Top shape: 8 256 3 3 (18432)
I0725 17:03:03.342429 12822 net.cpp:157] Top shape: 8 256 3 3 (18432)
I0725 17:03:03.342432 12822 net.cpp:165] Memory required for data: 1882128416
I0725 17:03:03.342433 12822 layer_factory.hpp:77] Creating layer conv9_1
I0725 17:03:03.342440 12822 net.cpp:100] Creating Layer conv9_1
I0725 17:03:03.342444 12822 net.cpp:434] conv9_1 <- conv8_2_conv8_2_relu_0_split_0
I0725 17:03:03.342448 12822 net.cpp:408] conv9_1 -> conv9_1
I0725 17:03:03.343749 12822 net.cpp:150] Setting up conv9_1
I0725 17:03:03.343756 12822 net.cpp:157] Top shape: 8 128 3 3 (9216)
I0725 17:03:03.343758 12822 net.cpp:165] Memory required for data: 1882165280
I0725 17:03:03.343762 12822 layer_factory.hpp:77] Creating layer conv9_1_relu
I0725 17:03:03.343781 12822 net.cpp:100] Creating Layer conv9_1_relu
I0725 17:03:03.343785 12822 net.cpp:434] conv9_1_relu <- conv9_1
I0725 17:03:03.343787 12822 net.cpp:395] conv9_1_relu -> conv9_1 (in-place)
I0725 17:03:03.344139 12822 net.cpp:150] Setting up conv9_1_relu
I0725 17:03:03.344148 12822 net.cpp:157] Top shape: 8 128 3 3 (9216)
I0725 17:03:03.344151 12822 net.cpp:165] Memory required for data: 1882202144
I0725 17:03:03.344152 12822 layer_factory.hpp:77] Creating layer conv9_2
I0725 17:03:03.344173 12822 net.cpp:100] Creating Layer conv9_2
I0725 17:03:03.344177 12822 net.cpp:434] conv9_2 <- conv9_1
I0725 17:03:03.344180 12822 net.cpp:408] conv9_2 -> conv9_2
I0725 17:03:03.346670 12822 net.cpp:150] Setting up conv9_2
I0725 17:03:03.346679 12822 net.cpp:157] Top shape: 8 256 1 1 (2048)
I0725 17:03:03.346683 12822 net.cpp:165] Memory required for data: 1882210336
I0725 17:03:03.346714 12822 layer_factory.hpp:77] Creating layer conv9_2_relu
I0725 17:03:03.346717 12822 net.cpp:100] Creating Layer conv9_2_relu
I0725 17:03:03.346720 12822 net.cpp:434] conv9_2_relu <- conv9_2
I0725 17:03:03.346727 12822 net.cpp:395] conv9_2_relu -> conv9_2 (in-place)
I0725 17:03:03.347086 12822 net.cpp:150] Setting up conv9_2_relu
I0725 17:03:03.347093 12822 net.cpp:157] Top shape: 8 256 1 1 (2048)
I0725 17:03:03.347095 12822 net.cpp:165] Memory required for data: 1882218528
I0725 17:03:03.347097 12822 layer_factory.hpp:77] Creating layer conv9_2_conv9_2_relu_0_split
I0725 17:03:03.347116 12822 net.cpp:100] Creating Layer conv9_2_conv9_2_relu_0_split
I0725 17:03:03.347120 12822 net.cpp:434] conv9_2_conv9_2_relu_0_split <- conv9_2
I0725 17:03:03.347123 12822 net.cpp:408] conv9_2_conv9_2_relu_0_split -> conv9_2_conv9_2_relu_0_split_0
I0725 17:03:03.347128 12822 net.cpp:408] conv9_2_conv9_2_relu_0_split -> conv9_2_conv9_2_relu_0_split_1
I0725 17:03:03.347133 12822 net.cpp:408] conv9_2_conv9_2_relu_0_split -> conv9_2_conv9_2_relu_0_split_2
I0725 17:03:03.347208 12822 net.cpp:150] Setting up conv9_2_conv9_2_relu_0_split
I0725 17:03:03.347213 12822 net.cpp:157] Top shape: 8 256 1 1 (2048)
I0725 17:03:03.347215 12822 net.cpp:157] Top shape: 8 256 1 1 (2048)
I0725 17:03:03.347218 12822 net.cpp:157] Top shape: 8 256 1 1 (2048)
I0725 17:03:03.347219 12822 net.cpp:165] Memory required for data: 1882243104
I0725 17:03:03.347235 12822 layer_factory.hpp:77] Creating layer conv4_3_norm
I0725 17:03:03.347241 12822 net.cpp:100] Creating Layer conv4_3_norm
I0725 17:03:03.347244 12822 net.cpp:434] conv4_3_norm <- conv4_3_relu4_3_0_split_1
I0725 17:03:03.347247 12822 net.cpp:408] conv4_3_norm -> conv4_3_norm
I0725 17:03:03.347441 12822 net.cpp:150] Setting up conv4_3_norm
I0725 17:03:03.347445 12822 net.cpp:157] Top shape: 8 512 38 38 (5914624)
I0725 17:03:03.347447 12822 net.cpp:165] Memory required for data: 1905901600
I0725 17:03:03.347450 12822 layer_factory.hpp:77] Creating layer conv4_3_norm_conv4_3_norm_0_split
I0725 17:03:03.347468 12822 net.cpp:100] Creating Layer conv4_3_norm_conv4_3_norm_0_split
I0725 17:03:03.347470 12822 net.cpp:434] conv4_3_norm_conv4_3_norm_0_split <- conv4_3_norm
I0725 17:03:03.347473 12822 net.cpp:408] conv4_3_norm_conv4_3_norm_0_split -> conv4_3_norm_conv4_3_norm_0_split_0
I0725 17:03:03.347477 12822 net.cpp:408] conv4_3_norm_conv4_3_norm_0_split -> conv4_3_norm_conv4_3_norm_0_split_1
I0725 17:03:03.347482 12822 net.cpp:408] conv4_3_norm_conv4_3_norm_0_split -> conv4_3_norm_conv4_3_norm_0_split_2
I0725 17:03:03.347553 12822 net.cpp:150] Setting up conv4_3_norm_conv4_3_norm_0_split
I0725 17:03:03.347568 12822 net.cpp:157] Top shape: 8 512 38 38 (5914624)
I0725 17:03:03.347570 12822 net.cpp:157] Top shape: 8 512 38 38 (5914624)
I0725 17:03:03.347573 12822 net.cpp:157] Top shape: 8 512 38 38 (5914624)
I0725 17:03:03.347574 12822 net.cpp:165] Memory required for data: 1976877088
I0725 17:03:03.347591 12822 layer_factory.hpp:77] Creating layer conv4_3_norm_mbox_loc
I0725 17:03:03.347599 12822 net.cpp:100] Creating Layer conv4_3_norm_mbox_loc
I0725 17:03:03.347614 12822 net.cpp:434] conv4_3_norm_mbox_loc <- conv4_3_norm_conv4_3_norm_0_split_0
I0725 17:03:03.347617 12822 net.cpp:408] conv4_3_norm_mbox_loc -> conv4_3_norm_mbox_loc
I0725 17:03:03.349524 12822 net.cpp:150] Setting up conv4_3_norm_mbox_loc
I0725 17:03:03.349532 12822 net.cpp:157] Top shape: 8 16 38 38 (184832)
I0725 17:03:03.349534 12822 net.cpp:165] Memory required for data: 1977616416
I0725 17:03:03.349553 12822 layer_factory.hpp:77] Creating layer conv4_3_norm_mbox_loc_perm
I0725 17:03:03.349560 12822 net.cpp:100] Creating Layer conv4_3_norm_mbox_loc_perm
I0725 17:03:03.349562 12822 net.cpp:434] conv4_3_norm_mbox_loc_perm <- conv4_3_norm_mbox_loc
I0725 17:03:03.349565 12822 net.cpp:408] conv4_3_norm_mbox_loc_perm -> conv4_3_norm_mbox_loc_perm
I0725 17:03:03.349702 12822 net.cpp:150] Setting up conv4_3_norm_mbox_loc_perm
I0725 17:03:03.349706 12822 net.cpp:157] Top shape: 8 38 38 16 (184832)
I0725 17:03:03.349730 12822 net.cpp:165] Memory required for data: 1978355744
I0725 17:03:03.349732 12822 layer_factory.hpp:77] Creating layer conv4_3_norm_mbox_loc_flat
I0725 17:03:03.349737 12822 net.cpp:100] Creating Layer conv4_3_norm_mbox_loc_flat
I0725 17:03:03.349740 12822 net.cpp:434] conv4_3_norm_mbox_loc_flat <- conv4_3_norm_mbox_loc_perm
I0725 17:03:03.349743 12822 net.cpp:408] conv4_3_norm_mbox_loc_flat -> conv4_3_norm_mbox_loc_flat
I0725 17:03:03.349791 12822 net.cpp:150] Setting up conv4_3_norm_mbox_loc_flat
I0725 17:03:03.349797 12822 net.cpp:157] Top shape: 8 23104 (184832)
I0725 17:03:03.349797 12822 net.cpp:165] Memory required for data: 1979095072
I0725 17:03:03.349799 12822 layer_factory.hpp:77] Creating layer conv4_3_norm_mbox_conf
I0725 17:03:03.349825 12822 net.cpp:100] Creating Layer conv4_3_norm_mbox_conf
I0725 17:03:03.349829 12822 net.cpp:434] conv4_3_norm_mbox_conf <- conv4_3_norm_conv4_3_norm_0_split_1
I0725 17:03:03.349846 12822 net.cpp:408] conv4_3_norm_mbox_conf -> conv4_3_norm_mbox_conf
I0725 17:03:03.353004 12822 net.cpp:150] Setting up conv4_3_norm_mbox_conf
I0725 17:03:03.353015 12822 net.cpp:157] Top shape: 8 84 38 38 (970368)
I0725 17:03:03.353018 12822 net.cpp:165] Memory required for data: 1982976544
I0725 17:03:03.353039 12822 layer_factory.hpp:77] Creating layer conv4_3_norm_mbox_conf_perm
I0725 17:03:03.353044 12822 net.cpp:100] Creating Layer conv4_3_norm_mbox_conf_perm
I0725 17:03:03.353060 12822 net.cpp:434] conv4_3_norm_mbox_conf_perm <- conv4_3_norm_mbox_conf
I0725 17:03:03.353065 12822 net.cpp:408] conv4_3_norm_mbox_conf_perm -> conv4_3_norm_mbox_conf_perm
I0725 17:03:03.353199 12822 net.cpp:150] Setting up conv4_3_norm_mbox_conf_perm
I0725 17:03:03.353204 12822 net.cpp:157] Top shape: 8 38 38 84 (970368)
I0725 17:03:03.353205 12822 net.cpp:165] Memory required for data: 1986858016
I0725 17:03:03.353209 12822 layer_factory.hpp:77] Creating layer conv4_3_norm_mbox_conf_flat
I0725 17:03:03.353227 12822 net.cpp:100] Creating Layer conv4_3_norm_mbox_conf_flat
I0725 17:03:03.353229 12822 net.cpp:434] conv4_3_norm_mbox_conf_flat <- conv4_3_norm_mbox_conf_perm
I0725 17:03:03.353233 12822 net.cpp:408] conv4_3_norm_mbox_conf_flat -> conv4_3_norm_mbox_conf_flat
I0725 17:03:03.353271 12822 net.cpp:150] Setting up conv4_3_norm_mbox_conf_flat
I0725 17:03:03.353274 12822 net.cpp:157] Top shape: 8 121296 (970368)
I0725 17:03:03.353276 12822 net.cpp:165] Memory required for data: 1990739488
I0725 17:03:03.353277 12822 layer_factory.hpp:77] Creating layer conv4_3_norm_mbox_priorbox
I0725 17:03:03.353298 12822 net.cpp:100] Creating Layer conv4_3_norm_mbox_priorbox
I0725 17:03:03.353301 12822 net.cpp:434] conv4_3_norm_mbox_priorbox <- conv4_3_norm_conv4_3_norm_0_split_2
I0725 17:03:03.353304 12822 net.cpp:434] conv4_3_norm_mbox_priorbox <- data_data_0_split_1
I0725 17:03:03.353308 12822 net.cpp:408] conv4_3_norm_mbox_priorbox -> conv4_3_norm_mbox_priorbox
I0725 17:03:03.353348 12822 net.cpp:150] Setting up conv4_3_norm_mbox_priorbox
I0725 17:03:03.353353 12822 net.cpp:157] Top shape: 1 2 23104 (46208)
I0725 17:03:03.353353 12822 net.cpp:165] Memory required for data: 1990924320
I0725 17:03:03.353355 12822 layer_factory.hpp:77] Creating layer fc7_mbox_loc
I0725 17:03:03.353364 12822 net.cpp:100] Creating Layer fc7_mbox_loc
I0725 17:03:03.353366 12822 net.cpp:434] fc7_mbox_loc <- fc7_relu7_0_split_1
I0725 17:03:03.353370 12822 net.cpp:408] fc7_mbox_loc -> fc7_mbox_loc
I0725 17:03:03.355958 12822 net.cpp:150] Setting up fc7_mbox_loc
I0725 17:03:03.355969 12822 net.cpp:157] Top shape: 8 24 19 19 (69312)
I0725 17:03:03.355971 12822 net.cpp:165] Memory required for data: 1991201568
I0725 17:03:03.355991 12822 layer_factory.hpp:77] Creating layer fc7_mbox_loc_perm
I0725 17:03:03.355996 12822 net.cpp:100] Creating Layer fc7_mbox_loc_perm
I0725 17:03:03.356000 12822 net.cpp:434] fc7_mbox_loc_perm <- fc7_mbox_loc
I0725 17:03:03.356005 12822 net.cpp:408] fc7_mbox_loc_perm -> fc7_mbox_loc_perm
I0725 17:03:03.356142 12822 net.cpp:150] Setting up fc7_mbox_loc_perm
I0725 17:03:03.356147 12822 net.cpp:157] Top shape: 8 19 19 24 (69312)
I0725 17:03:03.356158 12822 net.cpp:165] Memory required for data: 1991478816
I0725 17:03:03.356160 12822 layer_factory.hpp:77] Creating layer fc7_mbox_loc_flat
I0725 17:03:03.356179 12822 net.cpp:100] Creating Layer fc7_mbox_loc_flat
I0725 17:03:03.356181 12822 net.cpp:434] fc7_mbox_loc_flat <- fc7_mbox_loc_perm
I0725 17:03:03.356186 12822 net.cpp:408] fc7_mbox_loc_flat -> fc7_mbox_loc_flat
I0725 17:03:03.356230 12822 net.cpp:150] Setting up fc7_mbox_loc_flat
I0725 17:03:03.356235 12822 net.cpp:157] Top shape: 8 8664 (69312)
I0725 17:03:03.356236 12822 net.cpp:165] Memory required for data: 1991756064
I0725 17:03:03.356238 12822 layer_factory.hpp:77] Creating layer fc7_mbox_conf
I0725 17:03:03.356245 12822 net.cpp:100] Creating Layer fc7_mbox_conf
I0725 17:03:03.356247 12822 net.cpp:434] fc7_mbox_conf <- fc7_relu7_0_split_2
I0725 17:03:03.356251 12822 net.cpp:408] fc7_mbox_conf -> fc7_mbox_conf
I0725 17:03:03.363661 12822 net.cpp:150] Setting up fc7_mbox_conf
I0725 17:03:03.363683 12822 net.cpp:157] Top shape: 8 126 19 19 (363888)
I0725 17:03:03.363700 12822 net.cpp:165] Memory required for data: 1993211616
I0725 17:03:03.363709 12822 layer_factory.hpp:77] Creating layer fc7_mbox_conf_perm
I0725 17:03:03.363724 12822 net.cpp:100] Creating Layer fc7_mbox_conf_perm
I0725 17:03:03.363730 12822 net.cpp:434] fc7_mbox_conf_perm <- fc7_mbox_conf
I0725 17:03:03.363735 12822 net.cpp:408] fc7_mbox_conf_perm -> fc7_mbox_conf_perm
I0725 17:03:03.363878 12822 net.cpp:150] Setting up fc7_mbox_conf_perm
I0725 17:03:03.363883 12822 net.cpp:157] Top shape: 8 19 19 126 (363888)
I0725 17:03:03.363884 12822 net.cpp:165] Memory required for data: 1994667168
I0725 17:03:03.363886 12822 layer_factory.hpp:77] Creating layer fc7_mbox_conf_flat
I0725 17:03:03.363905 12822 net.cpp:100] Creating Layer fc7_mbox_conf_flat
I0725 17:03:03.363909 12822 net.cpp:434] fc7_mbox_conf_flat <- fc7_mbox_conf_perm
I0725 17:03:03.363911 12822 net.cpp:408] fc7_mbox_conf_flat -> fc7_mbox_conf_flat
I0725 17:03:03.363950 12822 net.cpp:150] Setting up fc7_mbox_conf_flat
I0725 17:03:03.363953 12822 net.cpp:157] Top shape: 8 45486 (363888)
I0725 17:03:03.363955 12822 net.cpp:165] Memory required for data: 1996122720
I0725 17:03:03.363957 12822 layer_factory.hpp:77] Creating layer fc7_mbox_priorbox
I0725 17:03:03.363962 12822 net.cpp:100] Creating Layer fc7_mbox_priorbox
I0725 17:03:03.363965 12822 net.cpp:434] fc7_mbox_priorbox <- fc7_relu7_0_split_3
I0725 17:03:03.363968 12822 net.cpp:434] fc7_mbox_priorbox <- data_data_0_split_2
I0725 17:03:03.363972 12822 net.cpp:408] fc7_mbox_priorbox -> fc7_mbox_priorbox
I0725 17:03:03.364032 12822 net.cpp:150] Setting up fc7_mbox_priorbox
I0725 17:03:03.364037 12822 net.cpp:157] Top shape: 1 2 8664 (17328)
I0725 17:03:03.364038 12822 net.cpp:165] Memory required for data: 1996192032
I0725 17:03:03.364040 12822 layer_factory.hpp:77] Creating layer conv6_2_mbox_loc
I0725 17:03:03.364063 12822 net.cpp:100] Creating Layer conv6_2_mbox_loc
I0725 17:03:03.364065 12822 net.cpp:434] conv6_2_mbox_loc <- conv6_2_conv6_2_relu_0_split_1
I0725 17:03:03.364071 12822 net.cpp:408] conv6_2_mbox_loc -> conv6_2_mbox_loc
I0725 17:03:03.366219 12822 net.cpp:150] Setting up conv6_2_mbox_loc
I0725 17:03:03.366227 12822 net.cpp:157] Top shape: 8 24 10 10 (19200)
I0725 17:03:03.366230 12822 net.cpp:165] Memory required for data: 1996268832
I0725 17:03:03.366250 12822 layer_factory.hpp:77] Creating layer conv6_2_mbox_loc_perm
I0725 17:03:03.366256 12822 net.cpp:100] Creating Layer conv6_2_mbox_loc_perm
I0725 17:03:03.366258 12822 net.cpp:434] conv6_2_mbox_loc_perm <- conv6_2_mbox_loc
I0725 17:03:03.366276 12822 net.cpp:408] conv6_2_mbox_loc_perm -> conv6_2_mbox_loc_perm
I0725 17:03:03.366415 12822 net.cpp:150] Setting up conv6_2_mbox_loc_perm
I0725 17:03:03.366418 12822 net.cpp:157] Top shape: 8 10 10 24 (19200)
I0725 17:03:03.366420 12822 net.cpp:165] Memory required for data: 1996345632
I0725 17:03:03.366422 12822 layer_factory.hpp:77] Creating layer conv6_2_mbox_loc_flat
I0725 17:03:03.366441 12822 net.cpp:100] Creating Layer conv6_2_mbox_loc_flat
I0725 17:03:03.366454 12822 net.cpp:434] conv6_2_mbox_loc_flat <- conv6_2_mbox_loc_perm
I0725 17:03:03.366457 12822 net.cpp:408] conv6_2_mbox_loc_flat -> conv6_2_mbox_loc_flat
I0725 17:03:03.366497 12822 net.cpp:150] Setting up conv6_2_mbox_loc_flat
I0725 17:03:03.366502 12822 net.cpp:157] Top shape: 8 2400 (19200)
I0725 17:03:03.366503 12822 net.cpp:165] Memory required for data: 1996422432
I0725 17:03:03.366504 12822 layer_factory.hpp:77] Creating layer conv6_2_mbox_conf
I0725 17:03:03.366525 12822 net.cpp:100] Creating Layer conv6_2_mbox_conf
I0725 17:03:03.366528 12822 net.cpp:434] conv6_2_mbox_conf <- conv6_2_conv6_2_relu_0_split_2
I0725 17:03:03.366533 12822 net.cpp:408] conv6_2_mbox_conf -> conv6_2_mbox_conf
I0725 17:03:03.370898 12822 net.cpp:150] Setting up conv6_2_mbox_conf
I0725 17:03:03.370916 12822 net.cpp:157] Top shape: 8 126 10 10 (100800)
I0725 17:03:03.370919 12822 net.cpp:165] Memory required for data: 1996825632
I0725 17:03:03.370940 12822 layer_factory.hpp:77] Creating layer conv6_2_mbox_conf_perm
I0725 17:03:03.370950 12822 net.cpp:100] Creating Layer conv6_2_mbox_conf_perm
I0725 17:03:03.370954 12822 net.cpp:434] conv6_2_mbox_conf_perm <- conv6_2_mbox_conf
I0725 17:03:03.370959 12822 net.cpp:408] conv6_2_mbox_conf_perm -> conv6_2_mbox_conf_perm
I0725 17:03:03.371131 12822 net.cpp:150] Setting up conv6_2_mbox_conf_perm
I0725 17:03:03.371135 12822 net.cpp:157] Top shape: 8 10 10 126 (100800)
I0725 17:03:03.371137 12822 net.cpp:165] Memory required for data: 1997228832
I0725 17:03:03.371140 12822 layer_factory.hpp:77] Creating layer conv6_2_mbox_conf_flat
I0725 17:03:03.371158 12822 net.cpp:100] Creating Layer conv6_2_mbox_conf_flat
I0725 17:03:03.371160 12822 net.cpp:434] conv6_2_mbox_conf_flat <- conv6_2_mbox_conf_perm
I0725 17:03:03.371165 12822 net.cpp:408] conv6_2_mbox_conf_flat -> conv6_2_mbox_conf_flat
I0725 17:03:03.371202 12822 net.cpp:150] Setting up conv6_2_mbox_conf_flat
I0725 17:03:03.371206 12822 net.cpp:157] Top shape: 8 12600 (100800)
I0725 17:03:03.371208 12822 net.cpp:165] Memory required for data: 1997632032
I0725 17:03:03.371209 12822 layer_factory.hpp:77] Creating layer conv6_2_mbox_priorbox
I0725 17:03:03.371230 12822 net.cpp:100] Creating Layer conv6_2_mbox_priorbox
I0725 17:03:03.371232 12822 net.cpp:434] conv6_2_mbox_priorbox <- conv6_2_conv6_2_relu_0_split_3
I0725 17:03:03.371237 12822 net.cpp:434] conv6_2_mbox_priorbox <- data_data_0_split_3
I0725 17:03:03.371253 12822 net.cpp:408] conv6_2_mbox_priorbox -> conv6_2_mbox_priorbox
I0725 17:03:03.371281 12822 net.cpp:150] Setting up conv6_2_mbox_priorbox
I0725 17:03:03.371285 12822 net.cpp:157] Top shape: 1 2 2400 (4800)
I0725 17:03:03.371286 12822 net.cpp:165] Memory required for data: 1997651232
I0725 17:03:03.371289 12822 layer_factory.hpp:77] Creating layer conv7_2_mbox_loc
I0725 17:03:03.371296 12822 net.cpp:100] Creating Layer conv7_2_mbox_loc
I0725 17:03:03.371299 12822 net.cpp:434] conv7_2_mbox_loc <- conv7_2_conv7_2_relu_0_split_1
I0725 17:03:03.371304 12822 net.cpp:408] conv7_2_mbox_loc -> conv7_2_mbox_loc
I0725 17:03:03.372750 12822 net.cpp:150] Setting up conv7_2_mbox_loc
I0725 17:03:03.372758 12822 net.cpp:157] Top shape: 8 24 5 5 (4800)
I0725 17:03:03.372761 12822 net.cpp:165] Memory required for data: 1997670432
I0725 17:03:03.372764 12822 layer_factory.hpp:77] Creating layer conv7_2_mbox_loc_perm
I0725 17:03:03.372784 12822 net.cpp:100] Creating Layer conv7_2_mbox_loc_perm
I0725 17:03:03.372787 12822 net.cpp:434] conv7_2_mbox_loc_perm <- conv7_2_mbox_loc
I0725 17:03:03.372792 12822 net.cpp:408] conv7_2_mbox_loc_perm -> conv7_2_mbox_loc_perm
I0725 17:03:03.372931 12822 net.cpp:150] Setting up conv7_2_mbox_loc_perm
I0725 17:03:03.372936 12822 net.cpp:157] Top shape: 8 5 5 24 (4800)
I0725 17:03:03.372937 12822 net.cpp:165] Memory required for data: 1997689632
I0725 17:03:03.372939 12822 layer_factory.hpp:77] Creating layer conv7_2_mbox_loc_flat
I0725 17:03:03.372942 12822 net.cpp:100] Creating Layer conv7_2_mbox_loc_flat
I0725 17:03:03.372959 12822 net.cpp:434] conv7_2_mbox_loc_flat <- conv7_2_mbox_loc_perm
I0725 17:03:03.372977 12822 net.cpp:408] conv7_2_mbox_loc_flat -> conv7_2_mbox_loc_flat
I0725 17:03:03.373015 12822 net.cpp:150] Setting up conv7_2_mbox_loc_flat
I0725 17:03:03.373019 12822 net.cpp:157] Top shape: 8 600 (4800)
I0725 17:03:03.373021 12822 net.cpp:165] Memory required for data: 1997708832
I0725 17:03:03.373023 12822 layer_factory.hpp:77] Creating layer conv7_2_mbox_conf
I0725 17:03:03.373029 12822 net.cpp:100] Creating Layer conv7_2_mbox_conf
I0725 17:03:03.373031 12822 net.cpp:434] conv7_2_mbox_conf <- conv7_2_conv7_2_relu_0_split_2
I0725 17:03:03.373036 12822 net.cpp:408] conv7_2_mbox_conf -> conv7_2_mbox_conf
I0725 17:03:03.375953 12822 net.cpp:150] Setting up conv7_2_mbox_conf
I0725 17:03:03.375962 12822 net.cpp:157] Top shape: 8 126 5 5 (25200)
I0725 17:03:03.375964 12822 net.cpp:165] Memory required for data: 1997809632
I0725 17:03:03.375968 12822 layer_factory.hpp:77] Creating layer conv7_2_mbox_conf_perm
I0725 17:03:03.375989 12822 net.cpp:100] Creating Layer conv7_2_mbox_conf_perm
I0725 17:03:03.375993 12822 net.cpp:434] conv7_2_mbox_conf_perm <- conv7_2_mbox_conf
I0725 17:03:03.375998 12822 net.cpp:408] conv7_2_mbox_conf_perm -> conv7_2_mbox_conf_perm
I0725 17:03:03.376137 12822 net.cpp:150] Setting up conv7_2_mbox_conf_perm
I0725 17:03:03.376142 12822 net.cpp:157] Top shape: 8 5 5 126 (25200)
I0725 17:03:03.376143 12822 net.cpp:165] Memory required for data: 1997910432
I0725 17:03:03.376144 12822 layer_factory.hpp:77] Creating layer conv7_2_mbox_conf_flat
I0725 17:03:03.376148 12822 net.cpp:100] Creating Layer conv7_2_mbox_conf_flat
I0725 17:03:03.376165 12822 net.cpp:434] conv7_2_mbox_conf_flat <- conv7_2_mbox_conf_perm
I0725 17:03:03.376169 12822 net.cpp:408] conv7_2_mbox_conf_flat -> conv7_2_mbox_conf_flat
I0725 17:03:03.376214 12822 net.cpp:150] Setting up conv7_2_mbox_conf_flat
I0725 17:03:03.376219 12822 net.cpp:157] Top shape: 8 3150 (25200)
I0725 17:03:03.376220 12822 net.cpp:165] Memory required for data: 1998011232
I0725 17:03:03.376222 12822 layer_factory.hpp:77] Creating layer conv7_2_mbox_priorbox
I0725 17:03:03.376226 12822 net.cpp:100] Creating Layer conv7_2_mbox_priorbox
I0725 17:03:03.376229 12822 net.cpp:434] conv7_2_mbox_priorbox <- conv7_2_conv7_2_relu_0_split_3
I0725 17:03:03.376231 12822 net.cpp:434] conv7_2_mbox_priorbox <- data_data_0_split_4
I0725 17:03:03.376237 12822 net.cpp:408] conv7_2_mbox_priorbox -> conv7_2_mbox_priorbox
I0725 17:03:03.376298 12822 net.cpp:150] Setting up conv7_2_mbox_priorbox
I0725 17:03:03.376302 12822 net.cpp:157] Top shape: 1 2 600 (1200)
I0725 17:03:03.376304 12822 net.cpp:165] Memory required for data: 1998016032
I0725 17:03:03.376305 12822 layer_factory.hpp:77] Creating layer conv8_2_mbox_loc
I0725 17:03:03.376327 12822 net.cpp:100] Creating Layer conv8_2_mbox_loc
I0725 17:03:03.376328 12822 net.cpp:434] conv8_2_mbox_loc <- conv8_2_conv8_2_relu_0_split_1
I0725 17:03:03.376333 12822 net.cpp:408] conv8_2_mbox_loc -> conv8_2_mbox_loc
I0725 17:03:03.377874 12822 net.cpp:150] Setting up conv8_2_mbox_loc
I0725 17:03:03.377882 12822 net.cpp:157] Top shape: 8 16 3 3 (1152)
I0725 17:03:03.377884 12822 net.cpp:165] Memory required for data: 1998020640
I0725 17:03:03.377914 12822 layer_factory.hpp:77] Creating layer conv8_2_mbox_loc_perm
I0725 17:03:03.377920 12822 net.cpp:100] Creating Layer conv8_2_mbox_loc_perm
I0725 17:03:03.377938 12822 net.cpp:434] conv8_2_mbox_loc_perm <- conv8_2_mbox_loc
I0725 17:03:03.377941 12822 net.cpp:408] conv8_2_mbox_loc_perm -> conv8_2_mbox_loc_perm
I0725 17:03:03.378085 12822 net.cpp:150] Setting up conv8_2_mbox_loc_perm
I0725 17:03:03.378089 12822 net.cpp:157] Top shape: 8 3 3 16 (1152)
I0725 17:03:03.378092 12822 net.cpp:165] Memory required for data: 1998025248
I0725 17:03:03.378093 12822 layer_factory.hpp:77] Creating layer conv8_2_mbox_loc_flat
I0725 17:03:03.378113 12822 net.cpp:100] Creating Layer conv8_2_mbox_loc_flat
I0725 17:03:03.378114 12822 net.cpp:434] conv8_2_mbox_loc_flat <- conv8_2_mbox_loc_perm
I0725 17:03:03.378118 12822 net.cpp:408] conv8_2_mbox_loc_flat -> conv8_2_mbox_loc_flat
I0725 17:03:03.378166 12822 net.cpp:150] Setting up conv8_2_mbox_loc_flat
I0725 17:03:03.378171 12822 net.cpp:157] Top shape: 8 144 (1152)
I0725 17:03:03.378172 12822 net.cpp:165] Memory required for data: 1998029856
I0725 17:03:03.378175 12822 layer_factory.hpp:77] Creating layer conv8_2_mbox_conf
I0725 17:03:03.378181 12822 net.cpp:100] Creating Layer conv8_2_mbox_conf
I0725 17:03:03.378185 12822 net.cpp:434] conv8_2_mbox_conf <- conv8_2_conv8_2_relu_0_split_2
I0725 17:03:03.378188 12822 net.cpp:408] conv8_2_mbox_conf -> conv8_2_mbox_conf
I0725 17:03:03.381896 12822 net.cpp:150] Setting up conv8_2_mbox_conf
I0725 17:03:03.381911 12822 net.cpp:157] Top shape: 8 84 3 3 (6048)
I0725 17:03:03.381912 12822 net.cpp:165] Memory required for data: 1998054048
I0725 17:03:03.381933 12822 layer_factory.hpp:77] Creating layer conv8_2_mbox_conf_perm
I0725 17:03:03.381939 12822 net.cpp:100] Creating Layer conv8_2_mbox_conf_perm
I0725 17:03:03.381942 12822 net.cpp:434] conv8_2_mbox_conf_perm <- conv8_2_mbox_conf
I0725 17:03:03.381961 12822 net.cpp:408] conv8_2_mbox_conf_perm -> conv8_2_mbox_conf_perm
I0725 17:03:03.382109 12822 net.cpp:150] Setting up conv8_2_mbox_conf_perm
I0725 17:03:03.382113 12822 net.cpp:157] Top shape: 8 3 3 84 (6048)
I0725 17:03:03.382115 12822 net.cpp:165] Memory required for data: 1998078240
I0725 17:03:03.382117 12822 layer_factory.hpp:77] Creating layer conv8_2_mbox_conf_flat
I0725 17:03:03.382122 12822 net.cpp:100] Creating Layer conv8_2_mbox_conf_flat
I0725 17:03:03.382138 12822 net.cpp:434] conv8_2_mbox_conf_flat <- conv8_2_mbox_conf_perm
I0725 17:03:03.382143 12822 net.cpp:408] conv8_2_mbox_conf_flat -> conv8_2_mbox_conf_flat
I0725 17:03:03.382182 12822 net.cpp:150] Setting up conv8_2_mbox_conf_flat
I0725 17:03:03.382186 12822 net.cpp:157] Top shape: 8 756 (6048)
I0725 17:03:03.382187 12822 net.cpp:165] Memory required for data: 1998102432
I0725 17:03:03.382189 12822 layer_factory.hpp:77] Creating layer conv8_2_mbox_priorbox
I0725 17:03:03.382194 12822 net.cpp:100] Creating Layer conv8_2_mbox_priorbox
I0725 17:03:03.382210 12822 net.cpp:434] conv8_2_mbox_priorbox <- conv8_2_conv8_2_relu_0_split_3
I0725 17:03:03.382213 12822 net.cpp:434] conv8_2_mbox_priorbox <- data_data_0_split_5
I0725 17:03:03.382231 12822 net.cpp:408] conv8_2_mbox_priorbox -> conv8_2_mbox_priorbox
I0725 17:03:03.382261 12822 net.cpp:150] Setting up conv8_2_mbox_priorbox
I0725 17:03:03.382266 12822 net.cpp:157] Top shape: 1 2 144 (288)
I0725 17:03:03.382266 12822 net.cpp:165] Memory required for data: 1998103584
I0725 17:03:03.382268 12822 layer_factory.hpp:77] Creating layer conv9_2_mbox_loc
I0725 17:03:03.382275 12822 net.cpp:100] Creating Layer conv9_2_mbox_loc
I0725 17:03:03.382278 12822 net.cpp:434] conv9_2_mbox_loc <- conv9_2_conv9_2_relu_0_split_0
I0725 17:03:03.382282 12822 net.cpp:408] conv9_2_mbox_loc -> conv9_2_mbox_loc
I0725 17:03:03.384050 12822 net.cpp:150] Setting up conv9_2_mbox_loc
I0725 17:03:03.384059 12822 net.cpp:157] Top shape: 8 16 1 1 (128)
I0725 17:03:03.384061 12822 net.cpp:165] Memory required for data: 1998104096
I0725 17:03:03.384065 12822 layer_factory.hpp:77] Creating layer conv9_2_mbox_loc_perm
I0725 17:03:03.384085 12822 net.cpp:100] Creating Layer conv9_2_mbox_loc_perm
I0725 17:03:03.384088 12822 net.cpp:434] conv9_2_mbox_loc_perm <- conv9_2_mbox_loc
I0725 17:03:03.384093 12822 net.cpp:408] conv9_2_mbox_loc_perm -> conv9_2_mbox_loc_perm
I0725 17:03:03.384245 12822 net.cpp:150] Setting up conv9_2_mbox_loc_perm
I0725 17:03:03.384250 12822 net.cpp:157] Top shape: 8 1 1 16 (128)
I0725 17:03:03.384253 12822 net.cpp:165] Memory required for data: 1998104608
I0725 17:03:03.384253 12822 layer_factory.hpp:77] Creating layer conv9_2_mbox_loc_flat
I0725 17:03:03.384256 12822 net.cpp:100] Creating Layer conv9_2_mbox_loc_flat
I0725 17:03:03.384274 12822 net.cpp:434] conv9_2_mbox_loc_flat <- conv9_2_mbox_loc_perm
I0725 17:03:03.384279 12822 net.cpp:408] conv9_2_mbox_loc_flat -> conv9_2_mbox_loc_flat
I0725 17:03:03.384316 12822 net.cpp:150] Setting up conv9_2_mbox_loc_flat
I0725 17:03:03.384320 12822 net.cpp:157] Top shape: 8 16 (128)
I0725 17:03:03.384348 12822 net.cpp:165] Memory required for data: 1998105120
I0725 17:03:03.384351 12822 layer_factory.hpp:77] Creating layer conv9_2_mbox_conf
I0725 17:03:03.384357 12822 net.cpp:100] Creating Layer conv9_2_mbox_conf
I0725 17:03:03.384359 12822 net.cpp:434] conv9_2_mbox_conf <- conv9_2_conv9_2_relu_0_split_1
I0725 17:03:03.384366 12822 net.cpp:408] conv9_2_mbox_conf -> conv9_2_mbox_conf
I0725 17:03:03.388005 12822 net.cpp:150] Setting up conv9_2_mbox_conf
I0725 17:03:03.388013 12822 net.cpp:157] Top shape: 8 84 1 1 (672)
I0725 17:03:03.388015 12822 net.cpp:165] Memory required for data: 1998107808
I0725 17:03:03.388034 12822 layer_factory.hpp:77] Creating layer conv9_2_mbox_conf_perm
I0725 17:03:03.388039 12822 net.cpp:100] Creating Layer conv9_2_mbox_conf_perm
I0725 17:03:03.388041 12822 net.cpp:434] conv9_2_mbox_conf_perm <- conv9_2_mbox_conf
I0725 17:03:03.388046 12822 net.cpp:408] conv9_2_mbox_conf_perm -> conv9_2_mbox_conf_perm
I0725 17:03:03.388216 12822 net.cpp:150] Setting up conv9_2_mbox_conf_perm
I0725 17:03:03.388221 12822 net.cpp:157] Top shape: 8 1 1 84 (672)
I0725 17:03:03.388222 12822 net.cpp:165] Memory required for data: 1998110496
I0725 17:03:03.388224 12822 layer_factory.hpp:77] Creating layer conv9_2_mbox_conf_flat
I0725 17:03:03.388242 12822 net.cpp:100] Creating Layer conv9_2_mbox_conf_flat
I0725 17:03:03.388245 12822 net.cpp:434] conv9_2_mbox_conf_flat <- conv9_2_mbox_conf_perm
I0725 17:03:03.388249 12822 net.cpp:408] conv9_2_mbox_conf_flat -> conv9_2_mbox_conf_flat
I0725 17:03:03.388288 12822 net.cpp:150] Setting up conv9_2_mbox_conf_flat
I0725 17:03:03.388291 12822 net.cpp:157] Top shape: 8 84 (672)
I0725 17:03:03.388293 12822 net.cpp:165] Memory required for data: 1998113184
I0725 17:03:03.388294 12822 layer_factory.hpp:77] Creating layer conv9_2_mbox_priorbox
I0725 17:03:03.388314 12822 net.cpp:100] Creating Layer conv9_2_mbox_priorbox
I0725 17:03:03.388316 12822 net.cpp:434] conv9_2_mbox_priorbox <- conv9_2_conv9_2_relu_0_split_2
I0725 17:03:03.388320 12822 net.cpp:434] conv9_2_mbox_priorbox <- data_data_0_split_6
I0725 17:03:03.388324 12822 net.cpp:408] conv9_2_mbox_priorbox -> conv9_2_mbox_priorbox
I0725 17:03:03.388365 12822 net.cpp:150] Setting up conv9_2_mbox_priorbox
I0725 17:03:03.388368 12822 net.cpp:157] Top shape: 1 2 16 (32)
I0725 17:03:03.388370 12822 net.cpp:165] Memory required for data: 1998113312
I0725 17:03:03.388372 12822 layer_factory.hpp:77] Creating layer mbox_loc
I0725 17:03:03.388377 12822 net.cpp:100] Creating Layer mbox_loc
I0725 17:03:03.388381 12822 net.cpp:434] mbox_loc <- conv4_3_norm_mbox_loc_flat
I0725 17:03:03.388384 12822 net.cpp:434] mbox_loc <- fc7_mbox_loc_flat
I0725 17:03:03.388387 12822 net.cpp:434] mbox_loc <- conv6_2_mbox_loc_flat
I0725 17:03:03.388391 12822 net.cpp:434] mbox_loc <- conv7_2_mbox_loc_flat
I0725 17:03:03.388412 12822 net.cpp:434] mbox_loc <- conv8_2_mbox_loc_flat
I0725 17:03:03.388415 12822 net.cpp:434] mbox_loc <- conv9_2_mbox_loc_flat
I0725 17:03:03.388419 12822 net.cpp:408] mbox_loc -> mbox_loc
I0725 17:03:03.388459 12822 net.cpp:150] Setting up mbox_loc
I0725 17:03:03.388463 12822 net.cpp:157] Top shape: 8 34928 (279424)
I0725 17:03:03.388465 12822 net.cpp:165] Memory required for data: 1999231008
I0725 17:03:03.388468 12822 layer_factory.hpp:77] Creating layer mbox_conf
I0725 17:03:03.388485 12822 net.cpp:100] Creating Layer mbox_conf
I0725 17:03:03.388487 12822 net.cpp:434] mbox_conf <- conv4_3_norm_mbox_conf_flat
I0725 17:03:03.388491 12822 net.cpp:434] mbox_conf <- fc7_mbox_conf_flat
I0725 17:03:03.388494 12822 net.cpp:434] mbox_conf <- conv6_2_mbox_conf_flat
I0725 17:03:03.388497 12822 net.cpp:434] mbox_conf <- conv7_2_mbox_conf_flat
I0725 17:03:03.388512 12822 net.cpp:434] mbox_conf <- conv8_2_mbox_conf_flat
I0725 17:03:03.388517 12822 net.cpp:434] mbox_conf <- conv9_2_mbox_conf_flat
I0725 17:03:03.388520 12822 net.cpp:408] mbox_conf -> mbox_conf
I0725 17:03:03.388546 12822 net.cpp:150] Setting up mbox_conf
I0725 17:03:03.388550 12822 net.cpp:157] Top shape: 8 183372 (1466976)
I0725 17:03:03.388561 12822 net.cpp:165] Memory required for data: 2005098912
I0725 17:03:03.388561 12822 layer_factory.hpp:77] Creating layer mbox_priorbox
I0725 17:03:03.388566 12822 net.cpp:100] Creating Layer mbox_priorbox
I0725 17:03:03.388568 12822 net.cpp:434] mbox_priorbox <- conv4_3_norm_mbox_priorbox
I0725 17:03:03.388571 12822 net.cpp:434] mbox_priorbox <- fc7_mbox_priorbox
I0725 17:03:03.388595 12822 net.cpp:434] mbox_priorbox <- conv6_2_mbox_priorbox
I0725 17:03:03.388597 12822 net.cpp:434] mbox_priorbox <- conv7_2_mbox_priorbox
I0725 17:03:03.388599 12822 net.cpp:434] mbox_priorbox <- conv8_2_mbox_priorbox
I0725 17:03:03.388602 12822 net.cpp:434] mbox_priorbox <- conv9_2_mbox_priorbox
I0725 17:03:03.388605 12822 net.cpp:408] mbox_priorbox -> mbox_priorbox
I0725 17:03:03.388643 12822 net.cpp:150] Setting up mbox_priorbox
I0725 17:03:03.388648 12822 net.cpp:157] Top shape: 1 2 34928 (69856)
I0725 17:03:03.388650 12822 net.cpp:165] Memory required for data: 2005378336
I0725 17:03:03.388653 12822 layer_factory.hpp:77] Creating layer mbox_conf_reshape
I0725 17:03:03.388656 12822 net.cpp:100] Creating Layer mbox_conf_reshape
I0725 17:03:03.388659 12822 net.cpp:434] mbox_conf_reshape <- mbox_conf
I0725 17:03:03.388664 12822 net.cpp:408] mbox_conf_reshape -> mbox_conf_reshape
I0725 17:03:03.388697 12822 net.cpp:150] Setting up mbox_conf_reshape
I0725 17:03:03.388701 12822 net.cpp:157] Top shape: 8 8732 21 (1466976)
I0725 17:03:03.388702 12822 net.cpp:165] Memory required for data: 2011246240
I0725 17:03:03.388705 12822 layer_factory.hpp:77] Creating layer mbox_conf_softmax
I0725 17:03:03.388708 12822 net.cpp:100] Creating Layer mbox_conf_softmax
I0725 17:03:03.388710 12822 net.cpp:434] mbox_conf_softmax <- mbox_conf_reshape
I0725 17:03:03.388715 12822 net.cpp:408] mbox_conf_softmax -> mbox_conf_softmax
I0725 17:03:03.389158 12822 net.cpp:150] Setting up mbox_conf_softmax
I0725 17:03:03.389165 12822 net.cpp:157] Top shape: 8 8732 21 (1466976)
I0725 17:03:03.389168 12822 net.cpp:165] Memory required for data: 2017114144
I0725 17:03:03.389169 12822 layer_factory.hpp:77] Creating layer mbox_conf_flatten
I0725 17:03:03.389188 12822 net.cpp:100] Creating Layer mbox_conf_flatten
I0725 17:03:03.389189 12822 net.cpp:434] mbox_conf_flatten <- mbox_conf_softmax
I0725 17:03:03.389194 12822 net.cpp:408] mbox_conf_flatten -> mbox_conf_flatten
I0725 17:03:03.389235 12822 net.cpp:150] Setting up mbox_conf_flatten
I0725 17:03:03.389238 12822 net.cpp:157] Top shape: 8 183372 (1466976)
I0725 17:03:03.389240 12822 net.cpp:165] Memory required for data: 2022982048
I0725 17:03:03.389241 12822 layer_factory.hpp:77] Creating layer detection_out
I0725 17:03:03.389266 12822 net.cpp:100] Creating Layer detection_out
I0725 17:03:03.389268 12822 net.cpp:434] detection_out <- mbox_loc
I0725 17:03:03.389271 12822 net.cpp:434] detection_out <- mbox_conf_flatten
I0725 17:03:03.389288 12822 net.cpp:434] detection_out <- mbox_priorbox
I0725 17:03:03.389293 12822 net.cpp:408] detection_out -> detection_out
I0725 17:03:03.391085 12822 net.cpp:150] Setting up detection_out
I0725 17:03:03.391093 12822 net.cpp:157] Top shape: 1 1 1 7 (7)
I0725 17:03:03.391094 12822 net.cpp:165] Memory required for data: 2022982076
I0725 17:03:03.391096 12822 layer_factory.hpp:77] Creating layer detection_eval
I0725 17:03:03.391116 12822 net.cpp:100] Creating Layer detection_eval
I0725 17:03:03.391119 12822 net.cpp:434] detection_eval <- detection_out
I0725 17:03:03.391122 12822 net.cpp:434] detection_eval <- label
I0725 17:03:03.391126 12822 net.cpp:408] detection_eval -> detection_eval
I0725 17:03:03.391404 12822 net.cpp:150] Setting up detection_eval
I0725 17:03:03.391409 12822 net.cpp:157] Top shape: 1 1 21 5 (105)
I0725 17:03:03.391412 12822 net.cpp:165] Memory required for data: 2022982496
I0725 17:03:03.391413 12822 net.cpp:228] detection_eval does not need backward computation.
I0725 17:03:03.391417 12822 net.cpp:228] detection_out does not need backward computation.
I0725 17:03:03.391433 12822 net.cpp:228] mbox_conf_flatten does not need backward computation.
I0725 17:03:03.391441 12822 net.cpp:228] mbox_conf_softmax does not need backward computation.
…
